{"2020-04-09 14:01:07.112808": {"data": {"TRAIN_PERCENTAGE": 0.8, "SHUFFLE_DATA": true, "PREPROCESS_OPTRIONS": {"remove_links": true, "remove_users": true, "remove_hash": false, "unslang": true, "split_words": true, "stem": false, "remove_punctuations": true, "remove_numbers": true, "to_lower_case": true, "remove_stop_words": true, "remove_not_alpha": true, "join": false}}, "model": {"config": {"name": "sequential_1", "layers": [{"class_name": "Embedding", "config": {"name": "embedding_1", "trainable": true, "batch_input_shape": [null, 4], "dtype": "float32", "input_dim": 118, "output_dim": 16, "embeddings_initializer": {"class_name": "RandomUniform", "config": {"minval": -0.05, "maxval": 0.05, "seed": null}}, "embeddings_regularizer": null, "activity_regularizer": null, "embeddings_constraint": null, "mask_zero": false, "input_length": 4}}, {"class_name": "Flatten", "config": {"name": "flatten_1", "trainable": true, "dtype": "float32", "data_format": "channels_last"}}, {"class_name": "Dense", "config": {"name": "dense_1", "trainable": true, "dtype": "float32", "units": 1, "activation": "sigmoid", "use_bias": true, "kernel_initializer": {"class_name": "VarianceScaling", "config": {"scale": 1.0, "mode": "fan_avg", "distribution": "uniform", "seed": null}}, "bias_initializer": {"class_name": "Zeros", "config": {}}, "kernel_regularizer": null, "bias_regularizer": null, "activity_regularizer": null, "kernel_constraint": null, "bias_constraint": null}}]}, "val_accuracy": [… "constants": {"BATCH_SIZE": 512, "EPOCHS": 30, "VERBOSE": 1, "OPTIMIZER": "rmsprop", "SHUFFLE": true, "EMBEDDING_OPTIONS": {"input_dim": 118, "output_dim": 16, "input_length": 4}}}, "vocabulary": {"WORDS_REPUTATION_FILTER": 0, "SORT_VOCABULARY": true, "REVERSE_SORT": true, "TWEETS_FOR_VOCABULARY_BASE": false, "ADD_START_SYMBOL": true}}, "2020-04-09 14:01:41.567427": {"data": {"TRAIN_PERCENTAGE": 0.8, "SHUFFLE_DATA": true, "PREPROCESS_OPTRIONS": {"remove_links": true, "remove_users": true, "remove_hash": false, "unslang": true, "split_words": true, "stem": false, "remove_punctuations": true, "remove_numbers": true, "to_lower_case": true, "remove_stop_words": true, "remove_not_alpha": true, "join": false}}, "model": {"config": {"name": "sequential_1", "layers": [{"class_name": "Embedding", "config": {"name": "embedding_1", "trainable": true, "batch_input_shape": [null, 4], "dtype": "float32", "input_dim": 118, "output_dim": 16, "embeddings_initializer": {"class_name": "RandomUniform", "config": {"minval": -0.05, "maxval": 0.05, "seed": null}}, "embeddings_regularizer": null, "activity_regularizer": null, "embeddings_constraint": null, "mask_zero": false, "input_length": 4}}, {"class_name": "Flatten", "config": {"name": "flatten_1", "trainable": true, "dtype": "float32", "data_format": "channels_last"}}, {"class_name": "Dense", "config": {"name": "dense_1", "trainable": true, "dtype": "float32", "units": 32, "activation": "relu", "use_bias": true, "kernel_initializer": {"class_name": "VarianceScaling", "config": {"scale": 1.0, "mode": "fan_avg", "distribution": "uniform", "seed": null}}, "bias_initializer": {"class_name": "Zeros", "config": {}}, "kernel_regularizer": null, "bias_regularizer": null, "activity_regularizer": null, "kernel_constraint": null, "bias_constraint": null}}, {"class_name": "Dense", "config": {"name": "dense_2", "trainable": true, "dtype": "float32", "units": 1, "activation": "sigmoid", "use_bias": true, "kernel_initializer": {"class_name": "VarianceScaling", "config": {"scale": 1.0, "mode": "fan_avg", "distribution": "uniform", "seed": null}}, "bias_initializer": {"class_name": "Zeros", "config": {}}, "kernel_regularizer": null, "bias_regularizer": null, "activity_regularizer": null, "kernel_constraint": null, "bias_constraint": null}}]}, "val_accuracy": [… "constants": {"BATCH_SIZE": 512, "EPOCHS": 30, "VERBOSE": 1, "OPTIMIZER": "rmsprop", "SHUFFLE": true, "EMBEDDING_OPTIONS": {"input_dim": 118, "output_dim": 16, "input_length": 4}}}, "vocabulary": {"WORDS_REPUTATION_FILTER": 0, "SORT_VOCABULARY": true, "REVERSE_SORT": true, "TWEETS_FOR_VOCABULARY_BASE": false, "ADD_START_SYMBOL": true}}, "2020-04-09 14:25:22.791521": {"data": {"TRAIN_PERCENTAGE": 0.8, "SHUFFLE_DATA": true, "PREPROCESS_OPTRIONS": {"remove_links": true, "remove_users": true, "remove_hash": false, "unslang": true, "split_words": true, "stem": false, "remove_punctuations": true, "remove_numbers": false, "to_lower_case": true, "remove_stop_words": true, "remove_not_alpha": false, "join": false}}, "model": {"BATCH_SIZE": 512, "EPOCHS": 30, "VERBOSE": 1, "OPTIMIZER": "rmsprop", "SHUFFLE": true, "EMBEDDING_OPTIONS": {"input_dim": 15396, "output_dim": 32, "input_length": 27}, "config": {"name": "sequential_1", "layers": [{"class_name": "Embedding", "config": {"name": "embedding_1", "trainable": true, "batch_input_shape": [null, 27], "dtype": "float32", "input_dim": 15396, "output_dim": 32, "embeddings_initializer": {"class_name": "RandomUniform", "config": {"minval": -0.05, "maxval": 0.05, "seed": null}}, "embeddings_regularizer": null, "activity_regularizer": null, "embeddings_constraint": null, "mask_zero": false, "input_length": 27}}, {"class_name": "Flatten", "config": {"name": "flatten_1", "trainable": true, "dtype": "float32", "data_format": "channels_last"}}, {"class_name": "Dense", "config": {"name": "dense_1", "trainable": true, "dtype": "float32", "units": 1, "activation": "sigmoid", "use_bias": true, "kernel_initializer": {"class_name": "VarianceScaling", "config": {"scale": 1.0, "mode": "fan_avg", "distribution": "uniform", "seed": null}}, "bias_initializer": {"class_name": "Zeros", "config": {}}, "kernel_regularizer": null, "bias_regularizer": null, "activity_regularizer": null, "kernel_constraint": null, "bias_constraint": null}}]}, "val_accuracy": [… "vocabulary": {"WORDS_REPUTATION_FILTER": 0, "SORT_VOCABULARY": false, "REVERSE_SORT": true, "TWEETS_FOR_VOCABULARY_BASE": null, "ADD_START_SYMBOL": true}}, "2020-04-09 14:27:28.022624": {"data": {"TRAIN_PERCENTAGE": 0.8, "SHUFFLE_DATA": true, "PREPROCESS_OPTRIONS": {"remove_links": true, "remove_users": true, "remove_hash": false, "unslang": true, "split_words": true, "stem": false, "remove_punctuations": true, "remove_numbers": false, "to_lower_case": true, "remove_stop_words": true, "remove_not_alpha": false, "join": false}}, "model": {"BATCH_SIZE": 512, "EPOCHS": 30, "VERBOSE": 1, "OPTIMIZER": "rmsprop", "SHUFFLE": true, "EMBEDDING_OPTIONS": {"input_dim": 8526, "output_dim": 512, "input_length": 27}, "config": {"name": "sequential_1", "layers": [{"class_name": "Embedding", "config": {"name": "embedding_1", "trainable": true, "batch_input_shape": [null, 27], "dtype": "float32", "input_dim": 8526, "output_dim": 512, "embeddings_initializer": {"class_name": "RandomUniform", "config": {"minval": -0.05, "maxval": 0.05, "seed": null}}, "embeddings_regularizer": null, "activity_regularizer": null, "embeddings_constraint": null, "mask_zero": false, "input_length": 27}}, {"class_name": "Flatten", "config": {"name": "flatten_1", "trainable": true, "dtype": "float32", "data_format": "channels_last"}}, {"class_name": "Dense", "config": {"name": "dense_1", "trainable": true, "dtype": "float32", "units": 1, "activation": "sigmoid", "use_bias": true, "kernel_initializer": {"class_name": "VarianceScaling", "config": {"scale": 1.0, "mode": "fan_avg", "distribution": "uniform", "seed": null}}, "bias_initializer": {"class_name": "Zeros", "config": {}}, "kernel_regularizer": null, "bias_regularizer": null, "activity_regularizer": null, "kernel_constraint": null, "bias_constraint": null}}]}, "val_accuracy": [… "vocabulary": {"WORDS_REPUTATION_FILTER": 0, "SORT_VOCABULARY": false, "REVERSE_SORT": true, "TWEETS_FOR_VOCABULARY_BASE": true, "ADD_START_SYMBOL": true}}, "2020-04-09 14:54:15.513294": {"data": {"TRAIN_PERCENTAGE": 0.8, "SHUFFLE_DATA": true, "PREPROCESS_OPTRIONS": {"remove_links": true, "remove_users": true, "remove_hash": false, "unslang": true, "split_words": true, "stem": false, "remove_punctuations": true, "remove_numbers": false, "to_lower_case": true, "remove_stop_words": true, "remove_not_alpha": false, "join": false}}, "model": {"BATCH_SIZE": 512, "EPOCHS": 5, "VERBOSE": 1, "OPTIMIZER": "rmsprop", "SHUFFLE": true, "EMBEDDING_OPTIONS": {"input_dim": 15396, "output_dim": 512, "input_length": 27}, "config": {"name": "sequential_1", "layers": [{"class_name": "Embedding", "config": {"name": "embedding_1", "trainable": true, "batch_input_shape": [null, 27], "dtype": "float32", "input_dim": 15396, "output_dim": 512, "embeddings_initializer": {"class_name": "RandomUniform", "config": {"minval": -0.05, "maxval": 0.05, "seed": null}}, "embeddings_regularizer": null, "activity_regularizer": null, "embeddings_constraint": null, "mask_zero": false, "input_length": 27}}, {"class_name": "Flatten", "config": {"name": "flatten_1", "trainable": true, "dtype": "float32", "data_format": "channels_last"}}, {"class_name": "Dense", "config": {"name": "dense_1", "trainable": true, "dtype": "float32", "units": 1, "activation": "sigmoid", "use_bias": true, "kernel_initializer": {"class_name": "VarianceScaling", "config": {"scale": 1.0, "mode": "fan_avg", "distribution": "uniform", "seed": null}}, "bias_initializer": {"class_name": "Zeros", "config": {}}, "kernel_regularizer": null, "bias_regularizer": null, "activity_regularizer": null, "kernel_constraint": null, "bias_constraint": null}}]}, "val_accuracy": [0.6981627345085144, 0.7644357085227966, 0.7887139320373535, 0.7998687624931335, 0.7972440719604492]}, "vocabulary": {"WORDS_REPUTATION_FILTER": 0, "SORT_VOCABULARY": false, "REVERSE_SORT": true, "TWEETS_FOR_VOCABULARY_BASE": null, "ADD_START_SYMBOL": true}}, "2020-04-09 15:02:18.227106": {"data": {"TRAIN_PERCENTAGE": 0.8, "SHUFFLE_DATA": true, "PREPROCESS_OPTRIONS": {"remove_links": true, "remove_users": true, "remove_hash": false, "unslang": true, "split_words": true, "stem": false, "remove_punctuations": true, "remove_numbers": true, "to_lower_case": true, "remove_stop_words": true, "remove_not_alpha": true, "join": false}}, "model": {"BATCH_SIZE": 512, "EPOCHS": 5, "VERBOSE": 1, "OPTIMIZER": "rmsprop", "SHUFFLE": true, "EMBEDDING_OPTIONS": {"input_dim": 8051, "output_dim": 512, "input_length": 21}, "config": {"name": "sequential_1", "layers": [{"class_name": "Embedding", "config": {"name": "embedding_1", "trainable": true, "batch_input_shape": [null, 21], "dtype": "float32", "input_dim": 8051, "output_dim": 512, "embeddings_initializer": {"class_name": "RandomUniform", "config": {"minval": -0.05, "maxval": 0.05, "seed": null}}, "embeddings_regularizer": null, "activity_regularizer": null, "embeddings_constraint": null, "mask_zero": false, "input_length": 21}}, {"class_name": "Flatten", "config": {"name": "flatten_1", "trainable": true, "dtype": "float32", "data_format": "channels_last"}}, {"class_name": "Dense", "config": {"name": "dense_1", "trainable": true, "dtype": "float32", "units": 1, "activation": "sigmoid", "use_bias": true, "kernel_initializer": {"class_name": "VarianceScaling", "config": {"scale": 1.0, "mode": "fan_avg", "distribution": "uniform", "seed": null}}, "bias_initializer": {"class_name": "Zeros", "config": {}}, "kernel_regularizer": null, "bias_regularizer": null, "activity_regularizer": null, "kernel_constraint": null, "bias_constraint": null}}]}, "val_accuracy": [0.7559055089950562, 0.8070865869522095, 0.834645688533783, 0.8372703194618225, 0.8326771855354309], "test_performance": ["67.48%", "72.54%", "75.88%", "76.65%", "77.63%"]}, "vocabulary": {"WORDS_REPUTATION_FILTER": 0, "SORT_VOCABULARY": false, "REVERSE_SORT": true, "TWEETS_FOR_VOCABULARY_BASE": true, "ADD_START_SYMBOL": true}}, "2020-04-09 15:03:13.462863": {"data": {"TRAIN_PERCENTAGE": 0.8, "SHUFFLE_DATA": true, "PREPROCESS_OPTRIONS": {"remove_links": true, "remove_users": true, "remove_hash": false, "unslang": true, "split_words": true, "stem": false, "remove_punctuations": true, "remove_numbers": true, "to_lower_case": true, "remove_stop_words": true, "remove_not_alpha": true, "join": false}}, "model": {"BATCH_SIZE": 512, "EPOCHS": 15, "VERBOSE": 1, "OPTIMIZER": "rmsprop", "SHUFFLE": true, "EMBEDDING_OPTIONS": {"input_dim": 8051, "output_dim": 512, "input_length": 21}, "config": {"name": "sequential_1", "layers": [{"class_name": "Embedding", "config": {"name": "embedding_1", "trainable": true, "batch_input_shape": [null, 21], "dtype": "float32", "input_dim": 8051, "output_dim": 512, "embeddings_initializer": {"class_name": "RandomUniform", "config": {"minval": -0.05, "maxval": 0.05, "seed": null}}, "embeddings_regularizer": null, "activity_regularizer": null, "embeddings_constraint": null, "mask_zero": false, "input_length": 21}}, {"class_name": "Flatten", "config": {"name": "flatten_1", "trainable": true, "dtype": "float32", "data_format": "channels_last"}}, {"class_name": "Dense", "config": {"name": "dense_1", "trainable": true, "dtype": "float32", "units": 1, "activation": "sigmoid", "use_bias": true, "kernel_initializer": {"class_name": "VarianceScaling", "config": {"scale": 1.0, "mode": "fan_avg", "distribution": "uniform", "seed": null}}, "bias_initializer": {"class_name": "Zeros", "config": {}}, "kernel_regularizer": null, "bias_regularizer": null, "activity_regularizer": null, "kernel_constraint": null, "bias_constraint": null}}]}, "val_accuracy": [0.7559055089950562, 0.7919947504997253, 0.8261154890060425, 0.8300524950027466, 0.8228346705436707, 0.8215222954750061, 0.8116797804832458, 0.8116797804832458, 0.8051180839538574, 0.8070865869522095, 0.8057742714881897, 0.8044619560241699, 0.8044619560241699, 0.8018372654914856, 0.7985564470291138], "test_performance": ["68.22%", "71.96%", "75.91%", "77.02%", "78.03%", "78.33%", "78.52%", "78.15%", "78.21%", "78.36%", "78.46%", "77.87%", "77.81%", "78.21%", "77.84%"]}, "vocabulary": {"WORDS_REPUTATION_FILTER": 0, "SORT_VOCABULARY": false, "REVERSE_SORT": true, "TWEETS_FOR_VOCABULARY_BASE": true, "ADD_START_SYMBOL": true}}, "2020-04-09 15:04:23.568644": {"data": {"TRAIN_PERCENTAGE": 0.8, "SHUFFLE_DATA": true, "PREPROCESS_OPTRIONS": {"remove_links": true, "remove_users": true, "remove_hash": false, "unslang": true, "split_words": true, "stem": false, "remove_punctuations": true, "remove_numbers": true, "to_lower_case": true, "remove_stop_words": true, "remove_not_alpha": true, "join": false}}, "model": {"BATCH_SIZE": 512, "EPOCHS": 15, "VERBOSE": 1, "OPTIMIZER": "rmsprop", "SHUFFLE": true, "EMBEDDING_OPTIONS": {"input_dim": 8050, "output_dim": 512, "input_length": 21}, "config": {"name": "sequential_1", "layers": [{"class_name": "Embedding", "config": {"name": "embedding_1", "trainable": true, "batch_input_shape": [null, 21], "dtype": "float32", "input_dim": 8050, "output_dim": 512, "embeddings_initializer": {"class_name": "RandomUniform", "config": {"minval": -0.05, "maxval": 0.05, "seed": null}}, "embeddings_regularizer": null, "activity_regularizer": null, "embeddings_constraint": null, "mask_zero": false, "input_length": 21}}, {"class_name": "Flatten", "config": {"name": "flatten_1", "trainable": true, "dtype": "float32", "data_format": "channels_last"}}, {"class_name": "Dense", "config": {"name": "dense_1", "trainable": true, "dtype": "float32", "units": 1, "activation": "sigmoid", "use_bias": true, "kernel_initializer": {"class_name": "VarianceScaling", "config": {"scale": 1.0, "mode": "fan_avg", "distribution": "uniform", "seed": null}}, "bias_initializer": {"class_name": "Zeros", "config": {}}, "kernel_regularizer": null, "bias_regularizer": null, "activity_regularizer": null, "kernel_constraint": null, "bias_constraint": null}}]}, "val_accuracy": [0.7559055089950562, 0.7788714170455933, 0.7933070659637451, 0.8031495809555054, 0.8011810779571533, 0.7992125749588013, 0.7926509380340576, 0.7946194410324097, 0.7880577445030212, 0.7867454290390015, 0.7860892415046692, 0.7814960479736328, 0.7775590419769287, 0.7716535329818726, 0.7775590419769287], "test_performance": ["68.83%", "72.94%", "75.08%", "77.23%", "77.54%", "77.78%", "77.87%", "77.93%", "77.81%", "77.90%", "77.81%", "77.84%", "77.75%", "77.66%", "77.29%"]}, "vocabulary": {"WORDS_REPUTATION_FILTER": 0, "SORT_VOCABULARY": true, "REVERSE_SORT": false, "TWEETS_FOR_VOCABULARY_BASE": true, "ADD_START_SYMBOL": false}}, "2020-04-09 15:05:32.658453": {"data": {"TRAIN_PERCENTAGE": 0.8, "SHUFFLE_DATA": true, "PREPROCESS_OPTRIONS": {"remove_links": true, "remove_users": true, "remove_hash": true, "unslang": true, "split_words": true, "stem": true, "remove_punctuations": true, "remove_numbers": true, "to_lower_case": true, "remove_stop_words": true, "remove_not_alpha": true, "join": false}}, "model": {"BATCH_SIZE": 512, "EPOCHS": 15, "VERBOSE": 1, "OPTIMIZER": "rmsprop", "SHUFFLE": true, "EMBEDDING_OPTIONS": {"input_dim": 10855, "output_dim": 512, "input_length": 23}, "config": {"name": "sequential_1", "layers": [{"class_name": "Embedding", "config": {"name": "embedding_1", "trainable": true, "batch_input_shape": [null, 23], "dtype": "float32", "input_dim": 10855, "output_dim": 512, "embeddings_initializer": {"class_name": "RandomUniform", "config": {"minval": -0.05, "maxval": 0.05, "seed": null}}, "embeddings_regularizer": null, "activity_regularizer": null, "embeddings_constraint": null, "mask_zero": false, "input_length": 23}}, {"class_name": "Flatten", "config": {"name": "flatten_1", "trainable": true, "dtype": "float32", "data_format": "channels_last"}}, {"class_name": "Dense", "config": {"name": "dense_1", "trainable": true, "dtype": "float32", "units": 1, "activation": "sigmoid", "use_bias": true, "kernel_initializer": {"class_name": "VarianceScaling", "config": {"scale": 1.0, "mode": "fan_avg", "distribution": "uniform", "seed": null}}, "bias_initializer": {"class_name": "Zeros", "config": {}}, "kernel_regularizer": null, "bias_regularizer": null, "activity_regularizer": null, "kernel_constraint": null, "bias_constraint": null}}]}, "val_accuracy": [0.7191600799560547, 0.7683727145195007, 0.7992125749588013, 0.7998687624931335, 0.8070865869522095, 0.8011810779571533, 0.7985564470291138, 0.7979002594947815, 0.8005249500274658, 0.7926509380340576, 0.7841207385063171, 0.7906824350357056, 0.7834645509719849, 0.7821522355079651, 0.7795275449752808], "test_performance": ["70.30%", "76.71%", "77.81%", "78.09%", "79.10%", "78.88%", "79.07%", "78.76%", "78.55%", "78.03%", "77.54%", "77.72%", "77.11%", "76.98%", "76.52%"]}, "vocabulary": {"WORDS_REPUTATION_FILTER": 0, "SORT_VOCABULARY": false, "REVERSE_SORT": false, "TWEETS_FOR_VOCABULARY_BASE": null, "ADD_START_SYMBOL": false}}, "2020-04-09 15:06:35.633392": {"data": {"TRAIN_PERCENTAGE": 0.8, "SHUFFLE_DATA": true, "PREPROCESS_OPTRIONS": {"remove_links": true, "remove_users": true, "remove_hash": true, "unslang": true, "split_words": true, "stem": true, "remove_punctuations": true, "remove_numbers": true, "to_lower_case": true, "remove_stop_words": true, "remove_not_alpha": true, "join": false}}, "model": {"BATCH_SIZE": 512, "EPOCHS": 15, "VERBOSE": 1, "OPTIMIZER": "rmsprop", "SHUFFLE": true, "EMBEDDING_OPTIONS": {"input_dim": 10855, "output_dim": 16, "input_length": 23}, "config": {"name": "sequential_1", "layers": [{"class_name": "Embedding", "config": {"name": "embedding_1", "trainable": true, "batch_input_shape": [null, 23], "dtype": "float32", "input_dim": 10855, "output_dim": 16, "embeddings_initializer": {"class_name": "RandomUniform", "config": {"minval": -0.05, "maxval": 0.05, "seed": null}}, "embeddings_regularizer": null, "activity_regularizer": null, "embeddings_constraint": null, "mask_zero": false, "input_length": 23}}, {"class_name": "Flatten", "config": {"name": "flatten_1", "trainable": true, "dtype": "float32", "data_format": "channels_last"}}, {"class_name": "Dense", "config": {"name": "dense_1", "trainable": true, "dtype": "float32", "units": 1, "activation": "sigmoid", "use_bias": true, "kernel_initializer": {"class_name": "VarianceScaling", "config": {"scale": 1.0, "mode": "fan_avg", "distribution": "uniform", "seed": null}}, "bias_initializer": {"class_name": "Zeros", "config": {}}, "kernel_regularizer": null, "bias_regularizer": null, "activity_regularizer": null, "kernel_constraint": null, "bias_constraint": null}}]}, "val_accuracy": [0.5702099800109863, 0.5853018164634705, 0.6115485429763794, 0.6404199600219727, 0.6732283234596252, 0.7014435529708862, 0.7145669460296631, 0.7250655889511108, 0.7342519760131836, 0.748031497001648, 0.7637795209884644, 0.7677165269851685, 0.7723097205162048, 0.7762467265129089, 0.7795275449752808], "test_performance": ["57.09%", "58.54%", "61.14%", "63.53%", "66.07%", "69.72%", "71.65%", "73.34%", "74.35%", "74.87%", "75.88%", "76.13%", "76.49%", "76.77%", "76.89%"]}, "vocabulary": {"WORDS_REPUTATION_FILTER": 0, "SORT_VOCABULARY": false, "REVERSE_SORT": false, "TWEETS_FOR_VOCABULARY_BASE": null, "ADD_START_SYMBOL": false}}, "2020-04-09 15:08:09.601555": {"data": {"TRAIN_PERCENTAGE": 0.8, "SHUFFLE_DATA": true, "PREPROCESS_OPTRIONS": {"remove_links": true, "remove_users": true, "remove_hash": true, "unslang": true, "split_words": true, "stem": true, "remove_punctuations": true, "remove_numbers": true, "to_lower_case": true, "remove_stop_words": true, "remove_not_alpha": true, "join": false}}, "model": {"BATCH_SIZE": 512, "EPOCHS": 50, "VERBOSE": 1, "OPTIMIZER": "rmsprop", "SHUFFLE": true, "EMBEDDING_OPTIONS": {"input_dim": 10855, "output_dim": 16, "input_length": 23}, "config": {"name": "sequential_1", "layers": [{"class_name": "Embedding", "config": {"name": "embedding_1", "trainable": true, "batch_input_shape": [null, 23], "dtype": "float32", "input_dim": 10855, "output_dim": 16, "embeddings_initializer": {"class_name": "RandomUniform", "config": {"minval": -0.05, "maxval": 0.05, "seed": null}}, "embeddings_regularizer": null, "activity_regularizer": null, "embeddings_constraint": null, "mask_zero": false, "input_length": 23}}, {"class_name": "Flatten", "config": {"name": "flatten_1", "trainable": true, "dtype": "float32", "data_format": "channels_last"}}, {"class_name": "Dense", "config": {"name": "dense_1", "trainable": true, "dtype": "float32", "units": 1, "activation": "sigmoid", "use_bias": true, "kernel_initializer": {"class_name": "VarianceScaling", "config": {"scale": 1.0, "mode": "fan_avg", "distribution": "uniform", "seed": null}}, "bias_initializer": {"class_name": "Zeros", "config": {}}, "kernel_regularizer": null, "bias_regularizer": null, "activity_regularizer": null, "kernel_constraint": null, "bias_constraint": null}}]}, "val_accuracy": [… "test_performance": ["57.37%", "57.77%", "58.69%", "61.17%", "64.39%", "67.48%", "69.72%", "71.10%", "72.17%", "73.74%", "74.16%", "75.18%", "75.57%", "76.03%", "76.19%", "76.46%", "76.95%", "77.38%", "77.51%", "77.69%", "77.47%", "77.60%", "77.51%", "77.81%", "78.03%", "78.12%", "78.18%", "78.24%", "78.49%", "78.61%", "78.73%", "78.82%", "78.79%", "78.76%", "78.79%", "78.82%", "78.64%", "78.58%", "78.64%", "78.64%", "78.39%", "78.76%", "78.67%", "78.64%", "78.55%", "78.46%", "78.36%", "78.39%", "78.36%", "78.36%"]}, "vocabulary": {"WORDS_REPUTATION_FILTER": 0, "SORT_VOCABULARY": false, "REVERSE_SORT": false, "TWEETS_FOR_VOCABULARY_BASE": null, "ADD_START_SYMBOL": false}}, "2020-04-09 15:12:23.457737": {"data": {"TRAIN_PERCENTAGE": 0.8, "SHUFFLE_DATA": true, "PREPROCESS_OPTRIONS": {"remove_links": true, "remove_users": true, "remove_hash": true, "unslang": true, "split_words": true, "stem": true, "remove_punctuations": true, "remove_numbers": true, "to_lower_case": true, "remove_stop_words": true, "remove_not_alpha": true, "join": false}}, "model": {"BATCH_SIZE": 512, "EPOCHS": 50, "VERBOSE": 1, "OPTIMIZER": "rmsprop", "SHUFFLE": true, "EMBEDDING_OPTIONS": {"input_dim": 10855, "output_dim": 16, "input_length": 23}, "config": {"name": "sequential_1", "layers": [{"class_name": "Embedding", "config": {"name": "embedding_1", "trainable": true, "batch_input_shape": [null, 23], "dtype": "float32", "input_dim": 10855, "output_dim": 16, "embeddings_initializer": {"class_name": "RandomUniform", "config": {"minval": -0.05, "maxval": 0.05, "seed": null}}, "embeddings_regularizer": null, "activity_regularizer": null, "embeddings_constraint": null, "mask_zero": false, "input_length": 23}}, {"class_name": "Flatten", "config": {"name": "flatten_1", "trainable": true, "dtype": "float32", "data_format": "channels_last"}}, {"class_name": "Dense", "config": {"name": "dense_1", "trainable": true, "dtype": "float32", "units": 1, "activation": "sigmoid", "use_bias": true, "kernel_initializer": {"class_name": "VarianceScaling", "config": {"scale": 1.0, "mode": "fan_avg", "distribution": "uniform", "seed": null}}, "bias_initializer": {"class_name": "Zeros", "config": {}}, "kernel_regularizer": null, "bias_regularizer": null, "activity_regularizer": null, "kernel_constraint": null, "bias_constraint": null}}]}, "val_accuracy": [… "test_performance": ["57.34%", "57.68%", "59.33%", "61.60%", "65.49%", "68.86%", "71.01%", "73.40%", "73.92%", "75.11%", "75.51%", "76.06%", "76.34%", "76.59%", "76.74%", "76.92%", "77.32%", "77.47%", "77.41%", "77.72%", "78.00%", "78.21%", "78.33%", "78.49%", "78.30%", "78.64%", "78.06%", "78.61%", "78.58%", "78.39%", "78.46%", "78.42%", "78.42%", "78.42%", "78.92%", "78.46%", "78.82%", "78.73%", "78.64%", "78.58%", "78.46%", "78.52%", "78.46%", "78.33%", "78.36%", "78.12%", "78.00%", "78.00%", "78.06%", "78.00%"]}, "vocabulary": {"WORDS_REPUTATION_FILTER": 0, "SORT_VOCABULARY": false, "REVERSE_SORT": false, "TWEETS_FOR_VOCABULARY_BASE": null, "ADD_START_SYMBOL": false}}, "2020-04-09 15:29:12.983572": {"data": {"TRAIN_PERCENTAGE": 0.8, "SHUFFLE_DATA": true, "PREPROCESS_OPTRIONS": {"remove_links": true, "remove_users": true, "remove_hash": true, "unslang": true, "split_words": true, "stem": true, "remove_punctuations": true, "remove_numbers": true, "to_lower_case": true, "remove_stop_words": true, "remove_not_alpha": true, "join": false}}, "model": {"BATCH_SIZE": 512, "EPOCHS": 50, "VERBOSE": 1, "OPTIMIZER": "rmsprop", "SHUFFLE": true, "EMBEDDING_OPTIONS": {"input_dim": 10855, "output_dim": 16, "input_length": 23}, "config": {"name": "sequential_1", "layers": [{"class_name": "Embedding", "config": {"name": "embedding_1", "trainable": true, "batch_input_shape": [null, 23], "dtype": "float32", "input_dim": 10855, "output_dim": 16, "embeddings_initializer": {"class_name": "RandomUniform", "config": {"minval": -0.05, "maxval": 0.05, "seed": null}}, "embeddings_regularizer": null, "activity_regularizer": null, "embeddings_constraint": null, "mask_zero": false, "input_length": 23}}, {"class_name": "Flatten", "config": {"name": "flatten_1", "trainable": true, "dtype": "float32", "data_format": "channels_last"}}, {"class_name": "Dense", "config": {"name": "dense_1", "trainable": true, "dtype": "float32", "units": 1, "activation": "sigmoid", "use_bias": true, "kernel_initializer": {"class_name": "VarianceScaling", "config": {"scale": 1.0, "mode": "fan_avg", "distribution": "uniform", "seed": null}}, "bias_initializer": {"class_name": "Zeros", "config": {}}, "kernel_regularizer": null, "bias_regularizer": null, "activity_regularizer": null, "kernel_constraint": null, "bias_constraint": null}}]}, "val_accuracy": [… "test_performance": ["57.71%", "57.80%", "59.30%", "61.91%", "65.65%", "69.48%", "71.87%", "72.72%", "73.95%", "74.96%", "75.85%", "76.00%", "76.56%", "76.68%", "77.11%", "77.29%", "77.44%", "77.97%", "78.42%", "78.46%", "78.55%", "78.55%", "78.67%", "78.61%", "78.73%", "78.82%", "78.82%", "78.61%", "78.85%", "78.73%", "78.73%", "78.67%", "78.73%", "78.55%", "78.49%", "78.73%", "78.67%", "78.64%", "78.58%", "78.52%", "78.42%", "78.39%", "78.33%", "78.03%", "77.93%", "78.00%", "77.78%", "77.84%", "77.78%", "77.66%"]}, "vocabulary": {"WORDS_REPUTATION_FILTER": 0, "SORT_VOCABULARY": false, "REVERSE_SORT": false, "TWEETS_FOR_VOCABULARY_BASE": null, "ADD_START_SYMBOL": false}}, "2020-04-09 15:29:39.675965": {"data": {"TRAIN_PERCENTAGE": 0.8, "SHUFFLE_DATA": true, "PREPROCESS_OPTRIONS": {"remove_links": true, "remove_users": true, "remove_hash": true, "unslang": true, "split_words": true, "stem": true, "remove_punctuations": true, "remove_numbers": true, "to_lower_case": true, "remove_stop_words": true, "remove_not_alpha": true, "join": false}}, "model": {"BATCH_SIZE": 512, "EPOCHS": 50, "VERBOSE": 1, "OPTIMIZER": "rmsprop", "SHUFFLE": true, "EMBEDDING_OPTIONS": {"input_dim": 10855, "output_dim": 16, "input_length": 23}, "config": {"name": "sequential_1", "layers": [{"class_name": "Embedding", "config": {"name": "embedding_1", "trainable": true, "batch_input_shape": [null, 23], "dtype": "float32", "input_dim": 10855, "output_dim": 16, "embeddings_initializer": {"class_name": "RandomUniform", "config": {"minval": -0.05, "maxval": 0.05, "seed": null}}, "embeddings_regularizer": null, "activity_regularizer": null, "embeddings_constraint": null, "mask_zero": false, "input_length": 23}}, {"class_name": "Flatten", "config": {"name": "flatten_1", "trainable": true, "dtype": "float32", "data_format": "channels_last"}}, {"class_name": "Dense", "config": {"name": "dense_1", "trainable": true, "dtype": "float32", "units": 1, "activation": "sigmoid", "use_bias": true, "kernel_initializer": {"class_name": "VarianceScaling", "config": {"scale": 1.0, "mode": "fan_avg", "distribution": "uniform", "seed": null}}, "bias_initializer": {"class_name": "Zeros", "config": {}}, "kernel_regularizer": null, "bias_regularizer": null, "activity_regularizer": null, "kernel_constraint": null, "bias_constraint": null}}]}, "val_accuracy": [… "test_performance": ["57.95%", "58.01%", "59.55%", "61.75%", "63.84%", "67.39%", "69.45%", "70.70%", "72.85%", "73.77%", "74.56%", "74.87%", "75.18%", "76.10%", "76.22%", "76.46%", "76.62%", "76.80%", "76.98%", "77.02%", "77.05%", "77.51%", "77.51%", "77.57%", "77.93%", "77.93%", "77.97%", "78.00%", "78.00%", "77.97%", "78.03%", "77.75%", "77.90%", "78.12%", "78.09%", "77.90%", "77.84%", "77.81%", "77.78%", "77.84%", "77.75%", "77.72%", "77.72%", "77.44%", "77.51%", "77.47%", "77.17%", "77.05%", "77.14%", "77.05%"]}, "vocabulary": {"WORDS_REPUTATION_FILTER": 0, "SORT_VOCABULARY": false, "REVERSE_SORT": false, "TWEETS_FOR_VOCABULARY_BASE": null, "ADD_START_SYMBOL": false}}, "2020-04-09 15:30:51.508293": {"data": {"TRAIN_PERCENTAGE": 0.8, "SHUFFLE_DATA": true, "PREPROCESS_OPTRIONS": {"remove_links": true, "remove_users": true, "remove_hash": true, "unslang": true, "split_words": true, "stem": true, "remove_punctuations": true, "remove_numbers": true, "to_lower_case": true, "remove_stop_words": true, "remove_not_alpha": true, "join": false}}, "model": {"BATCH_SIZE": 512, "EPOCHS": 50, "VERBOSE": 1, "OPTIMIZER": "rmsprop", "SHUFFLE": true, "EMBEDDING_OPTIONS": {"input_dim": 10855, "output_dim": 16, "input_length": 23}, "config": {"name": "sequential_1", "layers": [{"class_name": "Embedding", "config": {"name": "embedding_1", "trainable": true, "batch_input_shape": [null, 23], "dtype": "float32", "input_dim": 10855, "output_dim": 16, "embeddings_initializer": {"class_name": "RandomUniform", "config": {"minval": -0.05, "maxval": 0.05, "seed": null}}, "embeddings_regularizer": null, "activity_regularizer": null, "embeddings_constraint": null, "mask_zero": false, "input_length": 23}}, {"class_name": "Flatten", "config": {"name": "flatten_1", "trainable": true, "dtype": "float32", "data_format": "channels_last"}}, {"class_name": "Dense", "config": {"name": "dense_1", "trainable": true, "dtype": "float32", "units": 1, "activation": "sigmoid", "use_bias": true, "kernel_initializer": {"class_name": "VarianceScaling", "config": {"scale": 1.0, "mode": "fan_avg", "distribution": "uniform", "seed": null}}, "bias_initializer": {"class_name": "Zeros", "config": {}}, "kernel_regularizer": null, "bias_regularizer": null, "activity_regularizer": null, "kernel_constraint": null, "bias_constraint": null}}]}, "val_accuracy": [… "test_performance": ["57.34%", "58.11%", "59.27%", "61.63%", "65.09%", "68.16%", "70.27%", "72.54%", "73.74%", "74.35%", "75.42%", "76.06%", "76.74%", "77.11%", "77.17%", "77.44%", "77.63%", "78.03%", "78.03%", "78.39%", "78.58%", "78.61%", "78.85%", "78.98%", "78.76%", "78.82%", "79.04%", "79.07%", "78.88%", "79.01%", "79.10%", "79.10%", "79.01%", "79.01%", "79.13%", "79.19%", "78.98%", "79.13%", "78.98%", "78.92%", "78.88%", "79.13%", "79.04%", "79.10%", "79.04%", "79.07%", "79.04%", "79.01%", "78.82%", "78.85%"]}, "vocabulary": {"WORDS_REPUTATION_FILTER": 0, "SORT_VOCABULARY": false, "REVERSE_SORT": false, "TWEETS_FOR_VOCABULARY_BASE": null, "ADD_START_SYMBOL": false}}, "2020-04-09 15:32:10.290003": {"data": {"TRAIN_PERCENTAGE": 0.8, "SHUFFLE_DATA": true, "PREPROCESS_OPTRIONS": {"remove_links": true, "remove_users": true, "remove_hash": true, "unslang": true, "split_words": true, "stem": true, "remove_punctuations": true, "remove_numbers": true, "to_lower_case": true, "remove_stop_words": true, "remove_not_alpha": true, "join": false}}, "model": {"BATCH_SIZE": 512, "EPOCHS": 50, "VERBOSE": 1, "OPTIMIZER": "rmsprop", "SHUFFLE": true, "EMBEDDING_OPTIONS": {"input_dim": 10855, "output_dim": 16, "input_length": 23}, "config": {"name": "sequential_1", "layers": [{"class_name": "Embedding", "config": {"name": "embedding_1", "trainable": true, "batch_input_shape": [null, 23], "dtype": "float32", "input_dim": 10855, "output_dim": 16, "embeddings_initializer": {"class_name": "RandomUniform", "config": {"minval": -0.05, "maxval": 0.05, "seed": null}}, "embeddings_regularizer": null, "activity_regularizer": null, "embeddings_constraint": null, "mask_zero": false, "input_length": 23}}, {"class_name": "Flatten", "config": {"name": "flatten_1", "trainable": true, "dtype": "float32", "data_format": "channels_last"}}, {"class_name": "Dense", "config": {"name": "dense_1", "trainable": true, "dtype": "float32", "units": 1, "activation": "sigmoid", "use_bias": true, "kernel_initializer": {"class_name": "VarianceScaling", "config": {"scale": 1.0, "mode": "fan_avg", "distribution": "uniform", "seed": null}}, "bias_initializer": {"class_name": "Zeros", "config": {}}, "kernel_regularizer": null, "bias_regularizer": null, "activity_regularizer": null, "kernel_constraint": null, "bias_constraint": null}}]}, "val_accuracy": [… "test_performance": ["57.09%", "57.83%", "59.33%", "63.01%", "65.49%", "69.02%", "70.30%", "71.71%", "73.03%", "74.90%", "75.45%", "75.67%", "76.71%", "77.26%", "77.41%", "77.72%", "77.81%", "78.06%", "78.42%", "78.46%", "78.85%", "78.98%", "78.92%", "78.95%", "78.85%", "78.79%", "78.88%", "79.16%", "79.01%", "79.10%", "79.16%", "78.95%", "78.85%", "78.88%", "78.79%", "78.61%", "78.70%", "78.58%", "78.55%", "78.52%", "78.52%", "78.52%", "78.52%", "78.58%", "78.64%", "78.49%", "78.55%", "78.46%", "78.46%", "78.39%"]}, "vocabulary": {"WORDS_REPUTATION_FILTER": 0, "SORT_VOCABULARY": false, "REVERSE_SORT": false, "TWEETS_FOR_VOCABULARY_BASE": null, "ADD_START_SYMBOL": false}}, "2020-04-09 15:32:51.837491": {"data": {"TRAIN_PERCENTAGE": 0.8, "SHUFFLE_DATA": true, "PREPROCESS_OPTRIONS": {"remove_links": true, "remove_users": true, "remove_hash": true, "unslang": true, "split_words": true, "stem": true, "remove_punctuations": true, "remove_numbers": true, "to_lower_case": true, "remove_stop_words": true, "remove_not_alpha": true, "join": false}}, "model": {"BATCH_SIZE": 512, "EPOCHS": 50, "VERBOSE": 1, "OPTIMIZER": "rmsprop", "SHUFFLE": true, "EMBEDDING_OPTIONS": {"input_dim": 10855, "output_dim": 16, "input_length": 23}, "config": {"name": "sequential_1", "layers": [{"class_name": "Embedding", "config": {"name": "embedding_1", "trainable": true, "batch_input_shape": [null, 23], "dtype": "float32", "input_dim": 10855, "output_dim": 16, "embeddings_initializer": {"class_name": "RandomUniform", "config": {"minval": -0.05, "maxval": 0.05, "seed": null}}, "embeddings_regularizer": null, "activity_regularizer": null, "embeddings_constraint": null, "mask_zero": false, "input_length": 23}}, {"class_name": "Flatten", "config": {"name": "flatten_1", "trainable": true, "dtype": "float32", "data_format": "channels_last"}}, {"class_name": "Dense", "config": {"name": "dense_1", "trainable": true, "dtype": "float32", "units": 1, "activation": "sigmoid", "use_bias": true, "kernel_initializer": {"class_name": "VarianceScaling", "config": {"scale": 1.0, "mode": "fan_avg", "distribution": "uniform", "seed": null}}, "bias_initializer": {"class_name": "Zeros", "config": {}}, "kernel_regularizer": null, "bias_regularizer": null, "activity_regularizer": null, "kernel_constraint": null, "bias_constraint": null}}]}, "val_accuracy": [… "test_performance": ["57.09%", "57.59%", "59.39%", "63.71%", "67.64%", "70.49%", "72.26%", "73.86%", "74.20%", "75.33%", "75.67%", "76.16%", "76.86%", "76.89%", "77.26%", "77.35%", "77.78%", "78.03%", "78.15%", "78.61%", "78.64%", "78.76%", "78.88%", "78.98%", "78.95%", "79.01%", "79.22%", "79.22%", "79.19%", "79.16%", "79.25%", "79.10%", "79.19%", "79.28%", "79.10%", "78.82%", "78.82%", "78.95%", "78.85%", "78.98%", "78.67%", "78.55%", "78.52%", "78.76%", "78.64%", "78.70%", "78.70%", "78.64%", "78.58%", "78.39%"]}, "vocabulary": {"WORDS_REPUTATION_FILTER": 0, "SORT_VOCABULARY": false, "REVERSE_SORT": false, "TWEETS_FOR_VOCABULARY_BASE": null, "ADD_START_SYMBOL": false}}, "2020-04-09 15:35:42.638142": {"data": {"TRAIN_PERCENTAGE": 0.8, "SHUFFLE_DATA": true, "PREPROCESS_OPTRIONS": {"remove_links": true, "remove_users": true, "remove_hash": true, "unslang": true, "split_words": true, "stem": true, "remove_punctuations": true, "remove_numbers": true, "to_lower_case": true, "remove_stop_words": true, "remove_not_alpha": true, "join": false}}, "model": {"BATCH_SIZE": 512, "EPOCHS": 50, "VERBOSE": 1, "OPTIMIZER": "rmsprop", "SHUFFLE": true, "EMBEDDING_OPTIONS": {"input_dim": 10855, "output_dim": 16, "input_length": 23}, "config": {"name": "sequential_1", "layers": [{"class_name": "Embedding", "config": {"name": "embedding_1", "trainable": true, "batch_input_shape": [null, 23], "dtype": "float32", "input_dim": 10855, "output_dim": 16, "embeddings_initializer": {"class_name": "RandomUniform", "config": {"minval": -0.05, "maxval": 0.05, "seed": null}}, "embeddings_regularizer": null, "activity_regularizer": null, "embeddings_constraint": null, "mask_zero": false, "input_length": 23}}, {"class_name": "Flatten", "config": {"name": "flatten_1", "trainable": true, "dtype": "float32", "data_format": "channels_last"}}, {"class_name": "Dense", "config": {"name": "dense_1", "trainable": true, "dtype": "float32", "units": 1, "activation": "sigmoid", "use_bias": true, "kernel_initializer": {"class_name": "VarianceScaling", "config": {"scale": 1.0, "mode": "fan_avg", "distribution": "uniform", "seed": null}}, "bias_initializer": {"class_name": "Zeros", "config": {}}, "kernel_regularizer": null, "bias_regularizer": null, "activity_regularizer": null, "kernel_constraint": null, "bias_constraint": null}}]}, "val_accuracy": [… "test_performance": ["57.13%", "57.43%", "59.76%", "61.45%", "65.31%", "69.20%", "70.76%", "72.14%", "73.52%", "74.32%", "75.24%", "75.64%", "76.13%", "76.59%", "76.65%", "77.14%", "77.41%", "77.69%", "77.72%", "77.90%", "78.03%", "78.33%", "78.42%", "78.70%", "78.98%", "78.82%", "78.82%", "78.64%", "78.82%", "78.92%", "78.95%", "78.82%", "78.95%", "78.92%", "79.01%", "78.92%", "78.79%", "78.85%", "78.73%", "78.58%", "78.61%", "78.39%", "78.36%", "78.36%", "78.42%", "78.24%", "78.27%", "78.24%", "78.12%", "78.18%"]}, "vocabulary": {"WORDS_REPUTATION_FILTER": 0, "SORT_VOCABULARY": false, "REVERSE_SORT": false, "TWEETS_FOR_VOCABULARY_BASE": null, "ADD_START_SYMBOL": false}}, "2020-04-09 15:40:13.962504": {"data": {"TRAIN_PERCENTAGE": 0.8, "SHUFFLE_DATA": true, "PREPROCESS_OPTRIONS": {"remove_links": true, "remove_users": true, "remove_hash": true, "unslang": true, "split_words": true, "stem": true, "remove_punctuations": true, "remove_numbers": true, "to_lower_case": true, "remove_stop_words": true, "remove_not_alpha": true, "join": false}}, "model": {"BATCH_SIZE": 512, "EPOCHS": 50, "VERBOSE": 1, "OPTIMIZER": "rmsprop", "SHUFFLE": true, "EMBEDDING_OPTIONS": {"input_dim": 10855, "output_dim": 16, "input_length": 23}, "config": {"name": "sequential_1", "layers": [{"class_name": "Embedding", "config": {"name": "embedding_1", "trainable": true, "batch_input_shape": [null, 23], "dtype": "float32", "input_dim": 10855, "output_dim": 16, "embeddings_initializer": {"class_name": "RandomUniform", "config": {"minval": -0.05, "maxval": 0.05, "seed": null}}, "embeddings_regularizer": null, "activity_regularizer": null, "embeddings_constraint": null, "mask_zero": false, "input_length": 23}}, {"class_name": "Flatten", "config": {"name": "flatten_1", "trainable": true, "dtype": "float32", "data_format": "channels_last"}}, {"class_name": "Dense", "config": {"name": "dense_1", "trainable": true, "dtype": "float32", "units": 1, "activation": "sigmoid", "use_bias": true, "kernel_initializer": {"class_name": "VarianceScaling", "config": {"scale": 1.0, "mode": "fan_avg", "distribution": "uniform", "seed": null}}, "bias_initializer": {"class_name": "Zeros", "config": {}}, "kernel_regularizer": null, "bias_regularizer": null, "activity_regularizer": null, "kernel_constraint": null, "bias_constraint": null}}]}, "val_accuracy": [… "test_performance": ["57.13%", "57.74%", "58.57%", "61.02%", "63.78%", "66.93%", "69.02%", "70.03%", "70.95%", "72.91%", "73.61%", "74.23%", "75.08%", "75.70%", "76.10%", "76.25%", "76.86%", "76.98%", "77.29%", "77.11%", "77.41%", "77.60%", "77.51%", "77.60%", "77.66%", "77.78%", "77.90%", "77.87%", "77.93%", "77.84%", "77.87%", "78.00%", "77.93%", "78.03%", "78.00%", "77.87%", "77.93%", "77.81%", "77.78%", "77.72%", "77.75%", "77.66%", "77.87%", "77.41%", "77.29%", "77.17%", "77.17%", "77.17%", "77.11%", "77.20%"]}, "vocabulary": {"WORDS_REPUTATION_FILTER": 0, "SORT_VOCABULARY": false, "REVERSE_SORT": false, "TWEETS_FOR_VOCABULARY_BASE": null, "ADD_START_SYMBOL": false}}, "2020-04-09 15:40:49.103440": {"data": {"TRAIN_PERCENTAGE": 0.8, "SHUFFLE_DATA": true, "PREPROCESS_OPTRIONS": {"remove_links": true, "remove_users": true, "remove_hash": true, "unslang": true, "split_words": true, "stem": true, "remove_punctuations": true, "remove_numbers": true, "to_lower_case": true, "remove_stop_words": true, "remove_not_alpha": true, "join": false}}, "model": {"BATCH_SIZE": 512, "EPOCHS": 50, "VERBOSE": 1, "OPTIMIZER": "rmsprop", "SHUFFLE": true, "EMBEDDING_OPTIONS": {"input_dim": 10855, "output_dim": 16, "input_length": 23}, "config": {"name": "sequential_1", "layers": [{"class_name": "Embedding", "config": {"name": "embedding_1", "trainable": true, "batch_input_shape": [null, 23], "dtype": "float32", "input_dim": 10855, "output_dim": 16, "embeddings_initializer": {"class_name": "RandomUniform", "config": {"minval": -0.05, "maxval": 0.05, "seed": null}}, "embeddings_regularizer": null, "activity_regularizer": null, "embeddings_constraint": null, "mask_zero": false, "input_length": 23}}, {"class_name": "Flatten", "config": {"name": "flatten_1", "trainable": true, "dtype": "float32", "data_format": "channels_last"}}, {"class_name": "Dense", "config": {"name": "dense_1", "trainable": true, "dtype": "float32", "units": 1, "activation": "sigmoid", "use_bias": true, "kernel_initializer": {"class_name": "VarianceScaling", "config": {"scale": 1.0, "mode": "fan_avg", "distribution": "uniform", "seed": null}}, "bias_initializer": {"class_name": "Zeros", "config": {}}, "kernel_regularizer": null, "bias_regularizer": null, "activity_regularizer": null, "kernel_constraint": null, "bias_constraint": null}}]}, "val_accuracy": [… "test_performance": ["57.86%", "58.29%", "59.82%", "61.66%", "64.17%", "67.55%", "69.54%", "71.59%", "72.08%", "73.37%", "74.44%", "74.99%", "75.54%", "76.28%", "76.68%", "76.92%", "76.98%", "76.92%", "77.47%", "77.84%", "77.93%", "77.90%", "77.75%", "77.84%", "78.00%", "78.06%", "78.18%", "78.33%", "78.55%", "78.64%", "78.46%", "78.42%", "78.24%", "78.49%", "78.52%", "78.52%", "78.52%", "78.46%", "78.52%", "78.58%", "78.95%", "78.52%", "78.55%", "78.42%", "78.27%", "78.36%", "78.27%", "78.15%", "77.90%", "78.12%"]}, "vocabulary": {"WORDS_REPUTATION_FILTER": 0, "SORT_VOCABULARY": false, "REVERSE_SORT": false, "TWEETS_FOR_VOCABULARY_BASE": null, "ADD_START_SYMBOL": false}}, "2020-04-09 15:41:17.269651": {"data": {"TRAIN_PERCENTAGE": 0.8, "SHUFFLE_DATA": true, "PREPROCESS_OPTRIONS": {"remove_links": true, "remove_users": true, "remove_hash": true, "unslang": true, "split_words": true, "stem": true, "remove_punctuations": true, "remove_numbers": true, "to_lower_case": true, "remove_stop_words": true, "remove_not_alpha": true, "join": false}}, "model": {"BATCH_SIZE": 512, "EPOCHS": 50, "VERBOSE": 1, "OPTIMIZER": "rmsprop", "SHUFFLE": true, "EMBEDDING_OPTIONS": {"input_dim": 10855, "output_dim": 16, "input_length": 23}, "config": {"name": "sequential_1", "layers": [{"class_name": "Embedding", "config": {"name": "embedding_1", "trainable": true, "batch_input_shape": [null, 23], "dtype": "float32", "input_dim": 10855, "output_dim": 16, "embeddings_initializer": {"class_name": "RandomUniform", "config": {"minval": -0.05, "maxval": 0.05, "seed": null}}, "embeddings_regularizer": null, "activity_regularizer": null, "embeddings_constraint": null, "mask_zero": false, "input_length": 23}}, {"class_name": "Flatten", "config": {"name": "flatten_1", "trainable": true, "dtype": "float32", "data_format": "channels_last"}}, {"class_name": "Dense", "config": {"name": "dense_1", "trainable": true, "dtype": "float32", "units": 1, "activation": "sigmoid", "use_bias": true, "kernel_initializer": {"class_name": "VarianceScaling", "config": {"scale": 1.0, "mode": "fan_avg", "distribution": "uniform", "seed": null}}, "bias_initializer": {"class_name": "Zeros", "config": {}}, "kernel_regularizer": null, "bias_regularizer": null, "activity_regularizer": null, "kernel_constraint": null, "bias_constraint": null}}]}, "val_accuracy": [… "test_performance": ["58.66%", "58.57%", "60.28%", "64.05%", "67.64%", "70.73%", "71.99%", "73.21%", "74.69%", "75.11%", "75.73%", "76.22%", "76.46%", "76.74%", "77.05%", "77.57%", "77.63%", "77.97%", "77.84%", "77.97%", "78.06%", "78.24%", "78.00%", "78.15%", "78.24%", "78.42%", "78.42%", "78.52%", "78.52%", "78.46%", "78.58%", "78.49%", "78.42%", "78.64%", "78.73%", "78.64%", "78.58%", "78.55%", "78.58%", "78.64%", "78.64%", "78.64%", "78.61%", "78.58%", "78.64%", "78.49%", "78.61%", "78.39%", "78.39%", "78.49%"]}, "vocabulary": {"WORDS_REPUTATION_FILTER": 0, "SORT_VOCABULARY": false, "REVERSE_SORT": false, "TWEETS_FOR_VOCABULARY_BASE": null, "ADD_START_SYMBOL": false}}, "2020-04-09 15:41:46.484116": {"data": {"TRAIN_PERCENTAGE": 0.8, "SHUFFLE_DATA": true, "PREPROCESS_OPTRIONS": {"remove_links": true, "remove_users": true, "remove_hash": true, "unslang": true, "split_words": true, "stem": true, "remove_punctuations": true, "remove_numbers": true, "to_lower_case": true, "remove_stop_words": true, "remove_not_alpha": true, "join": false}}, "model": {"BATCH_SIZE": 512, "EPOCHS": 50, "VERBOSE": 1, "OPTIMIZER": "rmsprop", "SHUFFLE": true, "EMBEDDING_OPTIONS": {"input_dim": 10855, "output_dim": 16, "input_length": 23}, "config": {"name": "sequential_1", "layers": [{"class_name": "Embedding", "config": {"name": "embedding_1", "trainable": true, "batch_input_shape": [null, 23], "dtype": "float32", "input_dim": 10855, "output_dim": 16, "embeddings_initializer": {"class_name": "RandomUniform", "config": {"minval": -0.05, "maxval": 0.05, "seed": null}}, "embeddings_regularizer": null, "activity_regularizer": null, "embeddings_constraint": null, "mask_zero": false, "input_length": 23}}, {"class_name": "Flatten", "config": {"name": "flatten_1", "trainable": true, "dtype": "float32", "data_format": "channels_last"}}, {"class_name": "Dense", "config": {"name": "dense_1", "trainable": true, "dtype": "float32", "units": 1, "activation": "sigmoid", "use_bias": true, "kernel_initializer": {"class_name": "VarianceScaling", "config": {"scale": 1.0, "mode": "fan_avg", "distribution": "uniform", "seed": null}}, "bias_initializer": {"class_name": "Zeros", "config": {}}, "kernel_regularizer": null, "bias_regularizer": null, "activity_regularizer": null, "kernel_constraint": null, "bias_constraint": null}}]}, "val_accuracy": [… "test_performance": ["57.16%", "57.71%", "59.73%", "63.38%", "65.22%", "68.43%", "71.07%", "72.20%", "74.35%", "75.24%", "75.88%", "76.37%", "76.89%", "77.51%", "77.66%", "77.81%", "77.87%", "78.15%", "78.64%", "78.92%", "78.98%", "78.92%", "79.10%", "79.31%", "79.44%", "79.62%", "79.56%", "79.37%", "79.34%", "79.41%", "79.37%", "79.25%", "79.34%", "79.41%", "79.31%", "79.28%", "79.19%", "79.19%", "79.22%", "78.95%", "79.04%", "78.92%", "78.61%", "78.73%", "78.76%", "78.88%", "78.85%", "78.61%", "78.67%", "78.64%"]}, "vocabulary": {"WORDS_REPUTATION_FILTER": 0, "SORT_VOCABULARY": false, "REVERSE_SORT": false, "TWEETS_FOR_VOCABULARY_BASE": null, "ADD_START_SYMBOL": false}}, "2020-04-09 15:44:31.655811": {"data": {"TRAIN_PERCENTAGE": 0.8, "SHUFFLE_DATA": true, "PREPROCESS_OPTRIONS": {"remove_links": true, "remove_users": true, "remove_hash": true, "unslang": true, "split_words": true, "stem": true, "remove_punctuations": true, "remove_numbers": true, "to_lower_case": true, "remove_stop_words": true, "remove_not_alpha": true, "join": false}}, "model": {"BATCH_SIZE": 512, "EPOCHS": 50, "VERBOSE": 1, "OPTIMIZER": "rmsprop", "SHUFFLE": true, "EMBEDDING_OPTIONS": {"input_dim": 10855, "output_dim": 16, "input_length": 23}, "config": {"name": "sequential_1", "layers": [{"class_name": "Embedding", "config": {"name": "embedding_1", "trainable": true, "batch_input_shape": [null, 23], "dtype": "float32", "input_dim": 10855, "output_dim": 16, "embeddings_initializer": {"class_name": "RandomUniform", "config": {"minval": -0.05, "maxval": 0.05, "seed": null}}, "embeddings_regularizer": null, "activity_regularizer": null, "embeddings_constraint": null, "mask_zero": false, "input_length": 23}}, {"class_name": "Flatten", "config": {"name": "flatten_1", "trainable": true, "dtype": "float32", "data_format": "channels_last"}}, {"class_name": "Dense", "config": {"name": "dense_1", "trainable": true, "dtype": "float32", "units": 1, "activation": "sigmoid", "use_bias": true, "kernel_initializer": {"class_name": "VarianceScaling", "config": {"scale": 1.0, "mode": "fan_avg", "distribution": "uniform", "seed": null}}, "bias_initializer": {"class_name": "Zeros", "config": {}}, "kernel_regularizer": null, "bias_regularizer": null, "activity_regularizer": null, "kernel_constraint": null, "bias_constraint": null}}]}, "val_accuracy": [… "test_performance": ["57.06%", "57.83%", "59.85%", "62.40%", "64.76%", "68.10%", "69.66%", "71.90%", "72.30%", "73.80%", "74.69%", "75.67%", "75.94%", "76.28%", "76.68%", "76.71%", "76.68%", "77.05%", "77.08%", "77.51%", "77.78%", "77.93%", "78.15%", "78.39%", "78.21%", "78.39%", "78.21%", "78.30%", "78.06%", "78.21%", "78.12%", "78.12%", "78.24%", "78.27%", "78.27%", "78.33%", "78.27%", "78.18%", "78.24%", "78.33%", "78.33%", "78.06%", "78.00%", "77.90%", "77.84%", "77.81%", "77.84%", "77.81%", "77.78%", "77.66%"]}, "vocabulary": {"WORDS_REPUTATION_FILTER": 0, "SORT_VOCABULARY": false, "REVERSE_SORT": false, "TWEETS_FOR_VOCABULARY_BASE": null, "ADD_START_SYMBOL": false}}, "2020-04-09 15:45:08.800335": {"data": {"TRAIN_PERCENTAGE": 0.8, "SHUFFLE_DATA": true, "PREPROCESS_OPTRIONS": {"remove_links": true, "remove_users": true, "remove_hash": true, "unslang": true, "split_words": true, "stem": true, "remove_punctuations": true, "remove_numbers": true, "to_lower_case": true, "remove_stop_words": true, "remove_not_alpha": true, "join": false}}, "model": {"BATCH_SIZE": 512, "EPOCHS": 30, "VERBOSE": 1, "OPTIMIZER": "rmsprop", "SHUFFLE": true, "EMBEDDING_OPTIONS": {"input_dim": 10855, "output_dim": 64, "input_length": 23}, "config": {"name": "sequential_1", "layers": [{"class_name": "Embedding", "config": {"name": "embedding_1", "trainable": true, "batch_input_shape": [null, 23], "dtype": "float32", "input_dim": 10855, "output_dim": 64, "embeddings_initializer": {"class_name": "RandomUniform", "config": {"minval": -0.05, "maxval": 0.05, "seed": null}}, "embeddings_regularizer": null, "activity_regularizer": null, "embeddings_constraint": null, "mask_zero": false, "input_length": 23}}, {"class_name": "Flatten", "config": {"name": "flatten_1", "trainable": true, "dtype": "float32", "data_format": "channels_last"}}, {"class_name": "Dense", "config": {"name": "dense_1", "trainable": true, "dtype": "float32", "units": 1, "activation": "sigmoid", "use_bias": true, "kernel_initializer": {"class_name": "VarianceScaling", "config": {"scale": 1.0, "mode": "fan_avg", "distribution": "uniform", "seed": null}}, "bias_initializer": {"class_name": "Zeros", "config": {}}, "kernel_regularizer": null, "bias_regularizer": null, "activity_regularizer": null, "kernel_constraint": null, "bias_constraint": null}}]}, "val_accuracy": [… "test_performance": ["58.99%", "64.48%", "68.95%", "73.49%", "74.62%", "75.73%", "76.43%", "77.11%", "78.27%", "78.42%", "78.46%", "78.70%", "78.58%", "79.01%", "78.92%", "79.04%", "78.79%", "78.67%", "78.73%", "78.82%", "78.39%", "78.70%", "78.67%", "78.42%", "78.27%", "77.90%", "78.00%", "77.97%", "77.78%", "77.69%"]}, "vocabulary": {"WORDS_REPUTATION_FILTER": 0, "SORT_VOCABULARY": false, "REVERSE_SORT": false, "TWEETS_FOR_VOCABULARY_BASE": null, "ADD_START_SYMBOL": false}}, "2020-04-09 15:46:55.042694": {"data": {"TRAIN_PERCENTAGE": 0.8, "SHUFFLE_DATA": true, "PREPROCESS_OPTRIONS": {"remove_links": true, "remove_users": true, "remove_hash": true, "unslang": true, "split_words": true, "stem": true, "remove_punctuations": true, "remove_numbers": true, "to_lower_case": true, "remove_stop_words": true, "remove_not_alpha": true, "join": false}}, "model": {"BATCH_SIZE": 512, "EPOCHS": 30, "VERBOSE": 1, "OPTIMIZER": "rmsprop", "SHUFFLE": true, "EMBEDDING_OPTIONS": {"input_dim": 10855, "output_dim": 8, "input_length": 23}, "config": {"name": "sequential_1", "layers": [{"class_name": "Embedding", "config": {"name": "embedding_1", "trainable": true, "batch_input_shape": [null, 23], "dtype": "float32", "input_dim": 10855, "output_dim": 8, "embeddings_initializer": {"class_name": "RandomUniform", "config": {"minval": -0.05, "maxval": 0.05, "seed": null}}, "embeddings_regularizer": null, "activity_regularizer": null, "embeddings_constraint": null, "mask_zero": false, "input_length": 23}}, {"class_name": "Bidirectional", "config": {"name": "bidirectional_1", "trainable": true, "dtype": "float32", "layer": {"class_name": "LSTM", "config": {"name": "lstm_1", "trainable": true, "dtype": "float32", "return_sequences": false, "return_state": false, "go_backwards": false, "stateful": false, "unroll": false, "units": 8, "activation": "tanh", "recurrent_activation": "sigmoid", "use_bias": true, "kernel_initializer": {"class_name": "VarianceScaling", "config": {"scale": 1.0, "mode": "fan_avg", "distribution": "uniform", "seed": null}}, "recurrent_initializer": {"class_name": "Orthogonal", "config": {"gain": 1.0, "seed": null}}, "bias_initializer": {"class_name": "Zeros", "config": {}}, "unit_forget_bias": true, "kernel_regularizer": null, "recurrent_regularizer": null, "bias_regularizer": null, "activity_regularizer": null, "kernel_constraint": null, "recurrent_constraint": null, "bias_constraint": null, "dropout": 0.0, "recurrent_dropout": 0.0, "implementation": 2}}, "merge_mode": "concat"}}, {"class_name": "Dense", "config": {"name": "dense_1", "trainable": true, "dtype": "float32", "units": 4, "activation": "relu", "use_bias": true, "kernel_initializer": {"class_name": "VarianceScaling", "config": {"scale": 1.0, "mode": "fan_avg", "distribution": "uniform", "seed": null}}, "bias_initializer": {"class_name": "Zeros", "config": {}}, "kernel_regularizer": null, "bias_regularizer": null, "activity_regularizer": null, "kernel_constraint": null, "bias_constraint": null}}, {"class_name": "Dense", "config": {"name": "dense_2", "trainable": true, "dtype": "float32", "units": 1, "activation": "sigmoid", "use_bias": true, "kernel_initializer": {"class_name": "VarianceScaling", "config": {"scale": 1.0, "mode": "fan_avg", "distribution": "uniform", "seed": null}}, "bias_initializer": {"class_name": "Zeros", "config": {}}, "kernel_regularizer": null, "bias_regularizer": null, "activity_regularizer": null, "kernel_constraint": null, "bias_constraint": null}}]}, "val_accuracy": [… "test_performance": ["57.03%", "57.03%", "57.03%", "57.92%", "63.25%", "67.12%", "70.40%", "71.22%", "75.24%", "76.89%", "77.35%", "77.29%", "77.69%", "78.00%", "78.61%", "77.38%", "78.70%", "78.21%", "77.66%", "77.78%", "77.69%", "75.18%", "78.27%", "78.12%", "74.59%", "77.97%", "78.09%", "76.31%", "78.24%", "77.78%"]}, "vocabulary": {"WORDS_REPUTATION_FILTER": 0, "SORT_VOCABULARY": false, "REVERSE_SORT": false, "TWEETS_FOR_VOCABULARY_BASE": null, "ADD_START_SYMBOL": false}}, "2020-04-09 15:47:40.392492": {"data": {"TRAIN_PERCENTAGE": 0.8, "SHUFFLE_DATA": true, "PREPROCESS_OPTRIONS": {"remove_links": true, "remove_users": true, "remove_hash": true, "unslang": true, "split_words": true, "stem": true, "remove_punctuations": true, "remove_numbers": true, "to_lower_case": true, "remove_stop_words": true, "remove_not_alpha": true, "join": false}}, "model": {"BATCH_SIZE": 512, "EPOCHS": 30, "VERBOSE": 1, "OPTIMIZER": "rmsprop", "SHUFFLE": true, "EMBEDDING_OPTIONS": {"input_dim": 10855, "output_dim": 16, "input_length": 23}, "config": {"name": "sequential_1", "layers": [{"class_name": "Embedding", "config": {"name": "embedding_1", "trainable": true, "batch_input_shape": [null, 23], "dtype": "float32", "input_dim": 10855, "output_dim": 16, "embeddings_initializer": {"class_name": "RandomUniform", "config": {"minval": -0.05, "maxval": 0.05, "seed": null}}, "embeddings_regularizer": null, "activity_regularizer": null, "embeddings_constraint": null, "mask_zero": false, "input_length": 23}}, {"class_name": "Bidirectional", "config": {"name": "bidirectional_1", "trainable": true, "dtype": "float32", "layer": {"class_name": "LSTM", "config": {"name": "lstm_1", "trainable": true, "dtype": "float32", "return_sequences": false, "return_state": false, "go_backwards": false, "stateful": false, "unroll": false, "units": 16, "activation": "tanh", "recurrent_activation": "sigmoid", "use_bias": true, "kernel_initializer": {"class_name": "VarianceScaling", "config": {"scale": 1.0, "mode": "fan_avg", "distribution": "uniform", "seed": null}}, "recurrent_initializer": {"class_name": "Orthogonal", "config": {"gain": 1.0, "seed": null}}, "bias_initializer": {"class_name": "Zeros", "config": {}}, "unit_forget_bias": true, "kernel_regularizer": null, "recurrent_regularizer": null, "bias_regularizer": null, "activity_regularizer": null, "kernel_constraint": null, "recurrent_constraint": null, "bias_constraint": null, "dropout": 0.0, "recurrent_dropout": 0.0, "implementation": 2}}, "merge_mode": "concat"}}, {"class_name": "Dense", "config": {"name": "dense_1", "trainable": true, "dtype": "float32", "units": 16, "activation": "relu", "use_bias": true, "kernel_initializer": {"class_name": "VarianceScaling", "config": {"scale": 1.0, "mode": "fan_avg", "distribution": "uniform", "seed": null}}, "bias_initializer": {"class_name": "Zeros", "config": {}}, "kernel_regularizer": null, "bias_regularizer": null, "activity_regularizer": null, "kernel_constraint": null, "bias_constraint": null}}, {"class_name": "Dense", "config": {"name": "dense_2", "trainable": true, "dtype": "float32", "units": 1, "activation": "sigmoid", "use_bias": true, "kernel_initializer": {"class_name": "VarianceScaling", "config": {"scale": 1.0, "mode": "fan_avg", "distribution": "uniform", "seed": null}}, "bias_initializer": {"class_name": "Zeros", "config": {}}, "kernel_regularizer": null, "bias_regularizer": null, "activity_regularizer": null, "kernel_constraint": null, "bias_constraint": null}}]}, "val_accuracy": [… "test_performance": ["57.03%", "65.92%", "75.27%", "78.95%", "79.25%", "77.41%", "78.85%", "77.05%", "77.17%", "78.67%", "78.52%", "78.15%", "75.11%", "77.14%", "76.98%", "76.40%", "76.49%", "76.46%", "76.31%", "76.80%", "75.85%", "76.34%", "74.93%", "76.28%", "76.59%", "75.51%", "76.22%", "75.39%", "75.51%", "75.18%"]}, "vocabulary": {"WORDS_REPUTATION_FILTER": 0, "SORT_VOCABULARY": false, "REVERSE_SORT": false, "TWEETS_FOR_VOCABULARY_BASE": null, "ADD_START_SYMBOL": false}}, "2020-04-09 15:49:47.668776": {"data": {"TRAIN_PERCENTAGE": 0.7, "SHUFFLE_DATA": true, "PREPROCESS_OPTRIONS": {"remove_links": true, "remove_users": true, "remove_hash": true, "unslang": true, "split_words": true, "stem": true, "remove_punctuations": true, "remove_numbers": true, "to_lower_case": true, "remove_stop_words": true, "remove_not_alpha": true, "join": false}}, "model": {"BATCH_SIZE": 512, "EPOCHS": 30, "VERBOSE": 1, "OPTIMIZER": "rmsprop", "SHUFFLE": true, "EMBEDDING_OPTIONS": {"input_dim": 10855, "output_dim": 16, "input_length": 23}, "config": {"name": "sequential_1", "layers": [{"class_name": "Embedding", "config": {"name": "embedding_1", "trainable": true, "batch_input_shape": [null, 23], "dtype": "float32", "input_dim": 10855, "output_dim": 16, "embeddings_initializer": {"class_name": "RandomUniform", "config": {"minval": -0.05, "maxval": 0.05, "seed": null}}, "embeddings_regularizer": null, "activity_regularizer": null, "embeddings_constraint": null, "mask_zero": false, "input_length": 23}}, {"class_name": "Flatten", "config": {"name": "flatten_1", "trainable": true, "dtype": "float32", "data_format": "channels_last"}}, {"class_name": "Dense", "config": {"name": "dense_1", "trainable": true, "dtype": "float32", "units": 1, "activation": "sigmoid", "use_bias": true, "kernel_initializer": {"class_name": "VarianceScaling", "config": {"scale": 1.0, "mode": "fan_avg", "distribution": "uniform", "seed": null}}, "bias_initializer": {"class_name": "Zeros", "config": {}}, "kernel_regularizer": null, "bias_regularizer": null, "activity_regularizer": null, "kernel_constraint": null, "bias_constraint": null}}]}, "val_accuracy": [… "test_performance": ["57.71%", "57.80%", "58.47%", "60.16%", "62.64%", "65.37%", "67.02%", "71.07%", "71.77%", "71.84%", "73.18%", "73.55%", "73.95%", "74.47%", "75.27%", "75.51%", "75.94%", "76.06%", "76.40%", "76.56%", "77.02%", "77.11%", "76.95%", "77.14%", "77.60%", "77.51%", "77.51%", "77.69%", "77.81%", "77.87%"]}, "vocabulary": {"WORDS_REPUTATION_FILTER": 0, "SORT_VOCABULARY": false, "REVERSE_SORT": false, "TWEETS_FOR_VOCABULARY_BASE": null, "ADD_START_SYMBOL": false}}, "2020-04-09 15:50:19.216915": {"data": {"TRAIN_PERCENTAGE": 0.7, "SHUFFLE_DATA": true, "PREPROCESS_OPTRIONS": {"remove_links": true, "remove_users": true, "remove_hash": true, "unslang": true, "split_words": true, "stem": true, "remove_punctuations": true, "remove_numbers": true, "to_lower_case": true, "remove_stop_words": true, "remove_not_alpha": true, "join": false}}, "model": {"BATCH_SIZE": 512, "EPOCHS": 50, "VERBOSE": 1, "OPTIMIZER": "rmsprop", "SHUFFLE": true, "EMBEDDING_OPTIONS": {"input_dim": 10855, "output_dim": 16, "input_length": 23}, "config": {"name": "sequential_1", "layers": [{"class_name": "Embedding", "config": {"name": "embedding_1", "trainable": true, "batch_input_shape": [null, 23], "dtype": "float32", "input_dim": 10855, "output_dim": 16, "embeddings_initializer": {"class_name": "RandomUniform", "config": {"minval": -0.05, "maxval": 0.05, "seed": null}}, "embeddings_regularizer": null, "activity_regularizer": null, "embeddings_constraint": null, "mask_zero": false, "input_length": 23}}, {"class_name": "Flatten", "config": {"name": "flatten_1", "trainable": true, "dtype": "float32", "data_format": "channels_last"}}, {"class_name": "Dense", "config": {"name": "dense_1", "trainable": true, "dtype": "float32", "units": 1, "activation": "sigmoid", "use_bias": true, "kernel_initializer": {"class_name": "VarianceScaling", "config": {"scale": 1.0, "mode": "fan_avg", "distribution": "uniform", "seed": null}}, "bias_initializer": {"class_name": "Zeros", "config": {}}, "kernel_regularizer": null, "bias_regularizer": null, "activity_regularizer": null, "kernel_constraint": null, "bias_constraint": null}}]}, "val_accuracy": [… "test_performance": ["57.65%", "58.11%", "59.15%", "61.29%", "62.86%", "66.14%", "67.58%", "68.43%", "70.00%", "70.89%", "71.84%", "72.60%", "73.43%", "73.89%", "74.93%", "75.27%", "75.76%", "76.00%", "76.22%", "76.31%", "76.28%", "76.65%", "76.65%", "77.05%", "77.20%", "77.29%", "77.41%", "77.23%", "77.51%", "77.54%", "77.60%", "77.75%", "77.81%", "77.81%", "77.75%", "77.60%", "77.78%", "77.72%", "77.69%", "77.72%", "77.72%", "77.69%", "77.93%", "77.93%", "78.00%", "77.84%", "77.87%", "77.90%", "77.93%", "77.87%"]}, "vocabulary": {"WORDS_REPUTATION_FILTER": 0, "SORT_VOCABULARY": false, "REVERSE_SORT": false, "TWEETS_FOR_VOCABULARY_BASE": null, "ADD_START_SYMBOL": false}}, "2020-04-09 15:51:40.140436": {"data": {"TRAIN_PERCENTAGE": 0.7, "SHUFFLE_DATA": true, "PREPROCESS_OPTRIONS": {"remove_links": true, "remove_users": true, "remove_hash": false, "unslang": true, "split_words": false, "stem": false, "remove_punctuations": true, "remove_numbers": false, "to_lower_case": true, "remove_stop_words": true, "remove_not_alpha": false, "join": false}}, "model": {"BATCH_SIZE": 512, "EPOCHS": 50, "VERBOSE": 1, "OPTIMIZER": "rmsprop", "SHUFFLE": true, "EMBEDDING_OPTIONS": {"input_dim": 15938, "output_dim": 16, "input_length": 26}, "config": {"name": "sequential_1", "layers": [{"class_name": "Embedding", "config": {"name": "embedding_1", "trainable": true, "batch_input_shape": [null, 26], "dtype": "float32", "input_dim": 15938, "output_dim": 16, "embeddings_initializer": {"class_name": "RandomUniform", "config": {"minval": -0.05, "maxval": 0.05, "seed": null}}, "embeddings_regularizer": null, "activity_regularizer": null, "embeddings_constraint": null, "mask_zero": false, "input_length": 26}}, {"class_name": "Flatten", "config": {"name": "flatten_1", "trainable": true, "dtype": "float32", "data_format": "channels_last"}}, {"class_name": "Dense", "config": {"name": "dense_1", "trainable": true, "dtype": "float32", "units": 1, "activation": "sigmoid", "use_bias": true, "kernel_initializer": {"class_name": "VarianceScaling", "config": {"scale": 1.0, "mode": "fan_avg", "distribution": "uniform", "seed": null}}, "bias_initializer": {"class_name": "Zeros", "config": {}}, "kernel_regularizer": null, "bias_regularizer": null, "activity_regularizer": null, "kernel_constraint": null, "bias_constraint": null}}]}, "val_accuracy": [… "test_performance": ["57.34%", "57.34%", "58.57%", "59.73%", "62.43%", "64.30%", "65.31%", "67.05%", "68.77%", "69.05%", "70.67%", "71.62%", "72.39%", "72.51%", "73.18%", "73.46%", "73.71%", "74.04%", "74.23%", "74.59%", "74.75%", "75.11%", "75.42%", "75.67%", "75.70%", "75.54%", "75.94%", "75.91%", "76.22%", "76.46%", "76.34%", "76.34%", "76.40%", "76.28%", "76.28%", "76.37%", "76.37%", "76.37%", "76.49%", "76.43%", "76.43%", "76.43%", "76.71%", "76.56%", "76.40%", "76.43%", "76.37%", "76.37%", "76.13%", "76.00%"]}, "vocabulary": {"WORDS_REPUTATION_FILTER": 0, "SORT_VOCABULARY": false, "REVERSE_SORT": false, "TWEETS_FOR_VOCABULARY_BASE": null, "ADD_START_SYMBOL": false}}, "2020-04-09 15:52:06.886809": {"data": {"TRAIN_PERCENTAGE": 0.8, "SHUFFLE_DATA": true, "PREPROCESS_OPTRIONS": {"remove_links": true, "remove_users": true, "remove_hash": false, "unslang": true, "split_words": false, "stem": false, "remove_punctuations": true, "remove_numbers": false, "to_lower_case": true, "remove_stop_words": true, "remove_not_alpha": false, "join": false}}, "model": {"BATCH_SIZE": 512, "EPOCHS": 50, "VERBOSE": 1, "OPTIMIZER": "rmsprop", "SHUFFLE": true, "EMBEDDING_OPTIONS": {"input_dim": 8781, "output_dim": 16, "input_length": 24}, "config": {"name": "sequential_1", "layers": [{"class_name": "Embedding", "config": {"name": "embedding_1", "trainable": true, "batch_input_shape": [null, 24], "dtype": "float32", "input_dim": 8781, "output_dim": 16, "embeddings_initializer": {"class_name": "RandomUniform", "config": {"minval": -0.05, "maxval": 0.05, "seed": null}}, "embeddings_regularizer": null, "activity_regularizer": null, "embeddings_constraint": null, "mask_zero": false, "input_length": 24}}, {"class_name": "Flatten", "config": {"name": "flatten_1", "trainable": true, "dtype": "float32", "data_format": "channels_last"}}, {"class_name": "Dense", "config": {"name": "dense_1", "trainable": true, "dtype": "float32", "units": 1, "activation": "sigmoid", "use_bias": true, "kernel_initializer": {"class_name": "VarianceScaling", "config": {"scale": 1.0, "mode": "fan_avg", "distribution": "uniform", "seed": null}}, "bias_initializer": {"class_name": "Zeros", "config": {}}, "kernel_regularizer": null, "bias_regularizer": null, "activity_regularizer": null, "kernel_constraint": null, "bias_constraint": null}}]}, "val_accuracy": [… "test_performance": ["57.34%", "57.65%", "59.55%", "62.52%", "66.23%", "68.43%", "69.32%", "70.30%", "70.58%", "72.14%", "72.60%", "73.25%", "73.46%", "74.23%", "74.72%", "75.15%", "75.39%", "75.64%", "76.06%", "76.37%", "76.49%", "76.68%", "77.08%", "77.29%", "77.38%", "77.57%", "77.84%", "77.87%", "78.12%", "78.15%", "78.12%", "78.30%", "78.33%", "78.33%", "78.49%", "78.33%", "78.46%", "78.42%", "78.33%", "78.30%", "78.12%", "78.06%", "78.15%", "78.06%", "78.06%", "78.09%", "77.93%", "78.12%", "78.21%", "78.15%"]}, "vocabulary": {"WORDS_REPUTATION_FILTER": 0, "SORT_VOCABULARY": false, "REVERSE_SORT": false, "TWEETS_FOR_VOCABULARY_BASE": true, "ADD_START_SYMBOL": false}}}