{"2020-04-08 13:17:32.080257": {"data": {"preprocess_options": {"remove_links": true, "remove_users": true, "remove_hash": false, "unslang": false, "split_words": true, "stem": false, "remove_punctuations": true, "remove_numbers": false, "to_lower_case": true, "remove_stop_words": true, "remove_not_alpha": false, "join": false}, "words_reputation_filter": 0, "add_start_symbol": true, "train_percentage": 0.8, "vocabulary_len": 8504, "tweets_for_vocabulary_base": true, "shuffle_data": false}, "model": {"config": {"name": "sequential_1", "layers": [{"class_name": "Embedding", "config": {"name": "embedding_1", "trainable": true, "batch_input_shape": [null, 23], "dtype": "float32", "input_dim": 8504, "output_dim": 256, "embeddings_initializer": {"class_name": "RandomUniform", "config": {"minval": -0.05, "maxval": 0.05, "seed": null}}, "embeddings_regularizer": null, "activity_regularizer": null, "embeddings_constraint": null, "mask_zero": false, "input_length": 23}}, {"class_name": "Flatten", "config": {"name": "flatten_1", "trainable": true, "dtype": "float32", "data_format": "channels_last"}}, {"class_name": "Dense", "config": {"name": "dense_1", "trainable": true, "dtype": "float32", "units": 1, "activation": "sigmoid", "use_bias": true, "kernel_initializer": {"class_name": "VarianceScaling", "config": {"scale": 1.0, "mode": "fan_avg", "distribution": "uniform", "seed": null}}, "bias_initializer": {"class_name": "Zeros", "config": {}}, "kernel_regularizer": null, "bias_regularizer": null, "activity_regularizer": null, "kernel_constraint": null, "bias_constraint": null}}]}, "val_accuracy": [… "epochs": 20, "embedding_dim": 256, "input_len": 23, "batch_size": 512, "optimizer": "rmsprop"}}, "2020-04-08 13:27:21.136875": {"data": {"preprocess_options": {"remove_links": true, "remove_users": true, "remove_hash": false, "unslang": false, "split_words": true, "stem": false, "remove_punctuations": true, "remove_numbers": false, "to_lower_case": true, "remove_stop_words": true, "remove_not_alpha": false, "join": false}, "words_reputation_filter": 0, "add_start_symbol": true, "train_percentage": 0.8, "vocabulary_len": 8504, "tweets_for_vocabulary_base": true, "shuffle_data": true}, "model": {"config": {"name": "sequential_1", "layers": [{"class_name": "Embedding", "config": {"name": "embedding_1", "trainable": true, "batch_input_shape": [null, 23], "dtype": "float32", "input_dim": 8504, "output_dim": 256, "embeddings_initializer": {"class_name": "RandomUniform", "config": {"minval": -0.05, "maxval": 0.05, "seed": null}}, "embeddings_regularizer": null, "activity_regularizer": null, "embeddings_constraint": null, "mask_zero": false, "input_length": 23}}, {"class_name": "Flatten", "config": {"name": "flatten_1", "trainable": true, "dtype": "float32", "data_format": "channels_last"}}, {"class_name": "Dense", "config": {"name": "dense_1", "trainable": true, "dtype": "float32", "units": 1, "activation": "sigmoid", "use_bias": true, "kernel_initializer": {"class_name": "VarianceScaling", "config": {"scale": 1.0, "mode": "fan_avg", "distribution": "uniform", "seed": null}}, "bias_initializer": {"class_name": "Zeros", "config": {}}, "kernel_regularizer": null, "bias_regularizer": null, "activity_regularizer": null, "kernel_constraint": null, "bias_constraint": null}}]}, "val_accuracy": [… "epochs": 20, "embedding_dim": 256, "input_len": 23, "batch_size": 512, "optimizer": "rmsprop"}}, "2020-04-08 13:28:20.352496": {"data": {"preprocess_options": {"remove_links": true, "remove_users": true, "remove_hash": false, "unslang": false, "split_words": true, "stem": false, "remove_punctuations": true, "remove_numbers": false, "to_lower_case": true, "remove_stop_words": true, "remove_not_alpha": false, "join": false}, "words_reputation_filter": 0, "add_start_symbol": true, "train_percentage": 0.8, "vocabulary_len": 8504, "tweets_for_vocabulary_base": true, "shuffle_data": true}, "model": {"config": {"name": "sequential_1", "layers": [{"class_name": "Embedding", "config": {"name": "embedding_1", "trainable": true, "batch_input_shape": [null, 23], "dtype": "float32", "input_dim": 8504, "output_dim": 256, "embeddings_initializer": {"class_name": "RandomUniform", "config": {"minval": -0.05, "maxval": 0.05, "seed": null}}, "embeddings_regularizer": null, "activity_regularizer": null, "embeddings_constraint": null, "mask_zero": false, "input_length": 23}}, {"class_name": "Flatten", "config": {"name": "flatten_1", "trainable": true, "dtype": "float32", "data_format": "channels_last"}}, {"class_name": "Dense", "config": {"name": "dense_1", "trainable": true, "dtype": "float32", "units": 1, "activation": "sigmoid", "use_bias": true, "kernel_initializer": {"class_name": "VarianceScaling", "config": {"scale": 1.0, "mode": "fan_avg", "distribution": "uniform", "seed": null}}, "bias_initializer": {"class_name": "Zeros", "config": {}}, "kernel_regularizer": null, "bias_regularizer": null, "activity_regularizer": null, "kernel_constraint": null, "bias_constraint": null}}]}, "val_accuracy": [… "epochs": 20, "embedding_dim": 256, "input_len": 23, "batch_size": 512, "optimizer": "rmsprop"}}, "2020-04-08 13:29:09.933354": {"data": {"preprocess_options": {"remove_links": true, "remove_users": true, "remove_hash": false, "unslang": false, "split_words": true, "stem": false, "remove_punctuations": true, "remove_numbers": false, "to_lower_case": true, "remove_stop_words": true, "remove_not_alpha": false, "join": false}, "words_reputation_filter": 0, "add_start_symbol": true, "train_percentage": 0.8, "vocabulary_len": 8504, "tweets_for_vocabulary_base": true, "shuffle_data": false}, "model": {"config": {"name": "sequential_1", "layers": [{"class_name": "Embedding", "config": {"name": "embedding_1", "trainable": true, "batch_input_shape": [null, 23], "dtype": "float32", "input_dim": 8504, "output_dim": 256, "embeddings_initializer": {"class_name": "RandomUniform", "config": {"minval": -0.05, "maxval": 0.05, "seed": null}}, "embeddings_regularizer": null, "activity_regularizer": null, "embeddings_constraint": null, "mask_zero": false, "input_length": 23}}, {"class_name": "Flatten", "config": {"name": "flatten_1", "trainable": true, "dtype": "float32", "data_format": "channels_last"}}, {"class_name": "Dense", "config": {"name": "dense_1", "trainable": true, "dtype": "float32", "units": 1, "activation": "sigmoid", "use_bias": true, "kernel_initializer": {"class_name": "VarianceScaling", "config": {"scale": 1.0, "mode": "fan_avg", "distribution": "uniform", "seed": null}}, "bias_initializer": {"class_name": "Zeros", "config": {}}, "kernel_regularizer": null, "bias_regularizer": null, "activity_regularizer": null, "kernel_constraint": null, "bias_constraint": null}}]}, "val_accuracy": [… "epochs": 20, "embedding_dim": 256, "input_len": 23, "batch_size": 512, "optimizer": "rmsprop"}}, "2020-04-08 13:29:56.605085": {"data": {"preprocess_options": {"remove_links": true, "remove_users": true, "remove_hash": false, "unslang": false, "split_words": true, "stem": false, "remove_punctuations": true, "remove_numbers": false, "to_lower_case": true, "remove_stop_words": true, "remove_not_alpha": false, "join": false}, "words_reputation_filter": 0, "add_start_symbol": true, "train_percentage": 0.8, "vocabulary_len": 8504, "tweets_for_vocabulary_base": true, "shuffle_data": true}, "model": {"config": {"name": "sequential_1", "layers": [{"class_name": "Embedding", "config": {"name": "embedding_1", "trainable": true, "batch_input_shape": [null, 23], "dtype": "float32", "input_dim": 8504, "output_dim": 256, "embeddings_initializer": {"class_name": "RandomUniform", "config": {"minval": -0.05, "maxval": 0.05, "seed": null}}, "embeddings_regularizer": null, "activity_regularizer": null, "embeddings_constraint": null, "mask_zero": false, "input_length": 23}}, {"class_name": "Flatten", "config": {"name": "flatten_1", "trainable": true, "dtype": "float32", "data_format": "channels_last"}}, {"class_name": "Dense", "config": {"name": "dense_1", "trainable": true, "dtype": "float32", "units": 1, "activation": "sigmoid", "use_bias": true, "kernel_initializer": {"class_name": "VarianceScaling", "config": {"scale": 1.0, "mode": "fan_avg", "distribution": "uniform", "seed": null}}, "bias_initializer": {"class_name": "Zeros", "config": {}}, "kernel_regularizer": null, "bias_regularizer": null, "activity_regularizer": null, "kernel_constraint": null, "bias_constraint": null}}]}, "val_accuracy": [… "epochs": 20, "embedding_dim": 256, "input_len": 23, "batch_size": 512, "optimizer": "rmsprop"}}, "2020-04-08 13:31:13.833650": {"data": {"preprocess_options": {"remove_links": true, "remove_users": true, "remove_hash": false, "unslang": false, "split_words": true, "stem": false, "remove_punctuations": true, "remove_numbers": false, "to_lower_case": true, "remove_stop_words": true, "remove_not_alpha": false, "join": false}, "words_reputation_filter": 0, "add_start_symbol": true, "train_percentage": 0.8, "vocabulary_len": 8504, "tweets_for_vocabulary_base": true, "shuffle_data": true}, "model": {"config": {"name": "sequential_1", "layers": [{"class_name": "Embedding", "config": {"name": "embedding_1", "trainable": true, "batch_input_shape": [null, 8], "dtype": "float32", "input_dim": 8504, "output_dim": 256, "embeddings_initializer": {"class_name": "RandomUniform", "config": {"minval": -0.05, "maxval": 0.05, "seed": null}}, "embeddings_regularizer": null, "activity_regularizer": null, "embeddings_constraint": null, "mask_zero": false, "input_length": 8}}, {"class_name": "Flatten", "config": {"name": "flatten_1", "trainable": true, "dtype": "float32", "data_format": "channels_last"}}, {"class_name": "Dense", "config": {"name": "dense_1", "trainable": true, "dtype": "float32", "units": 1, "activation": "sigmoid", "use_bias": true, "kernel_initializer": {"class_name": "VarianceScaling", "config": {"scale": 1.0, "mode": "fan_avg", "distribution": "uniform", "seed": null}}, "bias_initializer": {"class_name": "Zeros", "config": {}}, "kernel_regularizer": null, "bias_regularizer": null, "activity_regularizer": null, "kernel_constraint": null, "bias_constraint": null}}]}, "val_accuracy": [… "epochs": 20, "embedding_dim": 256, "input_len": 8, "batch_size": 512, "optimizer": "rmsprop"}}, "2020-04-08 13:31:41.726426": {"data": {"preprocess_options": {"remove_links": true, "remove_users": true, "remove_hash": false, "unslang": false, "split_words": true, "stem": false, "remove_punctuations": true, "remove_numbers": false, "to_lower_case": true, "remove_stop_words": true, "remove_not_alpha": false, "join": false}, "words_reputation_filter": 0, "add_start_symbol": true, "train_percentage": 0.8, "vocabulary_len": 8504, "tweets_for_vocabulary_base": true, "shuffle_data": true}, "model": {"config": {"name": "sequential_1", "layers": [{"class_name": "Embedding", "config": {"name": "embedding_1", "trainable": true, "batch_input_shape": [null, 12], "dtype": "float32", "input_dim": 8504, "output_dim": 256, "embeddings_initializer": {"class_name": "RandomUniform", "config": {"minval": -0.05, "maxval": 0.05, "seed": null}}, "embeddings_regularizer": null, "activity_regularizer": null, "embeddings_constraint": null, "mask_zero": false, "input_length": 12}}, {"class_name": "Flatten", "config": {"name": "flatten_1", "trainable": true, "dtype": "float32", "data_format": "channels_last"}}, {"class_name": "Dense", "config": {"name": "dense_1", "trainable": true, "dtype": "float32", "units": 1, "activation": "sigmoid", "use_bias": true, "kernel_initializer": {"class_name": "VarianceScaling", "config": {"scale": 1.0, "mode": "fan_avg", "distribution": "uniform", "seed": null}}, "bias_initializer": {"class_name": "Zeros", "config": {}}, "kernel_regularizer": null, "bias_regularizer": null, "activity_regularizer": null, "kernel_constraint": null, "bias_constraint": null}}]}, "val_accuracy": [… "epochs": 20, "embedding_dim": 256, "input_len": 12, "batch_size": 512, "optimizer": "rmsprop"}}, "2020-04-08 13:32:28.300614": {"data": {"preprocess_options": {"remove_links": true, "remove_users": true, "remove_hash": false, "unslang": false, "split_words": true, "stem": false, "remove_punctuations": true, "remove_numbers": false, "to_lower_case": true, "remove_stop_words": true, "remove_not_alpha": false, "join": false}, "words_reputation_filter": 0, "add_start_symbol": true, "train_percentage": 0.8, "vocabulary_len": 8504, "tweets_for_vocabulary_base": true, "shuffle_data": true}, "model": {"config": {"name": "sequential_1", "layers": [{"class_name": "Embedding", "config": {"name": "embedding_1", "trainable": true, "batch_input_shape": [null, 50], "dtype": "float32", "input_dim": 8504, "output_dim": 256, "embeddings_initializer": {"class_name": "RandomUniform", "config": {"minval": -0.05, "maxval": 0.05, "seed": null}}, "embeddings_regularizer": null, "activity_regularizer": null, "embeddings_constraint": null, "mask_zero": false, "input_length": 50}}, {"class_name": "Flatten", "config": {"name": "flatten_1", "trainable": true, "dtype": "float32", "data_format": "channels_last"}}, {"class_name": "Dense", "config": {"name": "dense_1", "trainable": true, "dtype": "float32", "units": 1, "activation": "sigmoid", "use_bias": true, "kernel_initializer": {"class_name": "VarianceScaling", "config": {"scale": 1.0, "mode": "fan_avg", "distribution": "uniform", "seed": null}}, "bias_initializer": {"class_name": "Zeros", "config": {}}, "kernel_regularizer": null, "bias_regularizer": null, "activity_regularizer": null, "kernel_constraint": null, "bias_constraint": null}}]}, "val_accuracy": [… "epochs": 20, "embedding_dim": 256, "input_len": 50, "batch_size": 512, "optimizer": "rmsprop"}}, "2020-04-08 13:32:58.610600": {"data": {"preprocess_options": {"remove_links": true, "remove_users": true, "remove_hash": false, "unslang": false, "split_words": true, "stem": false, "remove_punctuations": true, "remove_numbers": false, "to_lower_case": true, "remove_stop_words": true, "remove_not_alpha": false, "join": false}, "words_reputation_filter": 0, "add_start_symbol": true, "train_percentage": 0.8, "vocabulary_len": 8504, "tweets_for_vocabulary_base": true, "shuffle_data": true}, "model": {"config": {"name": "sequential_1", "layers": [{"class_name": "Embedding", "config": {"name": "embedding_1", "trainable": true, "batch_input_shape": [null, 15], "dtype": "float32", "input_dim": 8504, "output_dim": 256, "embeddings_initializer": {"class_name": "RandomUniform", "config": {"minval": -0.05, "maxval": 0.05, "seed": null}}, "embeddings_regularizer": null, "activity_regularizer": null, "embeddings_constraint": null, "mask_zero": false, "input_length": 15}}, {"class_name": "Flatten", "config": {"name": "flatten_1", "trainable": true, "dtype": "float32", "data_format": "channels_last"}}, {"class_name": "Dense", "config": {"name": "dense_1", "trainable": true, "dtype": "float32", "units": 1, "activation": "sigmoid", "use_bias": true, "kernel_initializer": {"class_name": "VarianceScaling", "config": {"scale": 1.0, "mode": "fan_avg", "distribution": "uniform", "seed": null}}, "bias_initializer": {"class_name": "Zeros", "config": {}}, "kernel_regularizer": null, "bias_regularizer": null, "activity_regularizer": null, "kernel_constraint": null, "bias_constraint": null}}]}, "val_accuracy": [… "epochs": 20, "embedding_dim": 256, "input_len": 15, "batch_size": 512, "optimizer": "rmsprop"}}, "2020-04-08 13:33:45.735756": {"data": {"preprocess_options": {"remove_links": true, "remove_users": true, "remove_hash": false, "unslang": false, "split_words": true, "stem": false, "remove_punctuations": true, "remove_numbers": false, "to_lower_case": true, "remove_stop_words": true, "remove_not_alpha": false, "join": false}, "words_reputation_filter": 0, "add_start_symbol": true, "train_percentage": 0.8, "vocabulary_len": 8504, "tweets_for_vocabulary_base": true, "shuffle_data": true}, "model": {"config": {"name": "sequential_1", "layers": [{"class_name": "Embedding", "config": {"name": "embedding_1", "trainable": true, "batch_input_shape": [null, 23], "dtype": "float32", "input_dim": 8504, "output_dim": 256, "embeddings_initializer": {"class_name": "RandomUniform", "config": {"minval": -0.05, "maxval": 0.05, "seed": null}}, "embeddings_regularizer": null, "activity_regularizer": null, "embeddings_constraint": null, "mask_zero": false, "input_length": 23}}, {"class_name": "Flatten", "config": {"name": "flatten_1", "trainable": true, "dtype": "float32", "data_format": "channels_last"}}, {"class_name": "Dense", "config": {"name": "dense_1", "trainable": true, "dtype": "float32", "units": 32, "activation": "relu", "use_bias": true, "kernel_initializer": {"class_name": "VarianceScaling", "config": {"scale": 1.0, "mode": "fan_avg", "distribution": "uniform", "seed": null}}, "bias_initializer": {"class_name": "Zeros", "config": {}}, "kernel_regularizer": null, "bias_regularizer": null, "activity_regularizer": null, "kernel_constraint": null, "bias_constraint": null}}, {"class_name": "Dense", "config": {"name": "dense_2", "trainable": true, "dtype": "float32", "units": 1, "activation": "sigmoid", "use_bias": true, "kernel_initializer": {"class_name": "VarianceScaling", "config": {"scale": 1.0, "mode": "fan_avg", "distribution": "uniform", "seed": null}}, "bias_initializer": {"class_name": "Zeros", "config": {}}, "kernel_regularizer": null, "bias_regularizer": null, "activity_regularizer": null, "kernel_constraint": null, "bias_constraint": null}}]}, "val_accuracy": [… "epochs": 20, "embedding_dim": 256, "input_len": 23, "batch_size": 512, "optimizer": "rmsprop"}}, "2020-04-08 13:35:38.407349": {"data": {"preprocess_options": {"remove_links": true, "remove_users": true, "remove_hash": false, "unslang": false, "split_words": true, "stem": false, "remove_punctuations": true, "remove_numbers": false, "to_lower_case": true, "remove_stop_words": true, "remove_not_alpha": false, "join": false}, "words_reputation_filter": 0, "add_start_symbol": true, "train_percentage": 0.8, "vocabulary_len": 15360, "tweets_for_vocabulary_base": null, "shuffle_data": true}, "model": {"config": {"name": "sequential_1", "layers": [{"class_name": "Embedding", "config": {"name": "embedding_1", "trainable": true, "batch_input_shape": [null, 25], "dtype": "float32", "input_dim": 15360, "output_dim": 64, "embeddings_initializer": {"class_name": "RandomUniform", "config": {"minval": -0.05, "maxval": 0.05, "seed": null}}, "embeddings_regularizer": null, "activity_regularizer": null, "embeddings_constraint": null, "mask_zero": false, "input_length": 25}}, {"class_name": "Flatten", "config": {"name": "flatten_1", "trainable": true, "dtype": "float32", "data_format": "channels_last"}}, {"class_name": "Dense", "config": {"name": "dense_1", "trainable": true, "dtype": "float32", "units": 1, "activation": "sigmoid", "use_bias": true, "kernel_initializer": {"class_name": "VarianceScaling", "config": {"scale": 1.0, "mode": "fan_avg", "distribution": "uniform", "seed": null}}, "bias_initializer": {"class_name": "Zeros", "config": {}}, "kernel_regularizer": null, "bias_regularizer": null, "activity_regularizer": null, "kernel_constraint": null, "bias_constraint": null}}]}, "val_accuracy": [… "epochs": 20, "embedding_dim": 64, "input_len": 25, "batch_size": 512, "optimizer": "rmsprop"}}, "2020-04-08 13:36:16.401718": {"data": {"preprocess_options": {"remove_links": true, "remove_users": true, "remove_hash": false, "unslang": false, "split_words": true, "stem": false, "remove_punctuations": true, "remove_numbers": false, "to_lower_case": true, "remove_stop_words": true, "remove_not_alpha": false, "join": false}, "words_reputation_filter": 0, "add_start_symbol": true, "train_percentage": 0.8, "vocabulary_len": 15360, "tweets_for_vocabulary_base": null, "shuffle_data": false}, "model": {"config": {"name": "sequential_1", "layers": [{"class_name": "Embedding", "config": {"name": "embedding_1", "trainable": true, "batch_input_shape": [null, 25], "dtype": "float32", "input_dim": 15360, "output_dim": 64, "embeddings_initializer": {"class_name": "RandomUniform", "config": {"minval": -0.05, "maxval": 0.05, "seed": null}}, "embeddings_regularizer": null, "activity_regularizer": null, "embeddings_constraint": null, "mask_zero": false, "input_length": 25}}, {"class_name": "Flatten", "config": {"name": "flatten_1", "trainable": true, "dtype": "float32", "data_format": "channels_last"}}, {"class_name": "Dense", "config": {"name": "dense_1", "trainable": true, "dtype": "float32", "units": 1, "activation": "sigmoid", "use_bias": true, "kernel_initializer": {"class_name": "VarianceScaling", "config": {"scale": 1.0, "mode": "fan_avg", "distribution": "uniform", "seed": null}}, "bias_initializer": {"class_name": "Zeros", "config": {}}, "kernel_regularizer": null, "bias_regularizer": null, "activity_regularizer": null, "kernel_constraint": null, "bias_constraint": null}}]}, "val_accuracy": [… "epochs": 20, "embedding_dim": 64, "input_len": 25, "batch_size": 512, "optimizer": "rmsprop"}}, "2020-04-08 17:14:02.667874": {"data": {"preprocess_options": {"remove_links": true, "remove_users": true, "remove_hash": false, "unslang": false, "split_words": true, "stem": false, "remove_punctuations": true, "remove_numbers": false, "to_lower_case": true, "remove_stop_words": true, "remove_not_alpha": false, "join": false}, "words_reputation_filter": 0, "add_start_symbol": true, "train_percentage": 0.8, "vocabulary_len": 15360, "tweets_for_vocabulary_base": null, "shuffle_data": false}, "model": {"config": {"name": "sequential_1", "layers": [{"class_name": "Embedding", "config": {"name": "embedding_1", "trainable": true, "batch_input_shape": [null, 25], "dtype": "float32", "input_dim": 15360, "output_dim": 64, "embeddings_initializer": {"class_name": "RandomUniform", "config": {"minval": -0.05, "maxval": 0.05, "seed": null}}, "embeddings_regularizer": null, "activity_regularizer": null, "embeddings_constraint": null, "mask_zero": false, "input_length": 25}}, {"class_name": "GlobalAveragePooling1D", "config": {"name": "global_average_pooling1d_1", "trainable": true, "dtype": "float32", "data_format": "channels_last"}}, {"class_name": "Dense", "config": {"name": "dense_1", "trainable": true, "dtype": "float32", "units": 64, "activation": "relu", "use_bias": true, "kernel_initializer": {"class_name": "VarianceScaling", "config": {"scale": 1.0, "mode": "fan_avg", "distribution": "uniform", "seed": null}}, "bias_initializer": {"class_name": "Zeros", "config": {}}, "kernel_regularizer": null, "bias_regularizer": null, "activity_regularizer": null, "kernel_constraint": null, "bias_constraint": null}}, {"class_name": "Dense", "config": {"name": "dense_2", "trainable": true, "dtype": "float32", "units": 1, "activation": "sigmoid", "use_bias": true, "kernel_initializer": {"class_name": "VarianceScaling", "config": {"scale": 1.0, "mode": "fan_avg", "distribution": "uniform", "seed": null}}, "bias_initializer": {"class_name": "Zeros", "config": {}}, "kernel_regularizer": null, "bias_regularizer": null, "activity_regularizer": null, "kernel_constraint": null, "bias_constraint": null}}]}, "val_accuracy": [… "epochs": 20, "embedding_dim": 64, "input_len": 25, "batch_size": 512, "optimizer": "rmsprop"}}, "2020-04-08 17:14:51.870511": {"data": {"preprocess_options": {"remove_links": true, "remove_users": true, "remove_hash": false, "unslang": false, "split_words": true, "stem": false, "remove_punctuations": true, "remove_numbers": false, "to_lower_case": true, "remove_stop_words": true, "remove_not_alpha": false, "join": false}, "words_reputation_filter": 0, "add_start_symbol": true, "train_percentage": 0.8, "vocabulary_len": 8504, "tweets_for_vocabulary_base": true, "shuffle_data": true}, "model": {"config": {"name": "sequential_1", "layers": [{"class_name": "Embedding", "config": {"name": "embedding_1", "trainable": true, "batch_input_shape": [null, 23], "dtype": "float32", "input_dim": 8504, "output_dim": 64, "embeddings_initializer": {"class_name": "RandomUniform", "config": {"minval": -0.05, "maxval": 0.05, "seed": null}}, "embeddings_regularizer": null, "activity_regularizer": null, "embeddings_constraint": null, "mask_zero": false, "input_length": 23}}, {"class_name": "GlobalAveragePooling1D", "config": {"name": "global_average_pooling1d_1", "trainable": true, "dtype": "float32", "data_format": "channels_last"}}, {"class_name": "Dense", "config": {"name": "dense_1", "trainable": true, "dtype": "float32", "units": 64, "activation": "relu", "use_bias": true, "kernel_initializer": {"class_name": "VarianceScaling", "config": {"scale": 1.0, "mode": "fan_avg", "distribution": "uniform", "seed": null}}, "bias_initializer": {"class_name": "Zeros", "config": {}}, "kernel_regularizer": null, "bias_regularizer": null, "activity_regularizer": null, "kernel_constraint": null, "bias_constraint": null}}, {"class_name": "Dense", "config": {"name": "dense_2", "trainable": true, "dtype": "float32", "units": 1, "activation": "sigmoid", "use_bias": true, "kernel_initializer": {"class_name": "VarianceScaling", "config": {"scale": 1.0, "mode": "fan_avg", "distribution": "uniform", "seed": null}}, "bias_initializer": {"class_name": "Zeros", "config": {}}, "kernel_regularizer": null, "bias_regularizer": null, "activity_regularizer": null, "kernel_constraint": null, "bias_constraint": null}}]}, "val_accuracy": [… "epochs": 20, "embedding_dim": 64, "input_len": 23, "batch_size": 512, "optimizer": "rmsprop"}}, "2020-04-08 17:15:28.549312": {"data": {"preprocess_options": {"remove_links": true, "remove_users": true, "remove_hash": false, "unslang": false, "split_words": true, "stem": false, "remove_punctuations": true, "remove_numbers": false, "to_lower_case": true, "remove_stop_words": true, "remove_not_alpha": false, "join": false}, "words_reputation_filter": 0, "add_start_symbol": true, "train_percentage": 0.8, "vocabulary_len": 8504, "tweets_for_vocabulary_base": true, "shuffle_data": true}, "model": {"config": {"name": "sequential_1", "layers": [{"class_name": "Embedding", "config": {"name": "embedding_1", "trainable": true, "batch_input_shape": [null, 23], "dtype": "float32", "input_dim": 8504, "output_dim": 16, "embeddings_initializer": {"class_name": "RandomUniform", "config": {"minval": -0.05, "maxval": 0.05, "seed": null}}, "embeddings_regularizer": null, "activity_regularizer": null, "embeddings_constraint": null, "mask_zero": false, "input_length": 23}}, {"class_name": "GlobalAveragePooling1D", "config": {"name": "global_average_pooling1d_1", "trainable": true, "dtype": "float32", "data_format": "channels_last"}}, {"class_name": "Dense", "config": {"name": "dense_1", "trainable": true, "dtype": "float32", "units": 16, "activation": "relu", "use_bias": true, "kernel_initializer": {"class_name": "VarianceScaling", "config": {"scale": 1.0, "mode": "fan_avg", "distribution": "uniform", "seed": null}}, "bias_initializer": {"class_name": "Zeros", "config": {}}, "kernel_regularizer": null, "bias_regularizer": null, "activity_regularizer": null, "kernel_constraint": null, "bias_constraint": null}}, {"class_name": "Dense", "config": {"name": "dense_2", "trainable": true, "dtype": "float32", "units": 1, "activation": "sigmoid", "use_bias": true, "kernel_initializer": {"class_name": "VarianceScaling", "config": {"scale": 1.0, "mode": "fan_avg", "distribution": "uniform", "seed": null}}, "bias_initializer": {"class_name": "Zeros", "config": {}}, "kernel_regularizer": null, "bias_regularizer": null, "activity_regularizer": null, "kernel_constraint": null, "bias_constraint": null}}]}, "val_accuracy": [… "epochs": 20, "embedding_dim": 16, "input_len": 23, "batch_size": 512, "optimizer": "rmsprop"}}, "2020-04-08 17:16:19.528019": {"data": {"preprocess_options": {"remove_links": true, "remove_users": true, "remove_hash": false, "unslang": false, "split_words": true, "stem": false, "remove_punctuations": true, "remove_numbers": false, "to_lower_case": true, "remove_stop_words": true, "remove_not_alpha": false, "join": false}, "words_reputation_filter": 0, "add_start_symbol": true, "train_percentage": 0.8, "vocabulary_len": 8504, "tweets_for_vocabulary_base": true, "shuffle_data": true}, "model": {"config": {"name": "sequential_1", "layers": [{"class_name": "Embedding", "config": {"name": "embedding_1", "trainable": true, "batch_input_shape": [null, 23], "dtype": "float32", "input_dim": 8504, "output_dim": 16, "embeddings_initializer": {"class_name": "RandomUniform", "config": {"minval": -0.05, "maxval": 0.05, "seed": null}}, "embeddings_regularizer": null, "activity_regularizer": null, "embeddings_constraint": null, "mask_zero": false, "input_length": 23}}, {"class_name": "GlobalAveragePooling1D", "config": {"name": "global_average_pooling1d_1", "trainable": true, "dtype": "float32", "data_format": "channels_last"}}, {"class_name": "Dense", "config": {"name": "dense_1", "trainable": true, "dtype": "float32", "units": 16, "activation": "relu", "use_bias": true, "kernel_initializer": {"class_name": "VarianceScaling", "config": {"scale": 1.0, "mode": "fan_avg", "distribution": "uniform", "seed": null}}, "bias_initializer": {"class_name": "Zeros", "config": {}}, "kernel_regularizer": null, "bias_regularizer": null, "activity_regularizer": null, "kernel_constraint": null, "bias_constraint": null}}, {"class_name": "Dense", "config": {"name": "dense_2", "trainable": true, "dtype": "float32", "units": 1, "activation": "sigmoid", "use_bias": true, "kernel_initializer": {"class_name": "VarianceScaling", "config": {"scale": 1.0, "mode": "fan_avg", "distribution": "uniform", "seed": null}}, "bias_initializer": {"class_name": "Zeros", "config": {}}, "kernel_regularizer": null, "bias_regularizer": null, "activity_regularizer": null, "kernel_constraint": null, "bias_constraint": null}}]}, "val_accuracy": [… "epochs": 50, "embedding_dim": 16, "input_len": 23, "batch_size": 512, "optimizer": "rmsprop"}}, "2020-04-08 17:16:50.693448": {"data": {"preprocess_options": {"remove_links": true, "remove_users": true, "remove_hash": false, "unslang": false, "split_words": true, "stem": false, "remove_punctuations": true, "remove_numbers": false, "to_lower_case": true, "remove_stop_words": true, "remove_not_alpha": false, "join": false}, "words_reputation_filter": 0, "add_start_symbol": true, "train_percentage": 0.8, "vocabulary_len": 15360, "tweets_for_vocabulary_base": null, "shuffle_data": true}, "model": {"config": {"name": "sequential_1", "layers": [{"class_name": "Embedding", "config": {"name": "embedding_1", "trainable": true, "batch_input_shape": [null, 25], "dtype": "float32", "input_dim": 15360, "output_dim": 16, "embeddings_initializer": {"class_name": "RandomUniform", "config": {"minval": -0.05, "maxval": 0.05, "seed": null}}, "embeddings_regularizer": null, "activity_regularizer": null, "embeddings_constraint": null, "mask_zero": false, "input_length": 25}}, {"class_name": "GlobalAveragePooling1D", "config": {"name": "global_average_pooling1d_1", "trainable": true, "dtype": "float32", "data_format": "channels_last"}}, {"class_name": "Dense", "config": {"name": "dense_1", "trainable": true, "dtype": "float32", "units": 16, "activation": "relu", "use_bias": true, "kernel_initializer": {"class_name": "VarianceScaling", "config": {"scale": 1.0, "mode": "fan_avg", "distribution": "uniform", "seed": null}}, "bias_initializer": {"class_name": "Zeros", "config": {}}, "kernel_regularizer": null, "bias_regularizer": null, "activity_regularizer": null, "kernel_constraint": null, "bias_constraint": null}}, {"class_name": "Dense", "config": {"name": "dense_2", "trainable": true, "dtype": "float32", "units": 1, "activation": "sigmoid", "use_bias": true, "kernel_initializer": {"class_name": "VarianceScaling", "config": {"scale": 1.0, "mode": "fan_avg", "distribution": "uniform", "seed": null}}, "bias_initializer": {"class_name": "Zeros", "config": {}}, "kernel_regularizer": null, "bias_regularizer": null, "activity_regularizer": null, "kernel_constraint": null, "bias_constraint": null}}]}, "val_accuracy": [… "epochs": 50, "embedding_dim": 16, "input_len": 25, "batch_size": 512, "optimizer": "rmsprop"}}, "2020-04-08 17:17:46.711548": {"data": {"preprocess_options": {"remove_links": true, "remove_users": true, "remove_hash": false, "unslang": false, "split_words": true, "stem": false, "remove_punctuations": true, "remove_numbers": false, "to_lower_case": true, "remove_stop_words": true, "remove_not_alpha": false, "join": false}, "words_reputation_filter": 0, "add_start_symbol": true, "train_percentage": 0.8, "vocabulary_len": 15360, "tweets_for_vocabulary_base": null, "shuffle_data": true}, "model": {"config": {"name": "sequential_1", "layers": [{"class_name": "Embedding", "config": {"name": "embedding_1", "trainable": true, "batch_input_shape": [null, 25], "dtype": "float32", "input_dim": 15360, "output_dim": 32, "embeddings_initializer": {"class_name": "RandomUniform", "config": {"minval": -0.05, "maxval": 0.05, "seed": null}}, "embeddings_regularizer": null, "activity_regularizer": null, "embeddings_constraint": null, "mask_zero": false, "input_length": 25}}, {"class_name": "GlobalAveragePooling1D", "config": {"name": "global_average_pooling1d_1", "trainable": true, "dtype": "float32", "data_format": "channels_last"}}, {"class_name": "Dense", "config": {"name": "dense_1", "trainable": true, "dtype": "float32", "units": 16, "activation": "relu", "use_bias": true, "kernel_initializer": {"class_name": "VarianceScaling", "config": {"scale": 1.0, "mode": "fan_avg", "distribution": "uniform", "seed": null}}, "bias_initializer": {"class_name": "Zeros", "config": {}}, "kernel_regularizer": null, "bias_regularizer": null, "activity_regularizer": null, "kernel_constraint": null, "bias_constraint": null}}, {"class_name": "Dense", "config": {"name": "dense_2", "trainable": true, "dtype": "float32", "units": 1, "activation": "sigmoid", "use_bias": true, "kernel_initializer": {"class_name": "VarianceScaling", "config": {"scale": 1.0, "mode": "fan_avg", "distribution": "uniform", "seed": null}}, "bias_initializer": {"class_name": "Zeros", "config": {}}, "kernel_regularizer": null, "bias_regularizer": null, "activity_regularizer": null, "kernel_constraint": null, "bias_constraint": null}}]}, "val_accuracy": [… "epochs": 50, "embedding_dim": 32, "input_len": 25, "batch_size": 512, "optimizer": "rmsprop"}}, "2020-04-08 17:18:48.480207": {"data": {"preprocess_options": {"remove_links": true, "remove_users": true, "remove_hash": false, "unslang": false, "split_words": true, "stem": false, "remove_punctuations": true, "remove_numbers": false, "to_lower_case": true, "remove_stop_words": true, "remove_not_alpha": false, "join": false}, "words_reputation_filter": 0, "add_start_symbol": false, "train_percentage": 0.8, "vocabulary_len": 15359, "tweets_for_vocabulary_base": null, "shuffle_data": true}, "model": {"config": {"name": "sequential_1", "layers": [{"class_name": "Embedding", "config": {"name": "embedding_1", "trainable": true, "batch_input_shape": [null, 25], "dtype": "float32", "input_dim": 15359, "output_dim": 32, "embeddings_initializer": {"class_name": "RandomUniform", "config": {"minval": -0.05, "maxval": 0.05, "seed": null}}, "embeddings_regularizer": null, "activity_regularizer": null, "embeddings_constraint": null, "mask_zero": false, "input_length": 25}}, {"class_name": "GlobalAveragePooling1D", "config": {"name": "global_average_pooling1d_1", "trainable": true, "dtype": "float32", "data_format": "channels_last"}}, {"class_name": "Dense", "config": {"name": "dense_1", "trainable": true, "dtype": "float32", "units": 16, "activation": "relu", "use_bias": true, "kernel_initializer": {"class_name": "VarianceScaling", "config": {"scale": 1.0, "mode": "fan_avg", "distribution": "uniform", "seed": null}}, "bias_initializer": {"class_name": "Zeros", "config": {}}, "kernel_regularizer": null, "bias_regularizer": null, "activity_regularizer": null, "kernel_constraint": null, "bias_constraint": null}}, {"class_name": "Dense", "config": {"name": "dense_2", "trainable": true, "dtype": "float32", "units": 1, "activation": "sigmoid", "use_bias": true, "kernel_initializer": {"class_name": "VarianceScaling", "config": {"scale": 1.0, "mode": "fan_avg", "distribution": "uniform", "seed": null}}, "bias_initializer": {"class_name": "Zeros", "config": {}}, "kernel_regularizer": null, "bias_regularizer": null, "activity_regularizer": null, "kernel_constraint": null, "bias_constraint": null}}]}, "val_accuracy": [… "epochs": 30, "embedding_dim": 32, "input_len": 25, "batch_size": 512, "optimizer": "rmsprop"}}, "2020-04-08 17:40:14.765262": {"data": {"preprocess_options": {"remove_links": true, "remove_users": true, "remove_hash": false, "unslang": false, "split_words": true, "stem": false, "remove_punctuations": true, "remove_numbers": false, "to_lower_case": true, "remove_stop_words": true, "remove_not_alpha": false, "join": false}, "words_reputation_filter": 0, "add_start_symbol": false, "train_percentage": 0.8, "vocabulary_len": 15359, "tweets_for_vocabulary_base": null, "shuffle_data": true}, "model": {"config": {"name": "sequential_1", "layers": [{"class_name": "Embedding", "config": {"name": "embedding_1", "trainable": true, "batch_input_shape": [null, 25], "dtype": "float32", "input_dim": 15359, "output_dim": 8, "embeddings_initializer": {"class_name": "RandomUniform", "config": {"minval": -0.05, "maxval": 0.05, "seed": null}}, "embeddings_regularizer": null, "activity_regularizer": null, "embeddings_constraint": null, "mask_zero": false, "input_length": 25}}, {"class_name": "Flatten", "config": {"name": "flatten_1", "trainable": true, "dtype": "float32", "data_format": "channels_last"}}, {"class_name": "Dense", "config": {"name": "dense_1", "trainable": true, "dtype": "float32", "units": 1, "activation": "sigmoid", "use_bias": true, "kernel_initializer": {"class_name": "VarianceScaling", "config": {"scale": 1.0, "mode": "fan_avg", "distribution": "uniform", "seed": null}}, "bias_initializer": {"class_name": "Zeros", "config": {}}, "kernel_regularizer": null, "bias_regularizer": null, "activity_regularizer": null, "kernel_constraint": null, "bias_constraint": null}}]}, "val_accuracy": [… "epochs": 30, "embedding_dim": 8, "input_len": 25, "batch_size": 512, "optimizer": "rmsprop"}}, "2020-04-08 17:40:45.710183": {"data": {"preprocess_options": {"remove_links": true, "remove_users": true, "remove_hash": false, "unslang": false, "split_words": true, "stem": false, "remove_punctuations": true, "remove_numbers": false, "to_lower_case": true, "remove_stop_words": true, "remove_not_alpha": false, "join": false}, "words_reputation_filter": 0, "add_start_symbol": false, "train_percentage": 0.8, "vocabulary_len": 15359, "tweets_for_vocabulary_base": null, "shuffle_data": true}, "model": {"config": {"name": "sequential_1", "layers": [{"class_name": "Embedding", "config": {"name": "embedding_1", "trainable": true, "batch_input_shape": [null, 25], "dtype": "float32", "input_dim": 15359, "output_dim": 8, "embeddings_initializer": {"class_name": "RandomUniform", "config": {"minval": -0.05, "maxval": 0.05, "seed": null}}, "embeddings_regularizer": null, "activity_regularizer": null, "embeddings_constraint": null, "mask_zero": false, "input_length": 25}}, {"class_name": "Flatten", "config": {"name": "flatten_1", "trainable": true, "dtype": "float32", "data_format": "channels_last"}}, {"class_name": "Dense", "config": {"name": "dense_1", "trainable": true, "dtype": "float32", "units": 1, "activation": "sigmoid", "use_bias": true, "kernel_initializer": {"class_name": "VarianceScaling", "config": {"scale": 1.0, "mode": "fan_avg", "distribution": "uniform", "seed": null}}, "bias_initializer": {"class_name": "Zeros", "config": {}}, "kernel_regularizer": null, "bias_regularizer": null, "activity_regularizer": null, "kernel_constraint": null, "bias_constraint": null}}]}, "val_accuracy": [… "epochs": 50, "embedding_dim": 8, "input_len": 25, "batch_size": 512, "optimizer": "rmsprop"}}, "2020-04-08 17:41:15.372792": {"data": {"preprocess_options": {"remove_links": true, "remove_users": true, "remove_hash": false, "unslang": false, "split_words": true, "stem": false, "remove_punctuations": true, "remove_numbers": false, "to_lower_case": true, "remove_stop_words": true, "remove_not_alpha": false, "join": false}, "words_reputation_filter": 0, "add_start_symbol": false, "train_percentage": 0.8, "vocabulary_len": 8503, "tweets_for_vocabulary_base": true, "shuffle_data": true}, "model": {"config": {"name": "sequential_1", "layers": [{"class_name": "Embedding", "config": {"name": "embedding_1", "trainable": true, "batch_input_shape": [null, 23], "dtype": "float32", "input_dim": 8503, "output_dim": 8, "embeddings_initializer": {"class_name": "RandomUniform", "config": {"minval": -0.05, "maxval": 0.05, "seed": null}}, "embeddings_regularizer": null, "activity_regularizer": null, "embeddings_constraint": null, "mask_zero": false, "input_length": 23}}, {"class_name": "Flatten", "config": {"name": "flatten_1", "trainable": true, "dtype": "float32", "data_format": "channels_last"}}, {"class_name": "Dense", "config": {"name": "dense_1", "trainable": true, "dtype": "float32", "units": 1, "activation": "sigmoid", "use_bias": true, "kernel_initializer": {"class_name": "VarianceScaling", "config": {"scale": 1.0, "mode": "fan_avg", "distribution": "uniform", "seed": null}}, "bias_initializer": {"class_name": "Zeros", "config": {}}, "kernel_regularizer": null, "bias_regularizer": null, "activity_regularizer": null, "kernel_constraint": null, "bias_constraint": null}}]}, "val_accuracy": [… "epochs": 50, "embedding_dim": 8, "input_len": 23, "batch_size": 512, "optimizer": "rmsprop"}}, "2020-04-08 17:42:20.534046": {"data": {"preprocess_options": {"remove_links": true, "remove_users": true, "remove_hash": false, "unslang": true, "split_words": true, "stem": false, "remove_punctuations": true, "remove_numbers": false, "to_lower_case": true, "remove_stop_words": true, "remove_not_alpha": false, "join": false}, "words_reputation_filter": 0, "add_start_symbol": false, "train_percentage": 0.8, "vocabulary_len": 8480, "tweets_for_vocabulary_base": true, "shuffle_data": true}, "model": {"config": {"name": "sequential_1", "layers": [{"class_name": "Embedding", "config": {"name": "embedding_1", "trainable": true, "batch_input_shape": [null, 25], "dtype": "float32", "input_dim": 8480, "output_dim": 8, "embeddings_initializer": {"class_name": "RandomUniform", "config": {"minval": -0.05, "maxval": 0.05, "seed": null}}, "embeddings_regularizer": null, "activity_regularizer": null, "embeddings_constraint": null, "mask_zero": false, "input_length": 25}}, {"class_name": "Flatten", "config": {"name": "flatten_1", "trainable": true, "dtype": "float32", "data_format": "channels_last"}}, {"class_name": "Dense", "config": {"name": "dense_1", "trainable": true, "dtype": "float32", "units": 1, "activation": "sigmoid", "use_bias": true, "kernel_initializer": {"class_name": "VarianceScaling", "config": {"scale": 1.0, "mode": "fan_avg", "distribution": "uniform", "seed": null}}, "bias_initializer": {"class_name": "Zeros", "config": {}}, "kernel_regularizer": null, "bias_regularizer": null, "activity_regularizer": null, "kernel_constraint": null, "bias_constraint": null}}]}, "val_accuracy": [… "epochs": 50, "embedding_dim": 8, "input_len": 25, "batch_size": 512, "optimizer": "rmsprop"}}, "2020-04-08 17:42:40.172809": {"data": {"preprocess_options": {"remove_links": true, "remove_users": true, "remove_hash": false, "unslang": true, "split_words": true, "stem": false, "remove_punctuations": true, "remove_numbers": false, "to_lower_case": true, "remove_stop_words": true, "remove_not_alpha": false, "join": false}, "words_reputation_filter": 0, "add_start_symbol": false, "train_percentage": 0.8, "vocabulary_len": 8480, "tweets_for_vocabulary_base": true, "shuffle_data": true}, "model": {"config": {"name": "sequential_1", "layers": [{"class_name": "Embedding", "config": {"name": "embedding_1", "trainable": true, "batch_input_shape": [null, 25], "dtype": "float32", "input_dim": 8480, "output_dim": 8, "embeddings_initializer": {"class_name": "RandomUniform", "config": {"minval": -0.05, "maxval": 0.05, "seed": null}}, "embeddings_regularizer": null, "activity_regularizer": null, "embeddings_constraint": null, "mask_zero": false, "input_length": 25}}, {"class_name": "Flatten", "config": {"name": "flatten_1", "trainable": true, "dtype": "float32", "data_format": "channels_last"}}, {"class_name": "Dense", "config": {"name": "dense_1", "trainable": true, "dtype": "float32", "units": 1, "activation": "sigmoid", "use_bias": true, "kernel_initializer": {"class_name": "VarianceScaling", "config": {"scale": 1.0, "mode": "fan_avg", "distribution": "uniform", "seed": null}}, "bias_initializer": {"class_name": "Zeros", "config": {}}, "kernel_regularizer": null, "bias_regularizer": null, "activity_regularizer": null, "kernel_constraint": null, "bias_constraint": null}}]}, "val_accuracy": [… "epochs": 50, "embedding_dim": 8, "input_len": 25, "batch_size": 512, "optimizer": "rmsprop"}}, "2020-04-08 17:43:04.313810": {"data": {"preprocess_options": {"remove_links": true, "remove_users": true, "remove_hash": false, "unslang": true, "split_words": true, "stem": false, "remove_punctuations": true, "remove_numbers": false, "to_lower_case": true, "remove_stop_words": true, "remove_not_alpha": false, "join": false}, "words_reputation_filter": 0, "add_start_symbol": false, "train_percentage": 0.8, "vocabulary_len": 8480, "tweets_for_vocabulary_base": true, "shuffle_data": true}, "model": {"config": {"name": "sequential_1", "layers": [{"class_name": "Embedding", "config": {"name": "embedding_1", "trainable": true, "batch_input_shape": [null, 25], "dtype": "float32", "input_dim": 8480, "output_dim": 8, "embeddings_initializer": {"class_name": "RandomUniform", "config": {"minval": -0.05, "maxval": 0.05, "seed": null}}, "embeddings_regularizer": null, "activity_regularizer": null, "embeddings_constraint": null, "mask_zero": false, "input_length": 25}}, {"class_name": "Flatten", "config": {"name": "flatten_1", "trainable": true, "dtype": "float32", "data_format": "channels_last"}}, {"class_name": "Dense", "config": {"name": "dense_1", "trainable": true, "dtype": "float32", "units": 1, "activation": "sigmoid", "use_bias": true, "kernel_initializer": {"class_name": "VarianceScaling", "config": {"scale": 1.0, "mode": "fan_avg", "distribution": "uniform", "seed": null}}, "bias_initializer": {"class_name": "Zeros", "config": {}}, "kernel_regularizer": null, "bias_regularizer": null, "activity_regularizer": null, "kernel_constraint": null, "bias_constraint": null}}]}, "val_accuracy": [… "epochs": 50, "embedding_dim": 8, "input_len": 25, "batch_size": 512, "optimizer": "rmsprop"}}, "2020-04-08 17:43:31.140369": {"data": {"preprocess_options": {"remove_links": true, "remove_users": true, "remove_hash": false, "unslang": true, "split_words": true, "stem": false, "remove_punctuations": true, "remove_numbers": false, "to_lower_case": true, "remove_stop_words": true, "remove_not_alpha": false, "join": false}, "words_reputation_filter": 0, "add_start_symbol": false, "train_percentage": 0.8, "vocabulary_len": 8480, "tweets_for_vocabulary_base": true, "shuffle_data": false}, "model": {"config": {"name": "sequential_1", "layers": [{"class_name": "Embedding", "config": {"name": "embedding_1", "trainable": true, "batch_input_shape": [null, 25], "dtype": "float32", "input_dim": 8480, "output_dim": 8, "embeddings_initializer": {"class_name": "RandomUniform", "config": {"minval": -0.05, "maxval": 0.05, "seed": null}}, "embeddings_regularizer": null, "activity_regularizer": null, "embeddings_constraint": null, "mask_zero": false, "input_length": 25}}, {"class_name": "Flatten", "config": {"name": "flatten_1", "trainable": true, "dtype": "float32", "data_format": "channels_last"}}, {"class_name": "Dense", "config": {"name": "dense_1", "trainable": true, "dtype": "float32", "units": 1, "activation": "sigmoid", "use_bias": true, "kernel_initializer": {"class_name": "VarianceScaling", "config": {"scale": 1.0, "mode": "fan_avg", "distribution": "uniform", "seed": null}}, "bias_initializer": {"class_name": "Zeros", "config": {}}, "kernel_regularizer": null, "bias_regularizer": null, "activity_regularizer": null, "kernel_constraint": null, "bias_constraint": null}}]}, "val_accuracy": [… "epochs": 50, "embedding_dim": 8, "input_len": 25, "batch_size": 512, "optimizer": "rmsprop"}}, "2020-04-08 17:43:46.971032": {"data": {"preprocess_options": {"remove_links": true, "remove_users": true, "remove_hash": false, "unslang": true, "split_words": true, "stem": false, "remove_punctuations": true, "remove_numbers": false, "to_lower_case": true, "remove_stop_words": true, "remove_not_alpha": false, "join": false}, "words_reputation_filter": 0, "add_start_symbol": false, "train_percentage": 0.8, "vocabulary_len": 8480, "tweets_for_vocabulary_base": true, "shuffle_data": false}, "model": {"config": {"name": "sequential_1", "layers": [{"class_name": "Embedding", "config": {"name": "embedding_1", "trainable": true, "batch_input_shape": [null, 25], "dtype": "float32", "input_dim": 8480, "output_dim": 8, "embeddings_initializer": {"class_name": "RandomUniform", "config": {"minval": -0.05, "maxval": 0.05, "seed": null}}, "embeddings_regularizer": null, "activity_regularizer": null, "embeddings_constraint": null, "mask_zero": false, "input_length": 25}}, {"class_name": "Flatten", "config": {"name": "flatten_1", "trainable": true, "dtype": "float32", "data_format": "channels_last"}}, {"class_name": "Dense", "config": {"name": "dense_1", "trainable": true, "dtype": "float32", "units": 1, "activation": "sigmoid", "use_bias": true, "kernel_initializer": {"class_name": "VarianceScaling", "config": {"scale": 1.0, "mode": "fan_avg", "distribution": "uniform", "seed": null}}, "bias_initializer": {"class_name": "Zeros", "config": {}}, "kernel_regularizer": null, "bias_regularizer": null, "activity_regularizer": null, "kernel_constraint": null, "bias_constraint": null}}]}, "val_accuracy": [… "epochs": 50, "embedding_dim": 8, "input_len": 25, "batch_size": 512, "optimizer": "rmsprop"}}, "2020-04-08 17:44:18.641429": {"data": {"preprocess_options": {"remove_links": true, "remove_users": true, "remove_hash": false, "unslang": false, "split_words": true, "stem": false, "remove_punctuations": true, "remove_numbers": false, "to_lower_case": true, "remove_stop_words": true, "remove_not_alpha": false, "join": false}, "words_reputation_filter": 0, "add_start_symbol": false, "train_percentage": 0.8, "vocabulary_len": 8503, "tweets_for_vocabulary_base": true, "shuffle_data": false}, "model": {"config": {"name": "sequential_1", "layers": [{"class_name": "Embedding", "config": {"name": "embedding_1", "trainable": true, "batch_input_shape": [null, 23], "dtype": "float32", "input_dim": 8503, "output_dim": 8, "embeddings_initializer": {"class_name": "RandomUniform", "config": {"minval": -0.05, "maxval": 0.05, "seed": null}}, "embeddings_regularizer": null, "activity_regularizer": null, "embeddings_constraint": null, "mask_zero": false, "input_length": 23}}, {"class_name": "Flatten", "config": {"name": "flatten_1", "trainable": true, "dtype": "float32", "data_format": "channels_last"}}, {"class_name": "Dense", "config": {"name": "dense_1", "trainable": true, "dtype": "float32", "units": 1, "activation": "sigmoid", "use_bias": true, "kernel_initializer": {"class_name": "VarianceScaling", "config": {"scale": 1.0, "mode": "fan_avg", "distribution": "uniform", "seed": null}}, "bias_initializer": {"class_name": "Zeros", "config": {}}, "kernel_regularizer": null, "bias_regularizer": null, "activity_regularizer": null, "kernel_constraint": null, "bias_constraint": null}}]}, "val_accuracy": [… "epochs": 50, "embedding_dim": 8, "input_len": 23, "batch_size": 512, "optimizer": "rmsprop"}}, "2020-04-08 17:45:56.623710": {"data": {"preprocess_options": {"remove_links": true, "remove_users": true, "remove_hash": false, "unslang": false, "split_words": true, "stem": false, "remove_punctuations": true, "remove_numbers": false, "to_lower_case": true, "remove_stop_words": true, "remove_not_alpha": false, "join": false}, "words_reputation_filter": 0, "add_start_symbol": false, "train_percentage": 0.8, "vocabulary_len": 8503, "tweets_for_vocabulary_base": true, "shuffle_data": false}, "model": {"config": {"name": "sequential_1", "layers": [{"class_name": "Embedding", "config": {"name": "embedding_1", "trainable": true, "batch_input_shape": [null, 23], "dtype": "float32", "input_dim": 8503, "output_dim": 8, "embeddings_initializer": {"class_name": "RandomUniform", "config": {"minval": -0.05, "maxval": 0.05, "seed": null}}, "embeddings_regularizer": null, "activity_regularizer": null, "embeddings_constraint": null, "mask_zero": false, "input_length": 23}}, {"class_name": "Flatten", "config": {"name": "flatten_1", "trainable": true, "dtype": "float32", "data_format": "channels_last"}}, {"class_name": "Dense", "config": {"name": "dense_1", "trainable": true, "dtype": "float32", "units": 1, "activation": "sigmoid", "use_bias": true, "kernel_initializer": {"class_name": "VarianceScaling", "config": {"scale": 1.0, "mode": "fan_avg", "distribution": "uniform", "seed": null}}, "bias_initializer": {"class_name": "Zeros", "config": {}}, "kernel_regularizer": null, "bias_regularizer": null, "activity_regularizer": null, "kernel_constraint": null, "bias_constraint": null}}]}, "val_accuracy": [… "epochs": 50, "embedding_dim": 8, "input_len": 23, "batch_size": 512, "optimizer": "rmsprop"}}, "2020-04-08 17:46:26.592480": {"data": {"preprocess_options": {"remove_links": true, "remove_users": true, "remove_hash": false, "unslang": false, "split_words": true, "stem": false, "remove_punctuations": true, "remove_numbers": true, "to_lower_case": true, "remove_stop_words": true, "remove_not_alpha": false, "join": false}, "words_reputation_filter": 0, "add_start_symbol": false, "train_percentage": 0.8, "vocabulary_len": 8265, "tweets_for_vocabulary_base": true, "shuffle_data": false}, "model": {"config": {"name": "sequential_1", "layers": [{"class_name": "Embedding", "config": {"name": "embedding_1", "trainable": true, "batch_input_shape": [null, 20], "dtype": "float32", "input_dim": 8265, "output_dim": 8, "embeddings_initializer": {"class_name": "RandomUniform", "config": {"minval": -0.05, "maxval": 0.05, "seed": null}}, "embeddings_regularizer": null, "activity_regularizer": null, "embeddings_constraint": null, "mask_zero": false, "input_length": 20}}, {"class_name": "Flatten", "config": {"name": "flatten_1", "trainable": true, "dtype": "float32", "data_format": "channels_last"}}, {"class_name": "Dense", "config": {"name": "dense_1", "trainable": true, "dtype": "float32", "units": 1, "activation": "sigmoid", "use_bias": true, "kernel_initializer": {"class_name": "VarianceScaling", "config": {"scale": 1.0, "mode": "fan_avg", "distribution": "uniform", "seed": null}}, "bias_initializer": {"class_name": "Zeros", "config": {}}, "kernel_regularizer": null, "bias_regularizer": null, "activity_regularizer": null, "kernel_constraint": null, "bias_constraint": null}}]}, "val_accuracy": [… "epochs": 50, "embedding_dim": 8, "input_len": 20, "batch_size": 512, "optimizer": "rmsprop"}}, "2020-04-08 17:46:45.599201": {"data": {"preprocess_options": {"remove_links": true, "remove_users": true, "remove_hash": false, "unslang": false, "split_words": true, "stem": false, "remove_punctuations": true, "remove_numbers": true, "to_lower_case": true, "remove_stop_words": true, "remove_not_alpha": false, "join": false}, "words_reputation_filter": 0, "add_start_symbol": false, "train_percentage": 0.8, "vocabulary_len": 8265, "tweets_for_vocabulary_base": true, "shuffle_data": false}, "model": {"config": {"name": "sequential_1", "layers": [{"class_name": "Embedding", "config": {"name": "embedding_1", "trainable": true, "batch_input_shape": [null, 20], "dtype": "float32", "input_dim": 8265, "output_dim": 8, "embeddings_initializer": {"class_name": "RandomUniform", "config": {"minval": -0.05, "maxval": 0.05, "seed": null}}, "embeddings_regularizer": null, "activity_regularizer": null, "embeddings_constraint": null, "mask_zero": false, "input_length": 20}}, {"class_name": "Flatten", "config": {"name": "flatten_1", "trainable": true, "dtype": "float32", "data_format": "channels_last"}}, {"class_name": "Dense", "config": {"name": "dense_1", "trainable": true, "dtype": "float32", "units": 1, "activation": "sigmoid", "use_bias": true, "kernel_initializer": {"class_name": "VarianceScaling", "config": {"scale": 1.0, "mode": "fan_avg", "distribution": "uniform", "seed": null}}, "bias_initializer": {"class_name": "Zeros", "config": {}}, "kernel_regularizer": null, "bias_regularizer": null, "activity_regularizer": null, "kernel_constraint": null, "bias_constraint": null}}]}, "val_accuracy": [… "epochs": 50, "embedding_dim": 8, "input_len": 20, "batch_size": 512, "optimizer": "rmsprop"}}, "2020-04-08 17:48:33.618332": {"data": {"preprocess_options": {"remove_links": true, "remove_users": true, "remove_hash": false, "unslang": false, "split_words": false, "stem": false, "remove_punctuations": false, "remove_numbers": false, "to_lower_case": true, "remove_stop_words": false, "remove_not_alpha": false, "join": false}, "words_reputation_filter": 0, "add_start_symbol": false, "train_percentage": 0.8, "vocabulary_len": 9037, "tweets_for_vocabulary_base": true, "shuffle_data": false}, "model": {"config": {"name": "sequential_1", "layers": [{"class_name": "Embedding", "config": {"name": "embedding_1", "trainable": true, "batch_input_shape": [null, 35], "dtype": "float32", "input_dim": 9037, "output_dim": 8, "embeddings_initializer": {"class_name": "RandomUniform", "config": {"minval": -0.05, "maxval": 0.05, "seed": null}}, "embeddings_regularizer": null, "activity_regularizer": null, "embeddings_constraint": null, "mask_zero": false, "input_length": 35}}, {"class_name": "Flatten", "config": {"name": "flatten_1", "trainable": true, "dtype": "float32", "data_format": "channels_last"}}, {"class_name": "Dense", "config": {"name": "dense_1", "trainable": true, "dtype": "float32", "units": 1, "activation": "sigmoid", "use_bias": true, "kernel_initializer": {"class_name": "VarianceScaling", "config": {"scale": 1.0, "mode": "fan_avg", "distribution": "uniform", "seed": null}}, "bias_initializer": {"class_name": "Zeros", "config": {}}, "kernel_regularizer": null, "bias_regularizer": null, "activity_regularizer": null, "kernel_constraint": null, "bias_constraint": null}}]}, "val_accuracy": [… "epochs": 50, "embedding_dim": 8, "input_len": 35, "batch_size": 512, "optimizer": "rmsprop"}}, "2020-04-08 17:49:07.019856": {"data": {"preprocess_options": {"remove_links": true, "remove_users": true, "remove_hash": false, "unslang": false, "split_words": false, "stem": false, "remove_punctuations": false, "remove_numbers": false, "to_lower_case": false, "remove_stop_words": false, "remove_not_alpha": false, "join": false}, "words_reputation_filter": 0, "add_start_symbol": false, "train_percentage": 0.8, "vocabulary_len": 11023, "tweets_for_vocabulary_base": true, "shuffle_data": false}, "model": {"config": {"name": "sequential_1", "layers": [{"class_name": "Embedding", "config": {"name": "embedding_1", "trainable": true, "batch_input_shape": [null, 35], "dtype": "float32", "input_dim": 11023, "output_dim": 8, "embeddings_initializer": {"class_name": "RandomUniform", "config": {"minval": -0.05, "maxval": 0.05, "seed": null}}, "embeddings_regularizer": null, "activity_regularizer": null, "embeddings_constraint": null, "mask_zero": false, "input_length": 35}}, {"class_name": "Flatten", "config": {"name": "flatten_1", "trainable": true, "dtype": "float32", "data_format": "channels_last"}}, {"class_name": "Dense", "config": {"name": "dense_1", "trainable": true, "dtype": "float32", "units": 1, "activation": "sigmoid", "use_bias": true, "kernel_initializer": {"class_name": "VarianceScaling", "config": {"scale": 1.0, "mode": "fan_avg", "distribution": "uniform", "seed": null}}, "bias_initializer": {"class_name": "Zeros", "config": {}}, "kernel_regularizer": null, "bias_regularizer": null, "activity_regularizer": null, "kernel_constraint": null, "bias_constraint": null}}]}, "val_accuracy": [… "epochs": 50, "embedding_dim": 8, "input_len": 35, "batch_size": 512, "optimizer": "rmsprop"}}, "2020-04-08 17:49:29.372329": {"data": {"preprocess_options": {"remove_links": true, "remove_users": true, "remove_hash": false, "unslang": false, "split_words": false, "stem": false, "remove_punctuations": false, "remove_numbers": false, "to_lower_case": false, "remove_stop_words": false, "remove_not_alpha": false, "join": false}, "words_reputation_filter": 0, "add_start_symbol": true, "train_percentage": 0.8, "vocabulary_len": 11024, "tweets_for_vocabulary_base": true, "shuffle_data": false}, "model": {"config": {"name": "sequential_1", "layers": [{"class_name": "Embedding", "config": {"name": "embedding_1", "trainable": true, "batch_input_shape": [null, 35], "dtype": "float32", "input_dim": 11024, "output_dim": 8, "embeddings_initializer": {"class_name": "RandomUniform", "config": {"minval": -0.05, "maxval": 0.05, "seed": null}}, "embeddings_regularizer": null, "activity_regularizer": null, "embeddings_constraint": null, "mask_zero": false, "input_length": 35}}, {"class_name": "Flatten", "config": {"name": "flatten_1", "trainable": true, "dtype": "float32", "data_format": "channels_last"}}, {"class_name": "Dense", "config": {"name": "dense_1", "trainable": true, "dtype": "float32", "units": 1, "activation": "sigmoid", "use_bias": true, "kernel_initializer": {"class_name": "VarianceScaling", "config": {"scale": 1.0, "mode": "fan_avg", "distribution": "uniform", "seed": null}}, "bias_initializer": {"class_name": "Zeros", "config": {}}, "kernel_regularizer": null, "bias_regularizer": null, "activity_regularizer": null, "kernel_constraint": null, "bias_constraint": null}}]}, "val_accuracy": [… "epochs": 50, "embedding_dim": 8, "input_len": 35, "batch_size": 512, "optimizer": "rmsprop"}}, "2020-04-08 17:50:08.216312": {"data": {"preprocess_options": {"remove_links": true, "remove_users": true, "remove_hash": false, "unslang": false, "split_words": false, "stem": false, "remove_punctuations": false, "remove_numbers": false, "to_lower_case": false, "remove_stop_words": false, "remove_not_alpha": false, "join": false}, "words_reputation_filter": 0, "add_start_symbol": true, "train_percentage": 0.8, "vocabulary_len": 11024, "tweets_for_vocabulary_base": true, "shuffle_data": false}, "model": {"config": {"name": "sequential_1", "layers": [{"class_name": "Embedding", "config": {"name": "embedding_1", "trainable": true, "batch_input_shape": [null, 35], "dtype": "float32", "input_dim": 11024, "output_dim": 16, "embeddings_initializer": {"class_name": "RandomUniform", "config": {"minval": -0.05, "maxval": 0.05, "seed": null}}, "embeddings_regularizer": null, "activity_regularizer": null, "embeddings_constraint": null, "mask_zero": false, "input_length": 35}}, {"class_name": "Flatten", "config": {"name": "flatten_1", "trainable": true, "dtype": "float32", "data_format": "channels_last"}}, {"class_name": "Dense", "config": {"name": "dense_1", "trainable": true, "dtype": "float32", "units": 1, "activation": "sigmoid", "use_bias": true, "kernel_initializer": {"class_name": "VarianceScaling", "config": {"scale": 1.0, "mode": "fan_avg", "distribution": "uniform", "seed": null}}, "bias_initializer": {"class_name": "Zeros", "config": {}}, "kernel_regularizer": null, "bias_regularizer": null, "activity_regularizer": null, "kernel_constraint": null, "bias_constraint": null}}]}, "val_accuracy": [… "epochs": 50, "embedding_dim": 16, "input_len": 35, "batch_size": 512, "optimizer": "rmsprop"}}, "2020-04-08 17:50:34.274481": {"data": {"preprocess_options": {"remove_links": true, "remove_users": true, "remove_hash": false, "unslang": false, "split_words": false, "stem": false, "remove_punctuations": false, "remove_numbers": false, "to_lower_case": false, "remove_stop_words": false, "remove_not_alpha": false, "join": false}, "words_reputation_filter": 0, "add_start_symbol": true, "train_percentage": 0.8, "vocabulary_len": 11024, "tweets_for_vocabulary_base": true, "shuffle_data": true}, "model": {"config": {"name": "sequential_1", "layers": [{"class_name": "Embedding", "config": {"name": "embedding_1", "trainable": true, "batch_input_shape": [null, 35], "dtype": "float32", "input_dim": 11024, "output_dim": 16, "embeddings_initializer": {"class_name": "RandomUniform", "config": {"minval": -0.05, "maxval": 0.05, "seed": null}}, "embeddings_regularizer": null, "activity_regularizer": null, "embeddings_constraint": null, "mask_zero": false, "input_length": 35}}, {"class_name": "Flatten", "config": {"name": "flatten_1", "trainable": true, "dtype": "float32", "data_format": "channels_last"}}, {"class_name": "Dense", "config": {"name": "dense_1", "trainable": true, "dtype": "float32", "units": 1, "activation": "sigmoid", "use_bias": true, "kernel_initializer": {"class_name": "VarianceScaling", "config": {"scale": 1.0, "mode": "fan_avg", "distribution": "uniform", "seed": null}}, "bias_initializer": {"class_name": "Zeros", "config": {}}, "kernel_regularizer": null, "bias_regularizer": null, "activity_regularizer": null, "kernel_constraint": null, "bias_constraint": null}}]}, "val_accuracy": [… "epochs": 50, "embedding_dim": 16, "input_len": 35, "batch_size": 512, "optimizer": "rmsprop"}}, "2020-04-08 17:50:56.948791": {"data": {"preprocess_options": {"remove_links": true, "remove_users": true, "remove_hash": false, "unslang": false, "split_words": false, "stem": false, "remove_punctuations": false, "remove_numbers": false, "to_lower_case": false, "remove_stop_words": false, "remove_not_alpha": false, "join": false}, "words_reputation_filter": 2, "add_start_symbol": true, "train_percentage": 0.8, "vocabulary_len": 4360, "tweets_for_vocabulary_base": true, "shuffle_data": true}, "model": {"config": {"name": "sequential_1", "layers": [{"class_name": "Embedding", "config": {"name": "embedding_1", "trainable": true, "batch_input_shape": [null, 30], "dtype": "float32", "input_dim": 4360, "output_dim": 16, "embeddings_initializer": {"class_name": "RandomUniform", "config": {"minval": -0.05, "maxval": 0.05, "seed": null}}, "embeddings_regularizer": null, "activity_regularizer": null, "embeddings_constraint": null, "mask_zero": false, "input_length": 30}}, {"class_name": "Flatten", "config": {"name": "flatten_1", "trainable": true, "dtype": "float32", "data_format": "channels_last"}}, {"class_name": "Dense", "config": {"name": "dense_1", "trainable": true, "dtype": "float32", "units": 1, "activation": "sigmoid", "use_bias": true, "kernel_initializer": {"class_name": "VarianceScaling", "config": {"scale": 1.0, "mode": "fan_avg", "distribution": "uniform", "seed": null}}, "bias_initializer": {"class_name": "Zeros", "config": {}}, "kernel_regularizer": null, "bias_regularizer": null, "activity_regularizer": null, "kernel_constraint": null, "bias_constraint": null}}]}, "val_accuracy": [… "epochs": 50, "embedding_dim": 16, "input_len": 30, "batch_size": 512, "optimizer": "rmsprop"}}, "2020-04-08 17:51:21.669343": {"data": {"preprocess_options": {"remove_links": true, "remove_users": true, "remove_hash": false, "unslang": false, "split_words": false, "stem": false, "remove_punctuations": false, "remove_numbers": false, "to_lower_case": false, "remove_stop_words": false, "remove_not_alpha": false, "join": false}, "words_reputation_filter": 2, "add_start_symbol": true, "train_percentage": 0.8, "vocabulary_len": 8125, "tweets_for_vocabulary_base": null, "shuffle_data": true}, "model": {"config": {"name": "sequential_1", "layers": [{"class_name": "Embedding", "config": {"name": "embedding_1", "trainable": true, "batch_input_shape": [null, 31], "dtype": "float32", "input_dim": 8125, "output_dim": 16, "embeddings_initializer": {"class_name": "RandomUniform", "config": {"minval": -0.05, "maxval": 0.05, "seed": null}}, "embeddings_regularizer": null, "activity_regularizer": null, "embeddings_constraint": null, "mask_zero": false, "input_length": 31}}, {"class_name": "Flatten", "config": {"name": "flatten_1", "trainable": true, "dtype": "float32", "data_format": "channels_last"}}, {"class_name": "Dense", "config": {"name": "dense_1", "trainable": true, "dtype": "float32", "units": 1, "activation": "sigmoid", "use_bias": true, "kernel_initializer": {"class_name": "VarianceScaling", "config": {"scale": 1.0, "mode": "fan_avg", "distribution": "uniform", "seed": null}}, "bias_initializer": {"class_name": "Zeros", "config": {}}, "kernel_regularizer": null, "bias_regularizer": null, "activity_regularizer": null, "kernel_constraint": null, "bias_constraint": null}}]}, "val_accuracy": [… "epochs": 50, "embedding_dim": 16, "input_len": 31, "batch_size": 512, "optimizer": "rmsprop"}}, "2020-04-08 17:52:07.416971": {"data": {"preprocess_options": {"remove_links": true, "remove_users": true, "remove_hash": false, "unslang": false, "split_words": false, "stem": false, "remove_punctuations": false, "remove_numbers": false, "to_lower_case": false, "remove_stop_words": false, "remove_not_alpha": false, "join": false}, "words_reputation_filter": 0, "add_start_symbol": true, "train_percentage": 0.8, "vocabulary_len": 20390, "tweets_for_vocabulary_base": null, "shuffle_data": true}, "model": {"config": {"name": "sequential_1", "layers": [{"class_name": "Embedding", "config": {"name": "embedding_1", "trainable": true, "batch_input_shape": [null, 35], "dtype": "float32", "input_dim": 20390, "output_dim": 16, "embeddings_initializer": {"class_name": "RandomUniform", "config": {"minval": -0.05, "maxval": 0.05, "seed": null}}, "embeddings_regularizer": null, "activity_regularizer": null, "embeddings_constraint": null, "mask_zero": false, "input_length": 35}}, {"class_name": "Flatten", "config": {"name": "flatten_1", "trainable": true, "dtype": "float32", "data_format": "channels_last"}}, {"class_name": "Dense", "config": {"name": "dense_1", "trainable": true, "dtype": "float32", "units": 1, "activation": "sigmoid", "use_bias": true, "kernel_initializer": {"class_name": "VarianceScaling", "config": {"scale": 1.0, "mode": "fan_avg", "distribution": "uniform", "seed": null}}, "bias_initializer": {"class_name": "Zeros", "config": {}}, "kernel_regularizer": null, "bias_regularizer": null, "activity_regularizer": null, "kernel_constraint": null, "bias_constraint": null}}]}, "val_accuracy": [… "epochs": 50, "embedding_dim": 16, "input_len": 35, "batch_size": 512, "optimizer": "rmsprop"}}, "2020-04-08 17:52:29.191958": {"data": {"preprocess_options": {"remove_links": true, "remove_users": true, "remove_hash": false, "unslang": true, "split_words": true, "stem": false, "remove_punctuations": false, "remove_numbers": false, "to_lower_case": false, "remove_stop_words": false, "remove_not_alpha": false, "join": false}, "words_reputation_filter": 0, "add_start_symbol": true, "train_percentage": 0.8, "vocabulary_len": 19608, "tweets_for_vocabulary_base": null, "shuffle_data": true}, "model": {"config": {"name": "sequential_1", "layers": [{"class_name": "Embedding", "config": {"name": "embedding_1", "trainable": true, "batch_input_shape": [null, 34], "dtype": "float32", "input_dim": 19608, "output_dim": 16, "embeddings_initializer": {"class_name": "RandomUniform", "config": {"minval": -0.05, "maxval": 0.05, "seed": null}}, "embeddings_regularizer": null, "activity_regularizer": null, "embeddings_constraint": null, "mask_zero": false, "input_length": 34}}, {"class_name": "Flatten", "config": {"name": "flatten_1", "trainable": true, "dtype": "float32", "data_format": "channels_last"}}, {"class_name": "Dense", "config": {"name": "dense_1", "trainable": true, "dtype": "float32", "units": 1, "activation": "sigmoid", "use_bias": true, "kernel_initializer": {"class_name": "VarianceScaling", "config": {"scale": 1.0, "mode": "fan_avg", "distribution": "uniform", "seed": null}}, "bias_initializer": {"class_name": "Zeros", "config": {}}, "kernel_regularizer": null, "bias_regularizer": null, "activity_regularizer": null, "kernel_constraint": null, "bias_constraint": null}}]}, "val_accuracy": [… "epochs": 50, "embedding_dim": 16, "input_len": 34, "batch_size": 512, "optimizer": "rmsprop"}}, "2020-04-08 17:52:59.227401": {"data": {"preprocess_options": {"remove_links": true, "remove_users": true, "remove_hash": false, "unslang": true, "split_words": true, "stem": false, "remove_punctuations": false, "remove_numbers": false, "to_lower_case": false, "remove_stop_words": false, "remove_not_alpha": false, "join": false}, "words_reputation_filter": 0, "add_start_symbol": true, "train_percentage": 0.8, "vocabulary_len": 19608, "tweets_for_vocabulary_base": null, "shuffle_data": false}, "model": {"config": {"name": "sequential_1", "layers": [{"class_name": "Embedding", "config": {"name": "embedding_1", "trainable": true, "batch_input_shape": [null, 34], "dtype": "float32", "input_dim": 19608, "output_dim": 16, "embeddings_initializer": {"class_name": "RandomUniform", "config": {"minval": -0.05, "maxval": 0.05, "seed": null}}, "embeddings_regularizer": null, "activity_regularizer": null, "embeddings_constraint": null, "mask_zero": false, "input_length": 34}}, {"class_name": "Flatten", "config": {"name": "flatten_1", "trainable": true, "dtype": "float32", "data_format": "channels_last"}}, {"class_name": "Dense", "config": {"name": "dense_1", "trainable": true, "dtype": "float32", "units": 1, "activation": "sigmoid", "use_bias": true, "kernel_initializer": {"class_name": "VarianceScaling", "config": {"scale": 1.0, "mode": "fan_avg", "distribution": "uniform", "seed": null}}, "bias_initializer": {"class_name": "Zeros", "config": {}}, "kernel_regularizer": null, "bias_regularizer": null, "activity_regularizer": null, "kernel_constraint": null, "bias_constraint": null}}]}, "val_accuracy": [… "epochs": 50, "embedding_dim": 16, "input_len": 34, "batch_size": 512, "optimizer": "rmsprop"}}, "2020-04-08 17:54:06.384301": {"data": {"preprocess_options": {"remove_links": true, "remove_users": true, "remove_hash": true, "unslang": true, "split_words": true, "stem": true, "remove_punctuations": true, "remove_numbers": true, "to_lower_case": true, "remove_stop_words": true, "remove_not_alpha": true, "join": false}, "words_reputation_filter": 0, "add_start_symbol": true, "train_percentage": 0.8, "vocabulary_len": 10866, "tweets_for_vocabulary_base": null, "shuffle_data": false}, "model": {"config": {"name": "sequential_1", "layers": [{"class_name": "Embedding", "config": {"name": "embedding_1", "trainable": true, "batch_input_shape": [null, 21], "dtype": "float32", "input_dim": 10866, "output_dim": 16, "embeddings_initializer": {"class_name": "RandomUniform", "config": {"minval": -0.05, "maxval": 0.05, "seed": null}}, "embeddings_regularizer": null, "activity_regularizer": null, "embeddings_constraint": null, "mask_zero": false, "input_length": 21}}, {"class_name": "Flatten", "config": {"name": "flatten_1", "trainable": true, "dtype": "float32", "data_format": "channels_last"}}, {"class_name": "Dense", "config": {"name": "dense_1", "trainable": true, "dtype": "float32", "units": 1, "activation": "sigmoid", "use_bias": true, "kernel_initializer": {"class_name": "VarianceScaling", "config": {"scale": 1.0, "mode": "fan_avg", "distribution": "uniform", "seed": null}}, "bias_initializer": {"class_name": "Zeros", "config": {}}, "kernel_regularizer": null, "bias_regularizer": null, "activity_regularizer": null, "kernel_constraint": null, "bias_constraint": null}}]}, "val_accuracy": [… "epochs": 50, "embedding_dim": 16, "input_len": 21, "batch_size": 512, "optimizer": "rmsprop"}}, "2020-04-08 17:54:27.766341": {"data": {"preprocess_options": {"remove_links": true, "remove_users": true, "remove_hash": true, "unslang": true, "split_words": true, "stem": true, "remove_punctuations": true, "remove_numbers": true, "to_lower_case": true, "remove_stop_words": true, "remove_not_alpha": true, "join": false}, "words_reputation_filter": 0, "add_start_symbol": false, "train_percentage": 0.8, "vocabulary_len": 10865, "tweets_for_vocabulary_base": null, "shuffle_data": false}, "model": {"config": {"name": "sequential_1", "layers": [{"class_name": "Embedding", "config": {"name": "embedding_1", "trainable": true, "batch_input_shape": [null, 21], "dtype": "float32", "input_dim": 10865, "output_dim": 16, "embeddings_initializer": {"class_name": "RandomUniform", "config": {"minval": -0.05, "maxval": 0.05, "seed": null}}, "embeddings_regularizer": null, "activity_regularizer": null, "embeddings_constraint": null, "mask_zero": false, "input_length": 21}}, {"class_name": "Flatten", "config": {"name": "flatten_1", "trainable": true, "dtype": "float32", "data_format": "channels_last"}}, {"class_name": "Dense", "config": {"name": "dense_1", "trainable": true, "dtype": "float32", "units": 1, "activation": "sigmoid", "use_bias": true, "kernel_initializer": {"class_name": "VarianceScaling", "config": {"scale": 1.0, "mode": "fan_avg", "distribution": "uniform", "seed": null}}, "bias_initializer": {"class_name": "Zeros", "config": {}}, "kernel_regularizer": null, "bias_regularizer": null, "activity_regularizer": null, "kernel_constraint": null, "bias_constraint": null}}]}, "val_accuracy": [… "epochs": 50, "embedding_dim": 16, "input_len": 21, "batch_size": 512, "optimizer": "rmsprop"}}, "2020-04-08 18:57:26.969251": {"data": {"preprocess_options": {"remove_links": true, "remove_users": true, "remove_hash": true, "unslang": true, "split_words": true, "stem": true, "remove_punctuations": true, "remove_numbers": true, "to_lower_case": true, "remove_stop_words": true, "remove_not_alpha": true, "join": false}, "words_reputation_filter": 0, "add_start_symbol": false, "train_percentage": 0.8, "vocabulary_len": 10865, "tweets_for_vocabulary_base": null, "shuffle_data": false}, "model": {"config": {"name": "sequential_1", "layers": [{"class_name": "Embedding", "config": {"name": "embedding_1", "trainable": true, "batch_input_shape": [null, 21], "dtype": "float32", "input_dim": 10865, "output_dim": 16, "embeddings_initializer": {"class_name": "RandomUniform", "config": {"minval": -0.05, "maxval": 0.05, "seed": null}}, "embeddings_regularizer": null, "activity_regularizer": null, "embeddings_constraint": null, "mask_zero": false, "input_length": 21}}, {"class_name": "Flatten", "config": {"name": "flatten_1", "trainable": true, "dtype": "float32", "data_format": "channels_last"}}, {"class_name": "Dense", "config": {"name": "dense_1", "trainable": true, "dtype": "float32", "units": 1, "activation": "sigmoid", "use_bias": true, "kernel_initializer": {"class_name": "VarianceScaling", "config": {"scale": 1.0, "mode": "fan_avg", "distribution": "uniform", "seed": null}}, "bias_initializer": {"class_name": "Zeros", "config": {}}, "kernel_regularizer": null, "bias_regularizer": null, "activity_regularizer": null, "kernel_constraint": null, "bias_constraint": null}}]}, "val_accuracy": [… "epochs": 50, "embedding_dim": 16, "input_len": 21, "batch_size": 512, "optimizer": "rmsprop"}}, "2020-04-08 19:42:23.156521": {"data": {"preprocess_options": {"remove_links": true, "remove_users": true, "remove_hash": false, "unslang": false, "split_words": true, "stem": false, "remove_punctuations": true, "remove_numbers": false, "to_lower_case": true, "remove_stop_words": true, "remove_not_alpha": false, "join": false}, "words_reputation_filter": 0, "add_start_symbol": true, "train_percentage": 0.8, "vocabulary_len": 15360, "tweets_for_vocabulary_base": null, "shuffle_data": false}, "model": {"config": {"name": "sequential_1", "layers": [{"class_name": "Embedding", "config": {"name": "embedding_1", "trainable": true, "batch_input_shape": [null, 25], "dtype": "float32", "input_dim": 15360, "output_dim": 16, "embeddings_initializer": {"class_name": "RandomUniform", "config": {"minval": -0.05, "maxval": 0.05, "seed": null}}, "embeddings_regularizer": null, "activity_regularizer": null, "embeddings_constraint": null, "mask_zero": false, "input_length": 25}}, {"class_name": "Flatten", "config": {"name": "flatten_1", "trainable": true, "dtype": "float32", "data_format": "channels_last"}}, {"class_name": "Dense", "config": {"name": "dense_1", "trainable": true, "dtype": "float32", "units": 1, "activation": "sigmoid", "use_bias": true, "kernel_initializer": {"class_name": "VarianceScaling", "config": {"scale": 1.0, "mode": "fan_avg", "distribution": "uniform", "seed": null}}, "bias_initializer": {"class_name": "Zeros", "config": {}}, "kernel_regularizer": null, "bias_regularizer": null, "activity_regularizer": null, "kernel_constraint": null, "bias_constraint": null}}]}, "val_accuracy": [… "epochs": 50, "embedding_dim": 16, "input_len": 25, "batch_size": 512, "optimizer": "rmsprop"}}, "2020-04-08 19:42:41.422493": {"data": {"preprocess_options": {"remove_links": true, "remove_users": true, "remove_hash": false, "unslang": false, "split_words": true, "stem": false, "remove_punctuations": true, "remove_numbers": false, "to_lower_case": true, "remove_stop_words": true, "remove_not_alpha": false, "join": false}, "words_reputation_filter": 0, "add_start_symbol": true, "train_percentage": 0.8, "vocabulary_len": 15360, "tweets_for_vocabulary_base": null, "shuffle_data": false}, "model": {"config": {"name": "sequential_1", "layers": [{"class_name": "Embedding", "config": {"name": "embedding_1", "trainable": true, "batch_input_shape": [null, 25], "dtype": "float32", "input_dim": 15360, "output_dim": 16, "embeddings_initializer": {"class_name": "RandomUniform", "config": {"minval": -0.05, "maxval": 0.05, "seed": null}}, "embeddings_regularizer": null, "activity_regularizer": null, "embeddings_constraint": null, "mask_zero": false, "input_length": 25}}, {"class_name": "Flatten", "config": {"name": "flatten_1", "trainable": true, "dtype": "float32", "data_format": "channels_last"}}, {"class_name": "Dense", "config": {"name": "dense_1", "trainable": true, "dtype": "float32", "units": 1, "activation": "sigmoid", "use_bias": true, "kernel_initializer": {"class_name": "VarianceScaling", "config": {"scale": 1.0, "mode": "fan_avg", "distribution": "uniform", "seed": null}}, "bias_initializer": {"class_name": "Zeros", "config": {}}, "kernel_regularizer": null, "bias_regularizer": null, "activity_regularizer": null, "kernel_constraint": null, "bias_constraint": null}}]}, "val_accuracy": [… "epochs": 50, "embedding_dim": 16, "input_len": 25, "batch_size": 512, "optimizer": "rmsprop"}}, "2020-04-08 19:43:49.871490": {"data": {"preprocess_options": {"remove_links": true, "remove_users": true, "remove_hash": false, "unslang": false, "split_words": true, "stem": false, "remove_punctuations": true, "remove_numbers": false, "to_lower_case": true, "remove_stop_words": true, "remove_not_alpha": false, "join": false}, "words_reputation_filter": 0, "add_start_symbol": true, "train_percentage": 0.8, "vocabulary_len": 15360, "tweets_for_vocabulary_base": null, "shuffle_data": false}, "model": {"config": {"name": "sequential_1", "layers": [{"class_name": "Embedding", "config": {"name": "embedding_1", "trainable": true, "batch_input_shape": [null, 25], "dtype": "float32", "input_dim": 15360, "output_dim": 16, "embeddings_initializer": {"class_name": "RandomUniform", "config": {"minval": -0.05, "maxval": 0.05, "seed": null}}, "embeddings_regularizer": null, "activity_regularizer": null, "embeddings_constraint": null, "mask_zero": false, "input_length": 25}}, {"class_name": "Bidirectional", "config": {"name": "bidirectional_1", "trainable": true, "dtype": "float32", "layer": {"class_name": "LSTM", "config": {"name": "lstm_1", "trainable": true, "dtype": "float32", "return_sequences": false, "return_state": false, "go_backwards": false, "stateful": false, "unroll": false, "units": 32, "activation": "tanh", "recurrent_activation": "sigmoid", "use_bias": true, "kernel_initializer": {"class_name": "VarianceScaling", "config": {"scale": 1.0, "mode": "fan_avg", "distribution": "uniform", "seed": null}}, "recurrent_initializer": {"class_name": "Orthogonal", "config": {"gain": 1.0, "seed": null}}, "bias_initializer": {"class_name": "Zeros", "config": {}}, "unit_forget_bias": true, "kernel_regularizer": null, "recurrent_regularizer": null, "bias_regularizer": null, "activity_regularizer": null, "kernel_constraint": null, "recurrent_constraint": null, "bias_constraint": null, "dropout": 0.0, "recurrent_dropout": 0.0, "implementation": 2}}, "merge_mode": "concat"}}, {"class_name": "Dense", "config": {"name": "dense_1", "trainable": true, "dtype": "float32", "units": 24, "activation": "relu", "use_bias": true, "kernel_initializer": {"class_name": "VarianceScaling", "config": {"scale": 1.0, "mode": "fan_avg", "distribution": "uniform", "seed": null}}, "bias_initializer": {"class_name": "Zeros", "config": {}}, "kernel_regularizer": null, "bias_regularizer": null, "activity_regularizer": null, "kernel_constraint": null, "bias_constraint": null}}, {"class_name": "Dense", "config": {"name": "dense_2", "trainable": true, "dtype": "float32", "units": 1, "activation": "sigmoid", "use_bias": true, "kernel_initializer": {"class_name": "VarianceScaling", "config": {"scale": 1.0, "mode": "fan_avg", "distribution": "uniform", "seed": null}}, "bias_initializer": {"class_name": "Zeros", "config": {}}, "kernel_regularizer": null, "bias_regularizer": null, "activity_regularizer": null, "kernel_constraint": null, "bias_constraint": null}}]}, "val_accuracy": [… "epochs": 50, "embedding_dim": 16, "input_len": 25, "batch_size": 512, "optimizer": "rmsprop"}}, "2020-04-08 19:44:23.667118": {"data": {"preprocess_options": {"remove_links": true, "remove_users": true, "remove_hash": false, "unslang": false, "split_words": true, "stem": false, "remove_punctuations": true, "remove_numbers": false, "to_lower_case": true, "remove_stop_words": true, "remove_not_alpha": false, "join": false}, "words_reputation_filter": 0, "add_start_symbol": true, "train_percentage": 0.8, "vocabulary_len": 8504, "tweets_for_vocabulary_base": true, "shuffle_data": true}, "model": {"config": {"name": "sequential_1", "layers": [{"class_name": "Embedding", "config": {"name": "embedding_1", "trainable": true, "batch_input_shape": [null, 23], "dtype": "float32", "input_dim": 8504, "output_dim": 8, "embeddings_initializer": {"class_name": "RandomUniform", "config": {"minval": -0.05, "maxval": 0.05, "seed": null}}, "embeddings_regularizer": null, "activity_regularizer": null, "embeddings_constraint": null, "mask_zero": false, "input_length": 23}}, {"class_name": "Bidirectional", "config": {"name": "bidirectional_1", "trainable": true, "dtype": "float32", "layer": {"class_name": "LSTM", "config": {"name": "lstm_1", "trainable": true, "dtype": "float32", "return_sequences": false, "return_state": false, "go_backwards": false, "stateful": false, "unroll": false, "units": 32, "activation": "tanh", "recurrent_activation": "sigmoid", "use_bias": true, "kernel_initializer": {"class_name": "VarianceScaling", "config": {"scale": 1.0, "mode": "fan_avg", "distribution": "uniform", "seed": null}}, "recurrent_initializer": {"class_name": "Orthogonal", "config": {"gain": 1.0, "seed": null}}, "bias_initializer": {"class_name": "Zeros", "config": {}}, "unit_forget_bias": true, "kernel_regularizer": null, "recurrent_regularizer": null, "bias_regularizer": null, "activity_regularizer": null, "kernel_constraint": null, "recurrent_constraint": null, "bias_constraint": null, "dropout": 0.0, "recurrent_dropout": 0.0, "implementation": 2}}, "merge_mode": "concat"}}, {"class_name": "Dense", "config": {"name": "dense_1", "trainable": true, "dtype": "float32", "units": 24, "activation": "relu", "use_bias": true, "kernel_initializer": {"class_name": "VarianceScaling", "config": {"scale": 1.0, "mode": "fan_avg", "distribution": "uniform", "seed": null}}, "bias_initializer": {"class_name": "Zeros", "config": {}}, "kernel_regularizer": null, "bias_regularizer": null, "activity_regularizer": null, "kernel_constraint": null, "bias_constraint": null}}, {"class_name": "Dense", "config": {"name": "dense_2", "trainable": true, "dtype": "float32", "units": 1, "activation": "sigmoid", "use_bias": true, "kernel_initializer": {"class_name": "VarianceScaling", "config": {"scale": 1.0, "mode": "fan_avg", "distribution": "uniform", "seed": null}}, "bias_initializer": {"class_name": "Zeros", "config": {}}, "kernel_regularizer": null, "bias_regularizer": null, "activity_regularizer": null, "kernel_constraint": null, "bias_constraint": null}}]}, "val_accuracy": [… "epochs": 20, "embedding_dim": 8, "input_len": 23, "batch_size": 512, "optimizer": "rmsprop"}}, "2020-04-08 19:45:11.258442": {"data": {"preprocess_options": {"remove_links": true, "remove_users": true, "remove_hash": false, "unslang": false, "split_words": true, "stem": false, "remove_punctuations": true, "remove_numbers": false, "to_lower_case": true, "remove_stop_words": true, "remove_not_alpha": false, "join": false}, "words_reputation_filter": 0, "add_start_symbol": true, "train_percentage": 0.8, "vocabulary_len": 8504, "tweets_for_vocabulary_base": true, "shuffle_data": true}, "model": {"config": {"name": "sequential_1", "layers": [{"class_name": "Embedding", "config": {"name": "embedding_1", "trainable": true, "batch_input_shape": [null, 23], "dtype": "float32", "input_dim": 8504, "output_dim": 8, "embeddings_initializer": {"class_name": "RandomUniform", "config": {"minval": -0.05, "maxval": 0.05, "seed": null}}, "embeddings_regularizer": null, "activity_regularizer": null, "embeddings_constraint": null, "mask_zero": false, "input_length": 23}}, {"class_name": "Bidirectional", "config": {"name": "bidirectional_1", "trainable": true, "dtype": "float32", "layer": {"class_name": "LSTM", "config": {"name": "lstm_1", "trainable": true, "dtype": "float32", "return_sequences": false, "return_state": false, "go_backwards": false, "stateful": false, "unroll": false, "units": 8, "activation": "tanh", "recurrent_activation": "sigmoid", "use_bias": true, "kernel_initializer": {"class_name": "VarianceScaling", "config": {"scale": 1.0, "mode": "fan_avg", "distribution": "uniform", "seed": null}}, "recurrent_initializer": {"class_name": "Orthogonal", "config": {"gain": 1.0, "seed": null}}, "bias_initializer": {"class_name": "Zeros", "config": {}}, "unit_forget_bias": true, "kernel_regularizer": null, "recurrent_regularizer": null, "bias_regularizer": null, "activity_regularizer": null, "kernel_constraint": null, "recurrent_constraint": null, "bias_constraint": null, "dropout": 0.0, "recurrent_dropout": 0.0, "implementation": 2}}, "merge_mode": "concat"}}, {"class_name": "Dense", "config": {"name": "dense_1", "trainable": true, "dtype": "float32", "units": 4, "activation": "relu", "use_bias": true, "kernel_initializer": {"class_name": "VarianceScaling", "config": {"scale": 1.0, "mode": "fan_avg", "distribution": "uniform", "seed": null}}, "bias_initializer": {"class_name": "Zeros", "config": {}}, "kernel_regularizer": null, "bias_regularizer": null, "activity_regularizer": null, "kernel_constraint": null, "bias_constraint": null}}, {"class_name": "Dense", "config": {"name": "dense_2", "trainable": true, "dtype": "float32", "units": 1, "activation": "sigmoid", "use_bias": true, "kernel_initializer": {"class_name": "VarianceScaling", "config": {"scale": 1.0, "mode": "fan_avg", "distribution": "uniform", "seed": null}}, "bias_initializer": {"class_name": "Zeros", "config": {}}, "kernel_regularizer": null, "bias_regularizer": null, "activity_regularizer": null, "kernel_constraint": null, "bias_constraint": null}}]}, "val_accuracy": [… "epochs": 20, "embedding_dim": 8, "input_len": 23, "batch_size": 512, "optimizer": "rmsprop"}}, "2020-04-08 19:45:32.180656": {"data": {"preprocess_options": {"remove_links": true, "remove_users": true, "remove_hash": false, "unslang": false, "split_words": true, "stem": false, "remove_punctuations": true, "remove_numbers": false, "to_lower_case": true, "remove_stop_words": true, "remove_not_alpha": false, "join": false}, "words_reputation_filter": 0, "add_start_symbol": true, "train_percentage": 0.8, "vocabulary_len": 8504, "tweets_for_vocabulary_base": true, "shuffle_data": true}, "model": {"config": {"name": "sequential_1", "layers": [{"class_name": "Embedding", "config": {"name": "embedding_1", "trainable": true, "batch_input_shape": [null, 23], "dtype": "float32", "input_dim": 8504, "output_dim": 16, "embeddings_initializer": {"class_name": "RandomUniform", "config": {"minval": -0.05, "maxval": 0.05, "seed": null}}, "embeddings_regularizer": null, "activity_regularizer": null, "embeddings_constraint": null, "mask_zero": false, "input_length": 23}}, {"class_name": "Bidirectional", "config": {"name": "bidirectional_1", "trainable": true, "dtype": "float32", "layer": {"class_name": "LSTM", "config": {"name": "lstm_1", "trainable": true, "dtype": "float32", "return_sequences": false, "return_state": false, "go_backwards": false, "stateful": false, "unroll": false, "units": 16, "activation": "tanh", "recurrent_activation": "sigmoid", "use_bias": true, "kernel_initializer": {"class_name": "VarianceScaling", "config": {"scale": 1.0, "mode": "fan_avg", "distribution": "uniform", "seed": null}}, "recurrent_initializer": {"class_name": "Orthogonal", "config": {"gain": 1.0, "seed": null}}, "bias_initializer": {"class_name": "Zeros", "config": {}}, "unit_forget_bias": true, "kernel_regularizer": null, "recurrent_regularizer": null, "bias_regularizer": null, "activity_regularizer": null, "kernel_constraint": null, "recurrent_constraint": null, "bias_constraint": null, "dropout": 0.0, "recurrent_dropout": 0.0, "implementation": 2}}, "merge_mode": "concat"}}, {"class_name": "Dense", "config": {"name": "dense_1", "trainable": true, "dtype": "float32", "units": 8, "activation": "relu", "use_bias": true, "kernel_initializer": {"class_name": "VarianceScaling", "config": {"scale": 1.0, "mode": "fan_avg", "distribution": "uniform", "seed": null}}, "bias_initializer": {"class_name": "Zeros", "config": {}}, "kernel_regularizer": null, "bias_regularizer": null, "activity_regularizer": null, "kernel_constraint": null, "bias_constraint": null}}, {"class_name": "Dense", "config": {"name": "dense_2", "trainable": true, "dtype": "float32", "units": 1, "activation": "sigmoid", "use_bias": true, "kernel_initializer": {"class_name": "VarianceScaling", "config": {"scale": 1.0, "mode": "fan_avg", "distribution": "uniform", "seed": null}}, "bias_initializer": {"class_name": "Zeros", "config": {}}, "kernel_regularizer": null, "bias_regularizer": null, "activity_regularizer": null, "kernel_constraint": null, "bias_constraint": null}}]}, "val_accuracy": [… "epochs": 20, "embedding_dim": 16, "input_len": 23, "batch_size": 512, "optimizer": "rmsprop"}}, "2020-04-08 19:46:23.363958": {"data": {"preprocess_options": {"remove_links": true, "remove_users": true, "remove_hash": true, "unslang": true, "split_words": true, "stem": true, "remove_punctuations": true, "remove_numbers": true, "to_lower_case": true, "remove_stop_words": true, "remove_not_alpha": true, "join": false}, "words_reputation_filter": 0, "add_start_symbol": true, "train_percentage": 0.8, "vocabulary_len": 6172, "tweets_for_vocabulary_base": true, "shuffle_data": true}, "model": {"config": {"name": "sequential_1", "layers": [{"class_name": "Embedding", "config": {"name": "embedding_1", "trainable": true, "batch_input_shape": [null, 20], "dtype": "float32", "input_dim": 6172, "output_dim": 16, "embeddings_initializer": {"class_name": "RandomUniform", "config": {"minval": -0.05, "maxval": 0.05, "seed": null}}, "embeddings_regularizer": null, "activity_regularizer": null, "embeddings_constraint": null, "mask_zero": false, "input_length": 20}}, {"class_name": "Bidirectional", "config": {"name": "bidirectional_1", "trainable": true, "dtype": "float32", "layer": {"class_name": "LSTM", "config": {"name": "lstm_1", "trainable": true, "dtype": "float32", "return_sequences": false, "return_state": false, "go_backwards": false, "stateful": false, "unroll": false, "units": 16, "activation": "tanh", "recurrent_activation": "sigmoid", "use_bias": true, "kernel_initializer": {"class_name": "VarianceScaling", "config": {"scale": 1.0, "mode": "fan_avg", "distribution": "uniform", "seed": null}}, "recurrent_initializer": {"class_name": "Orthogonal", "config": {"gain": 1.0, "seed": null}}, "bias_initializer": {"class_name": "Zeros", "config": {}}, "unit_forget_bias": true, "kernel_regularizer": null, "recurrent_regularizer": null, "bias_regularizer": null, "activity_regularizer": null, "kernel_constraint": null, "recurrent_constraint": null, "bias_constraint": null, "dropout": 0.0, "recurrent_dropout": 0.0, "implementation": 2}}, "merge_mode": "concat"}}, {"class_name": "Dense", "config": {"name": "dense_1", "trainable": true, "dtype": "float32", "units": 8, "activation": "relu", "use_bias": true, "kernel_initializer": {"class_name": "VarianceScaling", "config": {"scale": 1.0, "mode": "fan_avg", "distribution": "uniform", "seed": null}}, "bias_initializer": {"class_name": "Zeros", "config": {}}, "kernel_regularizer": null, "bias_regularizer": null, "activity_regularizer": null, "kernel_constraint": null, "bias_constraint": null}}, {"class_name": "Dense", "config": {"name": "dense_2", "trainable": true, "dtype": "float32", "units": 1, "activation": "sigmoid", "use_bias": true, "kernel_initializer": {"class_name": "VarianceScaling", "config": {"scale": 1.0, "mode": "fan_avg", "distribution": "uniform", "seed": null}}, "bias_initializer": {"class_name": "Zeros", "config": {}}, "kernel_regularizer": null, "bias_regularizer": null, "activity_regularizer": null, "kernel_constraint": null, "bias_constraint": null}}]}, "val_accuracy": [… "epochs": 20, "embedding_dim": 16, "input_len": 20, "batch_size": 512, "optimizer": "rmsprop"}}, "2020-04-08 19:47:15.786684": {"data": {"preprocess_options": {"remove_links": true, "remove_users": true, "remove_hash": true, "unslang": true, "split_words": true, "stem": true, "remove_punctuations": true, "remove_numbers": true, "to_lower_case": true, "remove_stop_words": true, "remove_not_alpha": true, "join": false}, "words_reputation_filter": 0, "add_start_symbol": true, "train_percentage": 0.8, "vocabulary_len": 6172, "tweets_for_vocabulary_base": true, "shuffle_data": true}, "model": {"config": {"name": "sequential_1", "layers": [{"class_name": "Embedding", "config": {"name": "embedding_1", "trainable": true, "batch_input_shape": [null, 20], "dtype": "float32", "input_dim": 6172, "output_dim": 16, "embeddings_initializer": {"class_name": "RandomUniform", "config": {"minval": -0.05, "maxval": 0.05, "seed": null}}, "embeddings_regularizer": null, "activity_regularizer": null, "embeddings_constraint": null, "mask_zero": false, "input_length": 20}}, {"class_name": "Conv1D", "config": {"name": "conv1d_1", "trainable": true, "dtype": "float32", "filters": 16, "kernel_size": [2], "strides": [1], "padding": "valid", "data_format": "channels_last", "dilation_rate": [1], "activation": "relu", "use_bias": true, "kernel_initializer": {"class_name": "VarianceScaling", "config": {"scale": 1.0, "mode": "fan_avg", "distribution": "uniform", "seed": null}}, "bias_initializer": {"class_name": "Zeros", "config": {}}, "kernel_regularizer": null, "bias_regularizer": null, "activity_regularizer": null, "kernel_constraint": null, "bias_constraint": null}}, {"class_name": "GlobalAveragePooling1D", "config": {"name": "global_average_pooling1d_1", "trainable": true, "dtype": "float32", "data_format": "channels_last"}}, {"class_name": "Dense", "config": {"name": "dense_1", "trainable": true, "dtype": "float32", "units": 8, "activation": "relu", "use_bias": true, "kernel_initializer": {"class_name": "VarianceScaling", "config": {"scale": 1.0, "mode": "fan_avg", "distribution": "uniform", "seed": null}}, "bias_initializer": {"class_name": "Zeros", "config": {}}, "kernel_regularizer": null, "bias_regularizer": null, "activity_regularizer": null, "kernel_constraint": null, "bias_constraint": null}}, {"class_name": "Dense", "config": {"name": "dense_2", "trainable": true, "dtype": "float32", "units": 1, "activation": "sigmoid", "use_bias": true, "kernel_initializer": {"class_name": "VarianceScaling", "config": {"scale": 1.0, "mode": "fan_avg", "distribution": "uniform", "seed": null}}, "bias_initializer": {"class_name": "Zeros", "config": {}}, "kernel_regularizer": null, "bias_regularizer": null, "activity_regularizer": null, "kernel_constraint": null, "bias_constraint": null}}]}, "val_accuracy": [… "epochs": 20, "embedding_dim": 16, "input_len": 20, "batch_size": 512, "optimizer": "rmsprop"}}, "2020-04-08 19:47:41.520987": {"data": {"preprocess_options": {"remove_links": true, "remove_users": true, "remove_hash": true, "unslang": true, "split_words": true, "stem": true, "remove_punctuations": true, "remove_numbers": true, "to_lower_case": true, "remove_stop_words": true, "remove_not_alpha": true, "join": false}, "words_reputation_filter": 0, "add_start_symbol": true, "train_percentage": 0.8, "vocabulary_len": 6172, "tweets_for_vocabulary_base": true, "shuffle_data": true}, "model": {"config": {"name": "sequential_1", "layers": [{"class_name": "Embedding", "config": {"name": "embedding_1", "trainable": true, "batch_input_shape": [null, 20], "dtype": "float32", "input_dim": 6172, "output_dim": 16, "embeddings_initializer": {"class_name": "RandomUniform", "config": {"minval": -0.05, "maxval": 0.05, "seed": null}}, "embeddings_regularizer": null, "activity_regularizer": null, "embeddings_constraint": null, "mask_zero": false, "input_length": 20}}, {"class_name": "Conv1D", "config": {"name": "conv1d_1", "trainable": true, "dtype": "float32", "filters": 16, "kernel_size": [2], "strides": [1], "padding": "valid", "data_format": "channels_last", "dilation_rate": [1], "activation": "relu", "use_bias": true, "kernel_initializer": {"class_name": "VarianceScaling", "config": {"scale": 1.0, "mode": "fan_avg", "distribution": "uniform", "seed": null}}, "bias_initializer": {"class_name": "Zeros", "config": {}}, "kernel_regularizer": null, "bias_regularizer": null, "activity_regularizer": null, "kernel_constraint": null, "bias_constraint": null}}, {"class_name": "GlobalAveragePooling1D", "config": {"name": "global_average_pooling1d_1", "trainable": true, "dtype": "float32", "data_format": "channels_last"}}, {"class_name": "Dense", "config": {"name": "dense_1", "trainable": true, "dtype": "float32", "units": 8, "activation": "relu", "use_bias": true, "kernel_initializer": {"class_name": "VarianceScaling", "config": {"scale": 1.0, "mode": "fan_avg", "distribution": "uniform", "seed": null}}, "bias_initializer": {"class_name": "Zeros", "config": {}}, "kernel_regularizer": null, "bias_regularizer": null, "activity_regularizer": null, "kernel_constraint": null, "bias_constraint": null}}, {"class_name": "Dense", "config": {"name": "dense_2", "trainable": true, "dtype": "float32", "units": 1, "activation": "sigmoid", "use_bias": true, "kernel_initializer": {"class_name": "VarianceScaling", "config": {"scale": 1.0, "mode": "fan_avg", "distribution": "uniform", "seed": null}}, "bias_initializer": {"class_name": "Zeros", "config": {}}, "kernel_regularizer": null, "bias_regularizer": null, "activity_regularizer": null, "kernel_constraint": null, "bias_constraint": null}}]}, "val_accuracy": [… "epochs": 50, "embedding_dim": 16, "input_len": 20, "batch_size": 512, "optimizer": "rmsprop"}}, "2020-04-08 19:48:22.667506": {"data": {"preprocess_options": {"remove_links": true, "remove_users": true, "remove_hash": true, "unslang": true, "split_words": true, "stem": true, "remove_punctuations": true, "remove_numbers": true, "to_lower_case": true, "remove_stop_words": true, "remove_not_alpha": true, "join": false}, "words_reputation_filter": 0, "add_start_symbol": true, "train_percentage": 0.8, "vocabulary_len": 6172, "tweets_for_vocabulary_base": true, "shuffle_data": true}, "model": {"config": {"name": "sequential_1", "layers": [{"class_name": "Embedding", "config": {"name": "embedding_1", "trainable": true, "batch_input_shape": [null, 20], "dtype": "float32", "input_dim": 6172, "output_dim": 16, "embeddings_initializer": {"class_name": "RandomUniform", "config": {"minval": -0.05, "maxval": 0.05, "seed": null}}, "embeddings_regularizer": null, "activity_regularizer": null, "embeddings_constraint": null, "mask_zero": false, "input_length": 20}}, {"class_name": "GlobalAveragePooling1D", "config": {"name": "global_average_pooling1d_1", "trainable": true, "dtype": "float32", "data_format": "channels_last"}}, {"class_name": "Dense", "config": {"name": "dense_1", "trainable": true, "dtype": "float32", "units": 8, "activation": "relu", "use_bias": true, "kernel_initializer": {"class_name": "VarianceScaling", "config": {"scale": 1.0, "mode": "fan_avg", "distribution": "uniform", "seed": null}}, "bias_initializer": {"class_name": "Zeros", "config": {}}, "kernel_regularizer": null, "bias_regularizer": null, "activity_regularizer": null, "kernel_constraint": null, "bias_constraint": null}}, {"class_name": "Dense", "config": {"name": "dense_2", "trainable": true, "dtype": "float32", "units": 1, "activation": "sigmoid", "use_bias": true, "kernel_initializer": {"class_name": "VarianceScaling", "config": {"scale": 1.0, "mode": "fan_avg", "distribution": "uniform", "seed": null}}, "bias_initializer": {"class_name": "Zeros", "config": {}}, "kernel_regularizer": null, "bias_regularizer": null, "activity_regularizer": null, "kernel_constraint": null, "bias_constraint": null}}]}, "val_accuracy": [… "epochs": 30, "embedding_dim": 16, "input_len": 20, "batch_size": 512, "optimizer": "rmsprop"}}, "2020-04-08 19:48:48.860751": {"data": {"preprocess_options": {"remove_links": true, "remove_users": true, "remove_hash": true, "unslang": true, "split_words": true, "stem": true, "remove_punctuations": true, "remove_numbers": true, "to_lower_case": true, "remove_stop_words": true, "remove_not_alpha": true, "join": false}, "words_reputation_filter": 0, "add_start_symbol": true, "train_percentage": 0.8, "vocabulary_len": 10866, "tweets_for_vocabulary_base": null, "shuffle_data": true}, "model": {"config": {"name": "sequential_1", "layers": [{"class_name": "Embedding", "config": {"name": "embedding_1", "trainable": true, "batch_input_shape": [null, 21], "dtype": "float32", "input_dim": 10866, "output_dim": 16, "embeddings_initializer": {"class_name": "RandomUniform", "config": {"minval": -0.05, "maxval": 0.05, "seed": null}}, "embeddings_regularizer": null, "activity_regularizer": null, "embeddings_constraint": null, "mask_zero": false, "input_length": 21}}, {"class_name": "GlobalAveragePooling1D", "config": {"name": "global_average_pooling1d_1", "trainable": true, "dtype": "float32", "data_format": "channels_last"}}, {"class_name": "Dense", "config": {"name": "dense_1", "trainable": true, "dtype": "float32", "units": 8, "activation": "relu", "use_bias": true, "kernel_initializer": {"class_name": "VarianceScaling", "config": {"scale": 1.0, "mode": "fan_avg", "distribution": "uniform", "seed": null}}, "bias_initializer": {"class_name": "Zeros", "config": {}}, "kernel_regularizer": null, "bias_regularizer": null, "activity_regularizer": null, "kernel_constraint": null, "bias_constraint": null}}, {"class_name": "Dense", "config": {"name": "dense_2", "trainable": true, "dtype": "float32", "units": 1, "activation": "sigmoid", "use_bias": true, "kernel_initializer": {"class_name": "VarianceScaling", "config": {"scale": 1.0, "mode": "fan_avg", "distribution": "uniform", "seed": null}}, "bias_initializer": {"class_name": "Zeros", "config": {}}, "kernel_regularizer": null, "bias_regularizer": null, "activity_regularizer": null, "kernel_constraint": null, "bias_constraint": null}}]}, "val_accuracy": [… "epochs": 50, "embedding_dim": 16, "input_len": 21, "batch_size": 512, "optimizer": "rmsprop"}}, "2020-04-08 19:49:39.034771": {"data": {"preprocess_options": {"remove_links": true, "remove_users": true, "remove_hash": true, "unslang": true, "split_words": true, "stem": true, "remove_punctuations": true, "remove_numbers": true, "to_lower_case": true, "remove_stop_words": true, "remove_not_alpha": true, "join": false}, "words_reputation_filter": 0, "add_start_symbol": true, "train_percentage": 0.8, "vocabulary_len": 10866, "tweets_for_vocabulary_base": null, "shuffle_data": true}, "model": {"config": {"name": "sequential_1", "layers": [{"class_name": "Embedding", "config": {"name": "embedding_1", "trainable": true, "batch_input_shape": [null, 21], "dtype": "float32", "input_dim": 10866, "output_dim": 128, "embeddings_initializer": {"class_name": "RandomUniform", "config": {"minval": -0.05, "maxval": 0.05, "seed": null}}, "embeddings_regularizer": null, "activity_regularizer": null, "embeddings_constraint": null, "mask_zero": false, "input_length": 21}}, {"class_name": "GlobalAveragePooling1D", "config": {"name": "global_average_pooling1d_1", "trainable": true, "dtype": "float32", "data_format": "channels_last"}}, {"class_name": "Dense", "config": {"name": "dense_1", "trainable": true, "dtype": "float32", "units": 64, "activation": "relu", "use_bias": true, "kernel_initializer": {"class_name": "VarianceScaling", "config": {"scale": 1.0, "mode": "fan_avg", "distribution": "uniform", "seed": null}}, "bias_initializer": {"class_name": "Zeros", "config": {}}, "kernel_regularizer": null, "bias_regularizer": null, "activity_regularizer": null, "kernel_constraint": null, "bias_constraint": null}}, {"class_name": "Dense", "config": {"name": "dense_2", "trainable": true, "dtype": "float32", "units": 1, "activation": "sigmoid", "use_bias": true, "kernel_initializer": {"class_name": "VarianceScaling", "config": {"scale": 1.0, "mode": "fan_avg", "distribution": "uniform", "seed": null}}, "bias_initializer": {"class_name": "Zeros", "config": {}}, "kernel_regularizer": null, "bias_regularizer": null, "activity_regularizer": null, "kernel_constraint": null, "bias_constraint": null}}]}, "val_accuracy": [… "epochs": 50, "embedding_dim": 128, "input_len": 21, "batch_size": 512, "optimizer": "rmsprop"}}, "2020-04-08 19:50:19.402251": {"data": {"preprocess_options": {"remove_links": true, "remove_users": true, "remove_hash": false, "unslang": false, "split_words": true, "stem": false, "remove_punctuations": true, "remove_numbers": false, "to_lower_case": true, "remove_stop_words": true, "remove_not_alpha": false, "join": false}, "words_reputation_filter": 0, "add_start_symbol": true, "train_percentage": 0.8, "vocabulary_len": 15360, "tweets_for_vocabulary_base": null, "shuffle_data": true}, "model": {"config": {"name": "sequential_1", "layers": [{"class_name": "Embedding", "config": {"name": "embedding_1", "trainable": true, "batch_input_shape": [null, 25], "dtype": "float32", "input_dim": 15360, "output_dim": 128, "embeddings_initializer": {"class_name": "RandomUniform", "config": {"minval": -0.05, "maxval": 0.05, "seed": null}}, "embeddings_regularizer": null, "activity_regularizer": null, "embeddings_constraint": null, "mask_zero": false, "input_length": 25}}, {"class_name": "GlobalAveragePooling1D", "config": {"name": "global_average_pooling1d_1", "trainable": true, "dtype": "float32", "data_format": "channels_last"}}, {"class_name": "Dense", "config": {"name": "dense_1", "trainable": true, "dtype": "float32", "units": 64, "activation": "relu", "use_bias": true, "kernel_initializer": {"class_name": "VarianceScaling", "config": {"scale": 1.0, "mode": "fan_avg", "distribution": "uniform", "seed": null}}, "bias_initializer": {"class_name": "Zeros", "config": {}}, "kernel_regularizer": null, "bias_regularizer": null, "activity_regularizer": null, "kernel_constraint": null, "bias_constraint": null}}, {"class_name": "Dense", "config": {"name": "dense_2", "trainable": true, "dtype": "float32", "units": 1, "activation": "sigmoid", "use_bias": true, "kernel_initializer": {"class_name": "VarianceScaling", "config": {"scale": 1.0, "mode": "fan_avg", "distribution": "uniform", "seed": null}}, "bias_initializer": {"class_name": "Zeros", "config": {}}, "kernel_regularizer": null, "bias_regularizer": null, "activity_regularizer": null, "kernel_constraint": null, "bias_constraint": null}}]}, "val_accuracy": [… "epochs": 30, "embedding_dim": 128, "input_len": 25, "batch_size": 512, "optimizer": "rmsprop"}}, "2020-04-08 19:50:43.220676": {"data": {"preprocess_options": {"remove_links": true, "remove_users": true, "remove_hash": false, "unslang": false, "split_words": true, "stem": false, "remove_punctuations": true, "remove_numbers": false, "to_lower_case": true, "remove_stop_words": true, "remove_not_alpha": false, "join": false}, "words_reputation_filter": 0, "add_start_symbol": true, "train_percentage": 0.8, "vocabulary_len": 8504, "tweets_for_vocabulary_base": true, "shuffle_data": true}, "model": {"config": {"name": "sequential_1", "layers": [{"class_name": "Embedding", "config": {"name": "embedding_1", "trainable": true, "batch_input_shape": [null, 23], "dtype": "float32", "input_dim": 8504, "output_dim": 128, "embeddings_initializer": {"class_name": "RandomUniform", "config": {"minval": -0.05, "maxval": 0.05, "seed": null}}, "embeddings_regularizer": null, "activity_regularizer": null, "embeddings_constraint": null, "mask_zero": false, "input_length": 23}}, {"class_name": "GlobalAveragePooling1D", "config": {"name": "global_average_pooling1d_1", "trainable": true, "dtype": "float32", "data_format": "channels_last"}}, {"class_name": "Dense", "config": {"name": "dense_1", "trainable": true, "dtype": "float32", "units": 64, "activation": "relu", "use_bias": true, "kernel_initializer": {"class_name": "VarianceScaling", "config": {"scale": 1.0, "mode": "fan_avg", "distribution": "uniform", "seed": null}}, "bias_initializer": {"class_name": "Zeros", "config": {}}, "kernel_regularizer": null, "bias_regularizer": null, "activity_regularizer": null, "kernel_constraint": null, "bias_constraint": null}}, {"class_name": "Dense", "config": {"name": "dense_2", "trainable": true, "dtype": "float32", "units": 1, "activation": "sigmoid", "use_bias": true, "kernel_initializer": {"class_name": "VarianceScaling", "config": {"scale": 1.0, "mode": "fan_avg", "distribution": "uniform", "seed": null}}, "bias_initializer": {"class_name": "Zeros", "config": {}}, "kernel_regularizer": null, "bias_regularizer": null, "activity_regularizer": null, "kernel_constraint": null, "bias_constraint": null}}]}, "val_accuracy": [… "epochs": 30, "embedding_dim": 128, "input_len": 23, "batch_size": 512, "optimizer": "rmsprop"}}, "2020-04-08 19:51:19.254454": {"data": {"preprocess_options": {"remove_links": true, "remove_users": true, "remove_hash": false, "unslang": true, "split_words": true, "stem": true, "remove_punctuations": true, "remove_numbers": false, "to_lower_case": true, "remove_stop_words": true, "remove_not_alpha": false, "join": false}, "words_reputation_filter": 0, "add_start_symbol": true, "train_percentage": 0.8, "vocabulary_len": 12355, "tweets_for_vocabulary_base": null, "shuffle_data": true}, "model": {"config": {"name": "sequential_1", "layers": [{"class_name": "Embedding", "config": {"name": "embedding_1", "trainable": true, "batch_input_shape": [null, 25], "dtype": "float32", "input_dim": 12355, "output_dim": 128, "embeddings_initializer": {"class_name": "RandomUniform", "config": {"minval": -0.05, "maxval": 0.05, "seed": null}}, "embeddings_regularizer": null, "activity_regularizer": null, "embeddings_constraint": null, "mask_zero": false, "input_length": 25}}, {"class_name": "GlobalAveragePooling1D", "config": {"name": "global_average_pooling1d_1", "trainable": true, "dtype": "float32", "data_format": "channels_last"}}, {"class_name": "Dense", "config": {"name": "dense_1", "trainable": true, "dtype": "float32", "units": 64, "activation": "relu", "use_bias": true, "kernel_initializer": {"class_name": "VarianceScaling", "config": {"scale": 1.0, "mode": "fan_avg", "distribution": "uniform", "seed": null}}, "bias_initializer": {"class_name": "Zeros", "config": {}}, "kernel_regularizer": null, "bias_regularizer": null, "activity_regularizer": null, "kernel_constraint": null, "bias_constraint": null}}, {"class_name": "Dense", "config": {"name": "dense_2", "trainable": true, "dtype": "float32", "units": 1, "activation": "sigmoid", "use_bias": true, "kernel_initializer": {"class_name": "VarianceScaling", "config": {"scale": 1.0, "mode": "fan_avg", "distribution": "uniform", "seed": null}}, "bias_initializer": {"class_name": "Zeros", "config": {}}, "kernel_regularizer": null, "bias_regularizer": null, "activity_regularizer": null, "kernel_constraint": null, "bias_constraint": null}}]}, "val_accuracy": [… "epochs": 30, "embedding_dim": 128, "input_len": 25, "batch_size": 512, "optimizer": "rmsprop"}}, "2020-04-08 19:51:43.761444": {"data": {"preprocess_options": {"remove_links": true, "remove_users": true, "remove_hash": false, "unslang": true, "split_words": true, "stem": true, "remove_punctuations": true, "remove_numbers": true, "to_lower_case": true, "remove_stop_words": true, "remove_not_alpha": false, "join": false}, "words_reputation_filter": 0, "add_start_symbol": true, "train_percentage": 0.8, "vocabulary_len": 12012, "tweets_for_vocabulary_base": null, "shuffle_data": true}, "model": {"config": {"name": "sequential_1", "layers": [{"class_name": "Embedding", "config": {"name": "embedding_1", "trainable": true, "batch_input_shape": [null, 21], "dtype": "float32", "input_dim": 12012, "output_dim": 128, "embeddings_initializer": {"class_name": "RandomUniform", "config": {"minval": -0.05, "maxval": 0.05, "seed": null}}, "embeddings_regularizer": null, "activity_regularizer": null, "embeddings_constraint": null, "mask_zero": false, "input_length": 21}}, {"class_name": "GlobalAveragePooling1D", "config": {"name": "global_average_pooling1d_1", "trainable": true, "dtype": "float32", "data_format": "channels_last"}}, {"class_name": "Dense", "config": {"name": "dense_1", "trainable": true, "dtype": "float32", "units": 64, "activation": "relu", "use_bias": true, "kernel_initializer": {"class_name": "VarianceScaling", "config": {"scale": 1.0, "mode": "fan_avg", "distribution": "uniform", "seed": null}}, "bias_initializer": {"class_name": "Zeros", "config": {}}, "kernel_regularizer": null, "bias_regularizer": null, "activity_regularizer": null, "kernel_constraint": null, "bias_constraint": null}}, {"class_name": "Dense", "config": {"name": "dense_2", "trainable": true, "dtype": "float32", "units": 1, "activation": "sigmoid", "use_bias": true, "kernel_initializer": {"class_name": "VarianceScaling", "config": {"scale": 1.0, "mode": "fan_avg", "distribution": "uniform", "seed": null}}, "bias_initializer": {"class_name": "Zeros", "config": {}}, "kernel_regularizer": null, "bias_regularizer": null, "activity_regularizer": null, "kernel_constraint": null, "bias_constraint": null}}]}, "val_accuracy": [… "epochs": 20, "embedding_dim": 128, "input_len": 21, "batch_size": 512, "optimizer": "rmsprop"}}, "2020-04-08 19:52:29.323806": {"data": {"preprocess_options": {"remove_links": true, "remove_users": true, "remove_hash": false, "unslang": true, "split_words": true, "stem": true, "remove_punctuations": true, "remove_numbers": true, "to_lower_case": true, "remove_stop_words": true, "remove_not_alpha": true, "join": false}, "words_reputation_filter": 0, "add_start_symbol": true, "train_percentage": 0.8, "vocabulary_len": 11696, "tweets_for_vocabulary_base": null, "shuffle_data": true}, "model": {"config": {"name": "sequential_1", "layers": [{"class_name": "Embedding", "config": {"name": "embedding_1", "trainable": true, "batch_input_shape": [null, 21], "dtype": "float32", "input_dim": 11696, "output_dim": 128, "embeddings_initializer": {"class_name": "RandomUniform", "config": {"minval": -0.05, "maxval": 0.05, "seed": null}}, "embeddings_regularizer": null, "activity_regularizer": null, "embeddings_constraint": null, "mask_zero": false, "input_length": 21}}, {"class_name": "GlobalAveragePooling1D", "config": {"name": "global_average_pooling1d_1", "trainable": true, "dtype": "float32", "data_format": "channels_last"}}, {"class_name": "Dense", "config": {"name": "dense_1", "trainable": true, "dtype": "float32", "units": 64, "activation": "relu", "use_bias": true, "kernel_initializer": {"class_name": "VarianceScaling", "config": {"scale": 1.0, "mode": "fan_avg", "distribution": "uniform", "seed": null}}, "bias_initializer": {"class_name": "Zeros", "config": {}}, "kernel_regularizer": null, "bias_regularizer": null, "activity_regularizer": null, "kernel_constraint": null, "bias_constraint": null}}, {"class_name": "Dense", "config": {"name": "dense_2", "trainable": true, "dtype": "float32", "units": 1, "activation": "sigmoid", "use_bias": true, "kernel_initializer": {"class_name": "VarianceScaling", "config": {"scale": 1.0, "mode": "fan_avg", "distribution": "uniform", "seed": null}}, "bias_initializer": {"class_name": "Zeros", "config": {}}, "kernel_regularizer": null, "bias_regularizer": null, "activity_regularizer": null, "kernel_constraint": null, "bias_constraint": null}}]}, "val_accuracy": [… "epochs": 20, "embedding_dim": 128, "input_len": 21, "batch_size": 512, "optimizer": "rmsprop"}}, "2020-04-08 19:53:13.333028": {"data": {"preprocess_options": {"remove_links": true, "remove_users": true, "remove_hash": false, "unslang": true, "split_words": true, "stem": true, "remove_punctuations": true, "remove_numbers": true, "to_lower_case": true, "remove_stop_words": true, "remove_not_alpha": true, "join": false}, "words_reputation_filter": 0, "add_start_symbol": true, "train_percentage": 0.7, "vocabulary_len": 11696, "tweets_for_vocabulary_base": null, "shuffle_data": true}, "model": {"config": {"name": "sequential_1", "layers": [{"class_name": "Embedding", "config": {"name": "embedding_1", "trainable": true, "batch_input_shape": [null, 21], "dtype": "float32", "input_dim": 11696, "output_dim": 128, "embeddings_initializer": {"class_name": "RandomUniform", "config": {"minval": -0.05, "maxval": 0.05, "seed": null}}, "embeddings_regularizer": null, "activity_regularizer": null, "embeddings_constraint": null, "mask_zero": false, "input_length": 21}}, {"class_name": "GlobalAveragePooling1D", "config": {"name": "global_average_pooling1d_1", "trainable": true, "dtype": "float32", "data_format": "channels_last"}}, {"class_name": "Dense", "config": {"name": "dense_1", "trainable": true, "dtype": "float32", "units": 64, "activation": "relu", "use_bias": true, "kernel_initializer": {"class_name": "VarianceScaling", "config": {"scale": 1.0, "mode": "fan_avg", "distribution": "uniform", "seed": null}}, "bias_initializer": {"class_name": "Zeros", "config": {}}, "kernel_regularizer": null, "bias_regularizer": null, "activity_regularizer": null, "kernel_constraint": null, "bias_constraint": null}}, {"class_name": "Dense", "config": {"name": "dense_2", "trainable": true, "dtype": "float32", "units": 1, "activation": "sigmoid", "use_bias": true, "kernel_initializer": {"class_name": "VarianceScaling", "config": {"scale": 1.0, "mode": "fan_avg", "distribution": "uniform", "seed": null}}, "bias_initializer": {"class_name": "Zeros", "config": {}}, "kernel_regularizer": null, "bias_regularizer": null, "activity_regularizer": null, "kernel_constraint": null, "bias_constraint": null}}]}, "val_accuracy": [… "epochs": 20, "embedding_dim": 128, "input_len": 21, "batch_size": 512, "optimizer": "rmsprop"}}, "2020-04-08 19:53:46.759314": {"data": {"preprocess_options": {"remove_links": true, "remove_users": true, "remove_hash": false, "unslang": false, "split_words": true, "stem": false, "remove_punctuations": true, "remove_numbers": false, "to_lower_case": true, "remove_stop_words": true, "remove_not_alpha": false, "join": false}, "words_reputation_filter": 0, "add_start_symbol": true, "train_percentage": 0.7, "vocabulary_len": 15360, "tweets_for_vocabulary_base": null, "shuffle_data": true}, "model": {"config": {"name": "sequential_1", "layers": [{"class_name": "Embedding", "config": {"name": "embedding_1", "trainable": true, "batch_input_shape": [null, 25], "dtype": "float32", "input_dim": 15360, "output_dim": 128, "embeddings_initializer": {"class_name": "RandomUniform", "config": {"minval": -0.05, "maxval": 0.05, "seed": null}}, "embeddings_regularizer": null, "activity_regularizer": null, "embeddings_constraint": null, "mask_zero": false, "input_length": 25}}, {"class_name": "GlobalAveragePooling1D", "config": {"name": "global_average_pooling1d_1", "trainable": true, "dtype": "float32", "data_format": "channels_last"}}, {"class_name": "Dense", "config": {"name": "dense_1", "trainable": true, "dtype": "float32", "units": 64, "activation": "relu", "use_bias": true, "kernel_initializer": {"class_name": "VarianceScaling", "config": {"scale": 1.0, "mode": "fan_avg", "distribution": "uniform", "seed": null}}, "bias_initializer": {"class_name": "Zeros", "config": {}}, "kernel_regularizer": null, "bias_regularizer": null, "activity_regularizer": null, "kernel_constraint": null, "bias_constraint": null}}, {"class_name": "Dense", "config": {"name": "dense_2", "trainable": true, "dtype": "float32", "units": 1, "activation": "sigmoid", "use_bias": true, "kernel_initializer": {"class_name": "VarianceScaling", "config": {"scale": 1.0, "mode": "fan_avg", "distribution": "uniform", "seed": null}}, "bias_initializer": {"class_name": "Zeros", "config": {}}, "kernel_regularizer": null, "bias_regularizer": null, "activity_regularizer": null, "kernel_constraint": null, "bias_constraint": null}}]}, "val_accuracy": [… "epochs": 20, "embedding_dim": 128, "input_len": 25, "batch_size": 512, "optimizer": "rmsprop"}}, "2020-04-08 19:55:18.534104": {"data": {"preprocess_options": {"remove_links": true, "remove_users": true, "remove_hash": false, "unslang": false, "split_words": true, "stem": false, "remove_punctuations": true, "remove_numbers": false, "to_lower_case": true, "remove_stop_words": true, "remove_not_alpha": false, "join": false}, "words_reputation_filter": 0, "add_start_symbol": true, "train_percentage": 0.7, "vocabulary_len": 15360, "tweets_for_vocabulary_base": null, "shuffle_data": true}, "model": {"config": {"name": "sequential_1", "layers": [{"class_name": "Embedding", "config": {"name": "embedding_1", "trainable": true, "batch_input_shape": [null, 25], "dtype": "float32", "input_dim": 15360, "output_dim": 16, "embeddings_initializer": {"class_name": "RandomUniform", "config": {"minval": -0.05, "maxval": 0.05, "seed": null}}, "embeddings_regularizer": null, "activity_regularizer": null, "embeddings_constraint": null, "mask_zero": false, "input_length": 25}}, {"class_name": "Bidirectional", "config": {"name": "bidirectional_1", "trainable": true, "dtype": "float32", "layer": {"class_name": "LSTM", "config": {"name": "lstm_1", "trainable": true, "dtype": "float32", "return_sequences": true, "return_state": false, "go_backwards": false, "stateful": false, "unroll": false, "units": 16, "activation": "tanh", "recurrent_activation": "sigmoid", "use_bias": true, "kernel_initializer": {"class_name": "VarianceScaling", "config": {"scale": 1.0, "mode": "fan_avg", "distribution": "uniform", "seed": null}}, "recurrent_initializer": {"class_name": "Orthogonal", "config": {"gain": 1.0, "seed": null}}, "bias_initializer": {"class_name": "Zeros", "config": {}}, "unit_forget_bias": true, "kernel_regularizer": null, "recurrent_regularizer": null, "bias_regularizer": null, "activity_regularizer": null, "kernel_constraint": null, "recurrent_constraint": null, "bias_constraint": null, "dropout": 0.0, "recurrent_dropout": 0.0, "implementation": 2}}, "merge_mode": "concat"}}, {"class_name": "Bidirectional", "config": {"name": "bidirectional_2", "trainable": true, "dtype": "float32", "layer": {"class_name": "LSTM", "config": {"name": "lstm_2", "trainable": true, "dtype": "float32", "return_sequences": null, "return_state": false, "go_backwards": false, "stateful": false, "unroll": false, "units": 8, "activation": "tanh", "recurrent_activation": "sigmoid", "use_bias": true, "kernel_initializer": {"class_name": "VarianceScaling", "config": {"scale": 1.0, "mode": "fan_avg", "distribution": "uniform", "seed": null}}, "recurrent_initializer": {"class_name": "Orthogonal", "config": {"gain": 1.0, "seed": null}}, "bias_initializer": {"class_name": "Zeros", "config": {}}, "unit_forget_bias": true, "kernel_regularizer": null, "recurrent_regularizer": null, "bias_regularizer": null, "activity_regularizer": null, "kernel_constraint": null, "recurrent_constraint": null, "bias_constraint": null, "dropout": 0.0, "recurrent_dropout": 0.0, "implementation": 2}}, "merge_mode": "concat"}}, {"class_name": "Dense", "config": {"name": "dense_1", "trainable": true, "dtype": "float32", "units": 4, "activation": "relu", "use_bias": true, "kernel_initializer": {"class_name": "VarianceScaling", "config": {"scale": 1.0, "mode": "fan_avg", "distribution": "uniform", "seed": null}}, "bias_initializer": {"class_name": "Zeros", "config": {}}, "kernel_regularizer": null, "bias_regularizer": null, "activity_regularizer": null, "kernel_constraint": null, "bias_constraint": null}}, {"class_name": "Dense", "config": {"name": "dense_2", "trainable": true, "dtype": "float32", "units": 1, "activation": "sigmoid", "use_bias": true, "kernel_initializer": {"class_name": "VarianceScaling", "config": {"scale": 1.0, "mode": "fan_avg", "distribution": "uniform", "seed": null}}, "bias_initializer": {"class_name": "Zeros", "config": {}}, "kernel_regularizer": null, "bias_regularizer": null, "activity_regularizer": null, "kernel_constraint": null, "bias_constraint": null}}]}, "val_accuracy": [… "epochs": 20, "embedding_dim": 16, "input_len": 25, "batch_size": 512, "optimizer": "rmsprop"}}, "2020-04-08 19:55:47.100427": {"data": {"preprocess_options": {"remove_links": true, "remove_users": true, "remove_hash": false, "unslang": false, "split_words": true, "stem": false, "remove_punctuations": true, "remove_numbers": false, "to_lower_case": true, "remove_stop_words": true, "remove_not_alpha": false, "join": false}, "words_reputation_filter": 0, "add_start_symbol": true, "train_percentage": 0.7, "vocabulary_len": 15360, "tweets_for_vocabulary_base": null, "shuffle_data": true}, "model": {"config": {"name": "sequential_1", "layers": [{"class_name": "Embedding", "config": {"name": "embedding_1", "trainable": true, "batch_input_shape": [null, 25], "dtype": "float32", "input_dim": 15360, "output_dim": 16, "embeddings_initializer": {"class_name": "RandomUniform", "config": {"minval": -0.05, "maxval": 0.05, "seed": null}}, "embeddings_regularizer": null, "activity_regularizer": null, "embeddings_constraint": null, "mask_zero": false, "input_length": 25}}, {"class_name": "Flatten", "config": {"name": "flatten_1", "trainable": true, "dtype": "float32", "data_format": "channels_last"}}, {"class_name": "Dense", "config": {"name": "dense_1", "trainable": true, "dtype": "float32", "units": 4, "activation": "relu", "use_bias": true, "kernel_initializer": {"class_name": "VarianceScaling", "config": {"scale": 1.0, "mode": "fan_avg", "distribution": "uniform", "seed": null}}, "bias_initializer": {"class_name": "Zeros", "config": {}}, "kernel_regularizer": null, "bias_regularizer": null, "activity_regularizer": null, "kernel_constraint": null, "bias_constraint": null}}, {"class_name": "Dense", "config": {"name": "dense_2", "trainable": true, "dtype": "float32", "units": 1, "activation": "sigmoid", "use_bias": true, "kernel_initializer": {"class_name": "VarianceScaling", "config": {"scale": 1.0, "mode": "fan_avg", "distribution": "uniform", "seed": null}}, "bias_initializer": {"class_name": "Zeros", "config": {}}, "kernel_regularizer": null, "bias_regularizer": null, "activity_regularizer": null, "kernel_constraint": null, "bias_constraint": null}}]}, "val_accuracy": [… "epochs": 20, "embedding_dim": 16, "input_len": 25, "batch_size": 512, "optimizer": "rmsprop"}}, "2020-04-08 19:56:10.248994": {"data": {"preprocess_options": {"remove_links": true, "remove_users": true, "remove_hash": false, "unslang": false, "split_words": true, "stem": false, "remove_punctuations": true, "remove_numbers": false, "to_lower_case": true, "remove_stop_words": true, "remove_not_alpha": false, "join": false}, "words_reputation_filter": 0, "add_start_symbol": true, "train_percentage": 0.7, "vocabulary_len": 15360, "tweets_for_vocabulary_base": null, "shuffle_data": true}, "model": {"config": {"name": "sequential_1", "layers": [{"class_name": "Embedding", "config": {"name": "embedding_1", "trainable": true, "batch_input_shape": [null, 25], "dtype": "float32", "input_dim": 15360, "output_dim": 16, "embeddings_initializer": {"class_name": "RandomUniform", "config": {"minval": -0.05, "maxval": 0.05, "seed": null}}, "embeddings_regularizer": null, "activity_regularizer": null, "embeddings_constraint": null, "mask_zero": false, "input_length": 25}}, {"class_name": "Flatten", "config": {"name": "flatten_1", "trainable": true, "dtype": "float32", "data_format": "channels_last"}}, {"class_name": "Dense", "config": {"name": "dense_1", "trainable": true, "dtype": "float32", "units": 16, "activation": "relu", "use_bias": true, "kernel_initializer": {"class_name": "VarianceScaling", "config": {"scale": 1.0, "mode": "fan_avg", "distribution": "uniform", "seed": null}}, "bias_initializer": {"class_name": "Zeros", "config": {}}, "kernel_regularizer": null, "bias_regularizer": null, "activity_regularizer": null, "kernel_constraint": null, "bias_constraint": null}}, {"class_name": "Dense", "config": {"name": "dense_2", "trainable": true, "dtype": "float32", "units": 1, "activation": "sigmoid", "use_bias": true, "kernel_initializer": {"class_name": "VarianceScaling", "config": {"scale": 1.0, "mode": "fan_avg", "distribution": "uniform", "seed": null}}, "bias_initializer": {"class_name": "Zeros", "config": {}}, "kernel_regularizer": null, "bias_regularizer": null, "activity_regularizer": null, "kernel_constraint": null, "bias_constraint": null}}]}, "val_accuracy": [… "epochs": 20, "embedding_dim": 16, "input_len": 25, "batch_size": 512, "optimizer": "rmsprop"}}, "2020-04-08 19:56:29.598975": {"data": {"preprocess_options": {"remove_links": true, "remove_users": true, "remove_hash": false, "unslang": false, "split_words": true, "stem": false, "remove_punctuations": true, "remove_numbers": false, "to_lower_case": true, "remove_stop_words": true, "remove_not_alpha": false, "join": false}, "words_reputation_filter": 0, "add_start_symbol": true, "train_percentage": 0.7, "vocabulary_len": 15360, "tweets_for_vocabulary_base": null, "shuffle_data": true}, "model": {"config": {"name": "sequential_1", "layers": [{"class_name": "Embedding", "config": {"name": "embedding_1", "trainable": true, "batch_input_shape": [null, 25], "dtype": "float32", "input_dim": 15360, "output_dim": 16, "embeddings_initializer": {"class_name": "RandomUniform", "config": {"minval": -0.05, "maxval": 0.05, "seed": null}}, "embeddings_regularizer": null, "activity_regularizer": null, "embeddings_constraint": null, "mask_zero": false, "input_length": 25}}, {"class_name": "Flatten", "config": {"name": "flatten_1", "trainable": true, "dtype": "float32", "data_format": "channels_last"}}, {"class_name": "Dense", "config": {"name": "dense_1", "trainable": true, "dtype": "float32", "units": 128, "activation": "relu", "use_bias": true, "kernel_initializer": {"class_name": "VarianceScaling", "config": {"scale": 1.0, "mode": "fan_avg", "distribution": "uniform", "seed": null}}, "bias_initializer": {"class_name": "Zeros", "config": {}}, "kernel_regularizer": null, "bias_regularizer": null, "activity_regularizer": null, "kernel_constraint": null, "bias_constraint": null}}, {"class_name": "Dense", "config": {"name": "dense_2", "trainable": true, "dtype": "float32", "units": 1, "activation": "sigmoid", "use_bias": true, "kernel_initializer": {"class_name": "VarianceScaling", "config": {"scale": 1.0, "mode": "fan_avg", "distribution": "uniform", "seed": null}}, "bias_initializer": {"class_name": "Zeros", "config": {}}, "kernel_regularizer": null, "bias_regularizer": null, "activity_regularizer": null, "kernel_constraint": null, "bias_constraint": null}}]}, "val_accuracy": [… "epochs": 20, "embedding_dim": 16, "input_len": 25, "batch_size": 512, "optimizer": "rmsprop"}}, "2020-04-08 19:57:00.618396": {"data": {"preprocess_options": {"remove_links": true, "remove_users": true, "remove_hash": false, "unslang": false, "split_words": true, "stem": false, "remove_punctuations": true, "remove_numbers": false, "to_lower_case": true, "remove_stop_words": true, "remove_not_alpha": false, "join": false}, "words_reputation_filter": 0, "add_start_symbol": true, "train_percentage": 0.7, "vocabulary_len": 15360, "tweets_for_vocabulary_base": null, "shuffle_data": true}, "model": {"config": {"name": "sequential_1", "layers": [{"class_name": "Embedding", "config": {"name": "embedding_1", "trainable": true, "batch_input_shape": [null, 25], "dtype": "float32", "input_dim": 15360, "output_dim": 32, "embeddings_initializer": {"class_name": "RandomUniform", "config": {"minval": -0.05, "maxval": 0.05, "seed": null}}, "embeddings_regularizer": null, "activity_regularizer": null, "embeddings_constraint": null, "mask_zero": false, "input_length": 25}}, {"class_name": "Flatten", "config": {"name": "flatten_1", "trainable": true, "dtype": "float32", "data_format": "channels_last"}}, {"class_name": "Dense", "config": {"name": "dense_1", "trainable": true, "dtype": "float32", "units": 256, "activation": "relu", "use_bias": true, "kernel_initializer": {"class_name": "VarianceScaling", "config": {"scale": 1.0, "mode": "fan_avg", "distribution": "uniform", "seed": null}}, "bias_initializer": {"class_name": "Zeros", "config": {}}, "kernel_regularizer": null, "bias_regularizer": null, "activity_regularizer": null, "kernel_constraint": null, "bias_constraint": null}}, {"class_name": "Dense", "config": {"name": "dense_2", "trainable": true, "dtype": "float32", "units": 64, "activation": "relu", "use_bias": true, "kernel_initializer": {"class_name": "VarianceScaling", "config": {"scale": 1.0, "mode": "fan_avg", "distribution": "uniform", "seed": null}}, "bias_initializer": {"class_name": "Zeros", "config": {}}, "kernel_regularizer": null, "bias_regularizer": null, "activity_regularizer": null, "kernel_constraint": null, "bias_constraint": null}}, {"class_name": "Dense", "config": {"name": "dense_3", "trainable": true, "dtype": "float32", "units": 1, "activation": "sigmoid", "use_bias": true, "kernel_initializer": {"class_name": "VarianceScaling", "config": {"scale": 1.0, "mode": "fan_avg", "distribution": "uniform", "seed": null}}, "bias_initializer": {"class_name": "Zeros", "config": {}}, "kernel_regularizer": null, "bias_regularizer": null, "activity_regularizer": null, "kernel_constraint": null, "bias_constraint": null}}]}, "val_accuracy": [… "epochs": 20, "embedding_dim": 32, "input_len": 25, "batch_size": 512, "optimizer": "rmsprop"}}, "2020-04-08 19:57:36.538005": {"data": {"preprocess_options": {"remove_links": true, "remove_users": true, "remove_hash": false, "unslang": false, "split_words": true, "stem": false, "remove_punctuations": true, "remove_numbers": false, "to_lower_case": true, "remove_stop_words": true, "remove_not_alpha": false, "join": false}, "words_reputation_filter": 0, "add_start_symbol": true, "train_percentage": 0.8, "vocabulary_len": 8504, "tweets_for_vocabulary_base": true, "shuffle_data": true}, "model": {"config": {"name": "sequential_1", "layers": [{"class_name": "Embedding", "config": {"name": "embedding_1", "trainable": true, "batch_input_shape": [null, 23], "dtype": "float32", "input_dim": 8504, "output_dim": 32, "embeddings_initializer": {"class_name": "RandomUniform", "config": {"minval": -0.05, "maxval": 0.05, "seed": null}}, "embeddings_regularizer": null, "activity_regularizer": null, "embeddings_constraint": null, "mask_zero": false, "input_length": 23}}, {"class_name": "Flatten", "config": {"name": "flatten_1", "trainable": true, "dtype": "float32", "data_format": "channels_last"}}, {"class_name": "Dense", "config": {"name": "dense_1", "trainable": true, "dtype": "float32", "units": 256, "activation": "relu", "use_bias": true, "kernel_initializer": {"class_name": "VarianceScaling", "config": {"scale": 1.0, "mode": "fan_avg", "distribution": "uniform", "seed": null}}, "bias_initializer": {"class_name": "Zeros", "config": {}}, "kernel_regularizer": null, "bias_regularizer": null, "activity_regularizer": null, "kernel_constraint": null, "bias_constraint": null}}, {"class_name": "Dense", "config": {"name": "dense_2", "trainable": true, "dtype": "float32", "units": 64, "activation": "relu", "use_bias": true, "kernel_initializer": {"class_name": "VarianceScaling", "config": {"scale": 1.0, "mode": "fan_avg", "distribution": "uniform", "seed": null}}, "bias_initializer": {"class_name": "Zeros", "config": {}}, "kernel_regularizer": null, "bias_regularizer": null, "activity_regularizer": null, "kernel_constraint": null, "bias_constraint": null}}, {"class_name": "Dense", "config": {"name": "dense_3", "trainable": true, "dtype": "float32", "units": 1, "activation": "sigmoid", "use_bias": true, "kernel_initializer": {"class_name": "VarianceScaling", "config": {"scale": 1.0, "mode": "fan_avg", "distribution": "uniform", "seed": null}}, "bias_initializer": {"class_name": "Zeros", "config": {}}, "kernel_regularizer": null, "bias_regularizer": null, "activity_regularizer": null, "kernel_constraint": null, "bias_constraint": null}}]}, "val_accuracy": [… "epochs": 20, "embedding_dim": 32, "input_len": 23, "batch_size": 512, "optimizer": "rmsprop"}}, "2020-04-08 19:58:07.883794": {"data": {"preprocess_options": {"remove_links": true, "remove_users": true, "remove_hash": false, "unslang": false, "split_words": true, "stem": false, "remove_punctuations": true, "remove_numbers": false, "to_lower_case": true, "remove_stop_words": true, "remove_not_alpha": false, "join": false}, "words_reputation_filter": 0, "add_start_symbol": true, "train_percentage": 0.8, "vocabulary_len": 8504, "tweets_for_vocabulary_base": true, "shuffle_data": true}, "model": {"config": {"name": "sequential_1", "layers": [{"class_name": "Embedding", "config": {"name": "embedding_1", "trainable": true, "batch_input_shape": [null, 23], "dtype": "float32", "input_dim": 8504, "output_dim": 32, "embeddings_initializer": {"class_name": "RandomUniform", "config": {"minval": -0.05, "maxval": 0.05, "seed": null}}, "embeddings_regularizer": null, "activity_regularizer": null, "embeddings_constraint": null, "mask_zero": false, "input_length": 23}}, {"class_name": "Flatten", "config": {"name": "flatten_1", "trainable": true, "dtype": "float32", "data_format": "channels_last"}}, {"class_name": "Dense", "config": {"name": "dense_1", "trainable": true, "dtype": "float32", "units": 256, "activation": "relu", "use_bias": true, "kernel_initializer": {"class_name": "VarianceScaling", "config": {"scale": 1.0, "mode": "fan_avg", "distribution": "uniform", "seed": null}}, "bias_initializer": {"class_name": "Zeros", "config": {}}, "kernel_regularizer": null, "bias_regularizer": null, "activity_regularizer": null, "kernel_constraint": null, "bias_constraint": null}}, {"class_name": "Dense", "config": {"name": "dense_2", "trainable": true, "dtype": "float32", "units": 64, "activation": "relu", "use_bias": true, "kernel_initializer": {"class_name": "VarianceScaling", "config": {"scale": 1.0, "mode": "fan_avg", "distribution": "uniform", "seed": null}}, "bias_initializer": {"class_name": "Zeros", "config": {}}, "kernel_regularizer": null, "bias_regularizer": null, "activity_regularizer": null, "kernel_constraint": null, "bias_constraint": null}}, {"class_name": "Dense", "config": {"name": "dense_3", "trainable": true, "dtype": "float32", "units": 1, "activation": "sigmoid", "use_bias": true, "kernel_initializer": {"class_name": "VarianceScaling", "config": {"scale": 1.0, "mode": "fan_avg", "distribution": "uniform", "seed": null}}, "bias_initializer": {"class_name": "Zeros", "config": {}}, "kernel_regularizer": null, "bias_regularizer": null, "activity_regularizer": null, "kernel_constraint": null, "bias_constraint": null}}]}, "val_accuracy": [… "epochs": 20, "embedding_dim": 32, "input_len": 23, "batch_size": 2048, "optimizer": "rmsprop"}}, "2020-04-08 19:58:32.438274": {"data": {"preprocess_options": {"remove_links": true, "remove_users": true, "remove_hash": false, "unslang": false, "split_words": true, "stem": false, "remove_punctuations": true, "remove_numbers": false, "to_lower_case": true, "remove_stop_words": true, "remove_not_alpha": false, "join": false}, "words_reputation_filter": 0, "add_start_symbol": true, "train_percentage": 0.8, "vocabulary_len": 8504, "tweets_for_vocabulary_base": true, "shuffle_data": true}, "model": {"config": {"name": "sequential_1", "layers": [{"class_name": "Embedding", "config": {"name": "embedding_1", "trainable": true, "batch_input_shape": [null, 23], "dtype": "float32", "input_dim": 8504, "output_dim": 32, "embeddings_initializer": {"class_name": "RandomUniform", "config": {"minval": -0.05, "maxval": 0.05, "seed": null}}, "embeddings_regularizer": null, "activity_regularizer": null, "embeddings_constraint": null, "mask_zero": false, "input_length": 23}}, {"class_name": "Flatten", "config": {"name": "flatten_1", "trainable": true, "dtype": "float32", "data_format": "channels_last"}}, {"class_name": "Dense", "config": {"name": "dense_1", "trainable": true, "dtype": "float32", "units": 256, "activation": "relu", "use_bias": true, "kernel_initializer": {"class_name": "VarianceScaling", "config": {"scale": 1.0, "mode": "fan_avg", "distribution": "uniform", "seed": null}}, "bias_initializer": {"class_name": "Zeros", "config": {}}, "kernel_regularizer": null, "bias_regularizer": null, "activity_regularizer": null, "kernel_constraint": null, "bias_constraint": null}}, {"class_name": "Dense", "config": {"name": "dense_2", "trainable": true, "dtype": "float32", "units": 64, "activation": "relu", "use_bias": true, "kernel_initializer": {"class_name": "VarianceScaling", "config": {"scale": 1.0, "mode": "fan_avg", "distribution": "uniform", "seed": null}}, "bias_initializer": {"class_name": "Zeros", "config": {}}, "kernel_regularizer": null, "bias_regularizer": null, "activity_regularizer": null, "kernel_constraint": null, "bias_constraint": null}}, {"class_name": "Dense", "config": {"name": "dense_3", "trainable": true, "dtype": "float32", "units": 1, "activation": "sigmoid", "use_bias": true, "kernel_initializer": {"class_name": "VarianceScaling", "config": {"scale": 1.0, "mode": "fan_avg", "distribution": "uniform", "seed": null}}, "bias_initializer": {"class_name": "Zeros", "config": {}}, "kernel_regularizer": null, "bias_regularizer": null, "activity_regularizer": null, "kernel_constraint": null, "bias_constraint": null}}]}, "val_accuracy": [… "epochs": 20, "embedding_dim": 32, "input_len": 23, "batch_size": 3000, "optimizer": "rmsprop"}}, "2020-04-08 19:58:58.290344": {"data": {"preprocess_options": {"remove_links": true, "remove_users": true, "remove_hash": false, "unslang": false, "split_words": true, "stem": false, "remove_punctuations": true, "remove_numbers": false, "to_lower_case": true, "remove_stop_words": true, "remove_not_alpha": false, "join": false}, "words_reputation_filter": 0, "add_start_symbol": true, "train_percentage": 0.8, "vocabulary_len": 8504, "tweets_for_vocabulary_base": true, "shuffle_data": true}, "model": {"config": {"name": "sequential_1", "layers": [{"class_name": "Embedding", "config": {"name": "embedding_1", "trainable": true, "batch_input_shape": [null, 23], "dtype": "float32", "input_dim": 8504, "output_dim": 32, "embeddings_initializer": {"class_name": "RandomUniform", "config": {"minval": -0.05, "maxval": 0.05, "seed": null}}, "embeddings_regularizer": null, "activity_regularizer": null, "embeddings_constraint": null, "mask_zero": false, "input_length": 23}}, {"class_name": "Flatten", "config": {"name": "flatten_1", "trainable": true, "dtype": "float32", "data_format": "channels_last"}}, {"class_name": "Dense", "config": {"name": "dense_1", "trainable": true, "dtype": "float32", "units": 512, "activation": "relu", "use_bias": true, "kernel_initializer": {"class_name": "VarianceScaling", "config": {"scale": 1.0, "mode": "fan_avg", "distribution": "uniform", "seed": null}}, "bias_initializer": {"class_name": "Zeros", "config": {}}, "kernel_regularizer": null, "bias_regularizer": null, "activity_regularizer": null, "kernel_constraint": null, "bias_constraint": null}}, {"class_name": "Dense", "config": {"name": "dense_2", "trainable": true, "dtype": "float32", "units": 256, "activation": "relu", "use_bias": true, "kernel_initializer": {"class_name": "VarianceScaling", "config": {"scale": 1.0, "mode": "fan_avg", "distribution": "uniform", "seed": null}}, "bias_initializer": {"class_name": "Zeros", "config": {}}, "kernel_regularizer": null, "bias_regularizer": null, "activity_regularizer": null, "kernel_constraint": null, "bias_constraint": null}}, {"class_name": "Dense", "config": {"name": "dense_3", "trainable": true, "dtype": "float32", "units": 1, "activation": "sigmoid", "use_bias": true, "kernel_initializer": {"class_name": "VarianceScaling", "config": {"scale": 1.0, "mode": "fan_avg", "distribution": "uniform", "seed": null}}, "bias_initializer": {"class_name": "Zeros", "config": {}}, "kernel_regularizer": null, "bias_regularizer": null, "activity_regularizer": null, "kernel_constraint": null, "bias_constraint": null}}]}, "val_accuracy": [… "epochs": 20, "embedding_dim": 32, "input_len": 23, "batch_size": 3000, "optimizer": "rmsprop"}}, "2020-04-08 19:59:28.353565": {"data": {"preprocess_options": {"remove_links": true, "remove_users": true, "remove_hash": false, "unslang": false, "split_words": true, "stem": false, "remove_punctuations": true, "remove_numbers": false, "to_lower_case": true, "remove_stop_words": true, "remove_not_alpha": false, "join": false}, "words_reputation_filter": 0, "add_start_symbol": true, "train_percentage": 0.8, "vocabulary_len": 8504, "tweets_for_vocabulary_base": true, "shuffle_data": true}, "model": {"config": {"name": "sequential_1", "layers": [{"class_name": "Embedding", "config": {"name": "embedding_1", "trainable": true, "batch_input_shape": [null, 23], "dtype": "float32", "input_dim": 8504, "output_dim": 256, "embeddings_initializer": {"class_name": "RandomUniform", "config": {"minval": -0.05, "maxval": 0.05, "seed": null}}, "embeddings_regularizer": null, "activity_regularizer": null, "embeddings_constraint": null, "mask_zero": false, "input_length": 23}}, {"class_name": "Flatten", "config": {"name": "flatten_1", "trainable": true, "dtype": "float32", "data_format": "channels_last"}}, {"class_name": "Dense", "config": {"name": "dense_1", "trainable": true, "dtype": "float32", "units": 512, "activation": "relu", "use_bias": true, "kernel_initializer": {"class_name": "VarianceScaling", "config": {"scale": 1.0, "mode": "fan_avg", "distribution": "uniform", "seed": null}}, "bias_initializer": {"class_name": "Zeros", "config": {}}, "kernel_regularizer": null, "bias_regularizer": null, "activity_regularizer": null, "kernel_constraint": null, "bias_constraint": null}}, {"class_name": "Dense", "config": {"name": "dense_2", "trainable": true, "dtype": "float32", "units": 256, "activation": "relu", "use_bias": true, "kernel_initializer": {"class_name": "VarianceScaling", "config": {"scale": 1.0, "mode": "fan_avg", "distribution": "uniform", "seed": null}}, "bias_initializer": {"class_name": "Zeros", "config": {}}, "kernel_regularizer": null, "bias_regularizer": null, "activity_regularizer": null, "kernel_constraint": null, "bias_constraint": null}}, {"class_name": "Dense", "config": {"name": "dense_3", "trainable": true, "dtype": "float32", "units": 1, "activation": "sigmoid", "use_bias": true, "kernel_initializer": {"class_name": "VarianceScaling", "config": {"scale": 1.0, "mode": "fan_avg", "distribution": "uniform", "seed": null}}, "bias_initializer": {"class_name": "Zeros", "config": {}}, "kernel_regularizer": null, "bias_regularizer": null, "activity_regularizer": null, "kernel_constraint": null, "bias_constraint": null}}]}, "val_accuracy": [… "epochs": 20, "embedding_dim": 256, "input_len": 23, "batch_size": 3000, "optimizer": "rmsprop"}}, "2020-04-08 20:01:14.503010": {"data": {"preprocess_options": {"remove_links": true, "remove_users": true, "remove_hash": false, "unslang": false, "split_words": true, "stem": false, "remove_punctuations": true, "remove_numbers": false, "to_lower_case": true, "remove_stop_words": true, "remove_not_alpha": false, "join": false}, "words_reputation_filter": 0, "add_start_symbol": true, "train_percentage": 0.8, "vocabulary_len": 8504, "tweets_for_vocabulary_base": true, "shuffle_data": true}, "model": {"config": {"name": "sequential_1", "layers": [{"class_name": "Embedding", "config": {"name": "embedding_1", "trainable": true, "batch_input_shape": [null, 23], "dtype": "float32", "input_dim": 8504, "output_dim": 64, "embeddings_initializer": {"class_name": "RandomUniform", "config": {"minval": -0.05, "maxval": 0.05, "seed": null}}, "embeddings_regularizer": null, "activity_regularizer": null, "embeddings_constraint": null, "mask_zero": false, "input_length": 23}}, {"class_name": "LSTM", "config": {"name": "lstm_1", "trainable": true, "dtype": "float32", "return_sequences": false, "return_state": false, "go_backwards": false, "stateful": false, "unroll": false, "units": 64, "activation": "tanh", "recurrent_activation": "sigmoid", "use_bias": true, "kernel_initializer": {"class_name": "VarianceScaling", "config": {"scale": 1.0, "mode": "fan_avg", "distribution": "uniform", "seed": null}}, "recurrent_initializer": {"class_name": "Orthogonal", "config": {"gain": 1.0, "seed": null}}, "bias_initializer": {"class_name": "Zeros", "config": {}}, "unit_forget_bias": true, "kernel_regularizer": null, "recurrent_regularizer": null, "bias_regularizer": null, "activity_regularizer": null, "kernel_constraint": null, "recurrent_constraint": null, "bias_constraint": null, "dropout": 0.0, "recurrent_dropout": 0.0, "implementation": 2}}, {"class_name": "Dense", "config": {"name": "dense_1", "trainable": true, "dtype": "float32", "units": 1, "activation": "sigmoid", "use_bias": true, "kernel_initializer": {"class_name": "VarianceScaling", "config": {"scale": 1.0, "mode": "fan_avg", "distribution": "uniform", "seed": null}}, "bias_initializer": {"class_name": "Zeros", "config": {}}, "kernel_regularizer": null, "bias_regularizer": null, "activity_regularizer": null, "kernel_constraint": null, "bias_constraint": null}}]}, "val_accuracy": [… "epochs": 20, "embedding_dim": 64, "input_len": 23, "batch_size": 3000, "optimizer": "rmsprop"}}, "2020-04-08 20:02:03.448123": {"data": {"preprocess_options": {"remove_links": true, "remove_users": true, "remove_hash": false, "unslang": false, "split_words": true, "stem": false, "remove_punctuations": true, "remove_numbers": false, "to_lower_case": true, "remove_stop_words": true, "remove_not_alpha": false, "join": false}, "words_reputation_filter": 0, "add_start_symbol": true, "train_percentage": 0.8, "vocabulary_len": 8504, "tweets_for_vocabulary_base": true, "shuffle_data": true}, "model": {"config": {"name": "sequential_1", "layers": [{"class_name": "Embedding", "config": {"name": "embedding_1", "trainable": true, "batch_input_shape": [null, 23], "dtype": "float32", "input_dim": 8504, "output_dim": 64, "embeddings_initializer": {"class_name": "RandomUniform", "config": {"minval": -0.05, "maxval": 0.05, "seed": null}}, "embeddings_regularizer": null, "activity_regularizer": null, "embeddings_constraint": null, "mask_zero": false, "input_length": 23}}, {"class_name": "Flatten", "config": {"name": "flatten_1", "trainable": true, "dtype": "float32", "data_format": "channels_last"}}, {"class_name": "Dense", "config": {"name": "dense_1", "trainable": true, "dtype": "float32", "units": 1, "activation": "sigmoid", "use_bias": true, "kernel_initializer": {"class_name": "VarianceScaling", "config": {"scale": 1.0, "mode": "fan_avg", "distribution": "uniform", "seed": null}}, "bias_initializer": {"class_name": "Zeros", "config": {}}, "kernel_regularizer": null, "bias_regularizer": null, "activity_regularizer": null, "kernel_constraint": null, "bias_constraint": null}}]}, "val_accuracy": [… "epochs": 50, "embedding_dim": 64, "input_len": 23, "batch_size": 3000, "optimizer": "rmsprop"}}, "2020-04-08 20:02:46.602842": {"data": {"preprocess_options": {"remove_links": true, "remove_users": true, "remove_hash": false, "unslang": false, "split_words": true, "stem": false, "remove_punctuations": true, "remove_numbers": false, "to_lower_case": true, "remove_stop_words": true, "remove_not_alpha": false, "join": false}, "words_reputation_filter": 0, "add_start_symbol": true, "train_percentage": 0.8, "vocabulary_len": 8504, "tweets_for_vocabulary_base": true, "shuffle_data": true}, "model": {"config": {"name": "sequential_1", "layers": [{"class_name": "Embedding", "config": {"name": "embedding_1", "trainable": true, "batch_input_shape": [null, 23], "dtype": "float32", "input_dim": 8504, "output_dim": 64, "embeddings_initializer": {"class_name": "RandomUniform", "config": {"minval": -0.05, "maxval": 0.05, "seed": null}}, "embeddings_regularizer": null, "activity_regularizer": null, "embeddings_constraint": null, "mask_zero": false, "input_length": 23}}, {"class_name": "Flatten", "config": {"name": "flatten_1", "trainable": true, "dtype": "float32", "data_format": "channels_last"}}, {"class_name": "Dense", "config": {"name": "dense_1", "trainable": true, "dtype": "float32", "units": 1, "activation": "sigmoid", "use_bias": true, "kernel_initializer": {"class_name": "VarianceScaling", "config": {"scale": 1.0, "mode": "fan_avg", "distribution": "uniform", "seed": null}}, "bias_initializer": {"class_name": "Zeros", "config": {}}, "kernel_regularizer": null, "bias_regularizer": null, "activity_regularizer": null, "kernel_constraint": null, "bias_constraint": null}}]}, "val_accuracy": [… "epochs": 50, "embedding_dim": 64, "input_len": 23, "batch_size": 2048, "optimizer": "rmsprop"}}, "2020-04-08 20:03:16.172733": {"data": {"preprocess_options": {"remove_links": true, "remove_users": true, "remove_hash": false, "unslang": false, "split_words": true, "stem": false, "remove_punctuations": true, "remove_numbers": false, "to_lower_case": true, "remove_stop_words": true, "remove_not_alpha": false, "join": false}, "words_reputation_filter": 0, "add_start_symbol": true, "train_percentage": 0.8, "vocabulary_len": 8504, "tweets_for_vocabulary_base": true, "shuffle_data": true}, "model": {"config": {"name": "sequential_1", "layers": [{"class_name": "Embedding", "config": {"name": "embedding_1", "trainable": true, "batch_input_shape": [null, 23], "dtype": "float32", "input_dim": 8504, "output_dim": 4, "embeddings_initializer": {"class_name": "RandomUniform", "config": {"minval": -0.05, "maxval": 0.05, "seed": null}}, "embeddings_regularizer": null, "activity_regularizer": null, "embeddings_constraint": null, "mask_zero": false, "input_length": 23}}, {"class_name": "Flatten", "config": {"name": "flatten_1", "trainable": true, "dtype": "float32", "data_format": "channels_last"}}, {"class_name": "Dense", "config": {"name": "dense_1", "trainable": true, "dtype": "float32", "units": 1, "activation": "sigmoid", "use_bias": true, "kernel_initializer": {"class_name": "VarianceScaling", "config": {"scale": 1.0, "mode": "fan_avg", "distribution": "uniform", "seed": null}}, "bias_initializer": {"class_name": "Zeros", "config": {}}, "kernel_regularizer": null, "bias_regularizer": null, "activity_regularizer": null, "kernel_constraint": null, "bias_constraint": null}}]}, "val_accuracy": [… "epochs": 50, "embedding_dim": 4, "input_len": 23, "batch_size": 2048, "optimizer": "rmsprop"}}, "2020-04-08 20:04:00.589264": {"data": {"preprocess_options": {"remove_links": true, "remove_users": true, "remove_hash": false, "unslang": false, "split_words": true, "stem": false, "remove_punctuations": true, "remove_numbers": false, "to_lower_case": true, "remove_stop_words": true, "remove_not_alpha": false, "join": false}, "words_reputation_filter": 0, "add_start_symbol": true, "train_percentage": 0.8, "vocabulary_len": 8504, "tweets_for_vocabulary_base": true, "shuffle_data": true}, "model": {"config": {"name": "sequential_1", "layers": [{"class_name": "Embedding", "config": {"name": "embedding_1", "trainable": true, "batch_input_shape": [null, 23], "dtype": "float32", "input_dim": 8504, "output_dim": 4, "embeddings_initializer": {"class_name": "RandomUniform", "config": {"minval": -0.05, "maxval": 0.05, "seed": null}}, "embeddings_regularizer": null, "activity_regularizer": null, "embeddings_constraint": null, "mask_zero": false, "input_length": 23}}, {"class_name": "Flatten", "config": {"name": "flatten_1", "trainable": true, "dtype": "float32", "data_format": "channels_last"}}, {"class_name": "Dense", "config": {"name": "dense_1", "trainable": true, "dtype": "float32", "units": 1, "activation": "sigmoid", "use_bias": true, "kernel_initializer": {"class_name": "VarianceScaling", "config": {"scale": 1.0, "mode": "fan_avg", "distribution": "uniform", "seed": null}}, "bias_initializer": {"class_name": "Zeros", "config": {}}, "kernel_regularizer": null, "bias_regularizer": null, "activity_regularizer": null, "kernel_constraint": null, "bias_constraint": null}}]}, "val_accuracy": [… "epochs": 150, "embedding_dim": 4, "input_len": 23, "batch_size": 2048, "optimizer": "rmsprop"}}, "2020-04-08 20:04:42.804433": {"data": {"preprocess_options": {"remove_links": true, "remove_users": true, "remove_hash": false, "unslang": false, "split_words": true, "stem": false, "remove_punctuations": true, "remove_numbers": false, "to_lower_case": true, "remove_stop_words": true, "remove_not_alpha": false, "join": false}, "words_reputation_filter": 0, "add_start_symbol": true, "train_percentage": 0.8, "vocabulary_len": 8504, "tweets_for_vocabulary_base": true, "shuffle_data": true}, "model": {"config": {"name": "sequential_1", "layers": [{"class_name": "Embedding", "config": {"name": "embedding_1", "trainable": true, "batch_input_shape": [null, 23], "dtype": "float32", "input_dim": 8504, "output_dim": 1024, "embeddings_initializer": {"class_name": "RandomUniform", "config": {"minval": -0.05, "maxval": 0.05, "seed": null}}, "embeddings_regularizer": null, "activity_regularizer": null, "embeddings_constraint": null, "mask_zero": false, "input_length": 23}}, {"class_name": "Flatten", "config": {"name": "flatten_1", "trainable": true, "dtype": "float32", "data_format": "channels_last"}}, {"class_name": "Dense", "config": {"name": "dense_1", "trainable": true, "dtype": "float32", "units": 1, "activation": "sigmoid", "use_bias": true, "kernel_initializer": {"class_name": "VarianceScaling", "config": {"scale": 1.0, "mode": "fan_avg", "distribution": "uniform", "seed": null}}, "bias_initializer": {"class_name": "Zeros", "config": {}}, "kernel_regularizer": null, "bias_regularizer": null, "activity_regularizer": null, "kernel_constraint": null, "bias_constraint": null}}]}, "val_accuracy": [… "epochs": 20, "embedding_dim": 1024, "input_len": 23, "batch_size": 2048, "optimizer": "rmsprop"}}, "2020-04-08 20:05:42.185071": {"data": {"preprocess_options": {"remove_links": true, "remove_users": true, "remove_hash": false, "unslang": false, "split_words": true, "stem": false, "remove_punctuations": true, "remove_numbers": false, "to_lower_case": true, "remove_stop_words": true, "remove_not_alpha": false, "join": false}, "words_reputation_filter": 0, "add_start_symbol": true, "train_percentage": 0.8, "vocabulary_len": 8504, "tweets_for_vocabulary_base": true, "shuffle_data": true}, "model": {"config": {"name": "sequential_1", "layers": [{"class_name": "Embedding", "config": {"name": "embedding_1", "trainable": true, "batch_input_shape": [null, 8], "dtype": "float32", "input_dim": 8504, "output_dim": 8, "embeddings_initializer": {"class_name": "RandomUniform", "config": {"minval": -0.05, "maxval": 0.05, "seed": null}}, "embeddings_regularizer": null, "activity_regularizer": null, "embeddings_constraint": null, "mask_zero": false, "input_length": 8}}, {"class_name": "Flatten", "config": {"name": "flatten_1", "trainable": true, "dtype": "float32", "data_format": "channels_last"}}, {"class_name": "Dense", "config": {"name": "dense_1", "trainable": true, "dtype": "float32", "units": 1, "activation": "sigmoid", "use_bias": true, "kernel_initializer": {"class_name": "VarianceScaling", "config": {"scale": 1.0, "mode": "fan_avg", "distribution": "uniform", "seed": null}}, "bias_initializer": {"class_name": "Zeros", "config": {}}, "kernel_regularizer": null, "bias_regularizer": null, "activity_regularizer": null, "kernel_constraint": null, "bias_constraint": null}}]}, "val_accuracy": [… "epochs": 100, "embedding_dim": 8, "input_len": 8, "batch_size": 2048, "optimizer": "rmsprop"}}, "2020-04-08 20:06:01.917550": {"data": {"preprocess_options": {"remove_links": true, "remove_users": true, "remove_hash": false, "unslang": false, "split_words": true, "stem": false, "remove_punctuations": true, "remove_numbers": false, "to_lower_case": true, "remove_stop_words": true, "remove_not_alpha": false, "join": false}, "words_reputation_filter": 0, "add_start_symbol": true, "train_percentage": 0.8, "vocabulary_len": 8504, "tweets_for_vocabulary_base": true, "shuffle_data": true}, "model": {"config": {"name": "sequential_1", "layers": [{"class_name": "Embedding", "config": {"name": "embedding_1", "trainable": true, "batch_input_shape": [null, 8], "dtype": "float32", "input_dim": 8504, "output_dim": 8, "embeddings_initializer": {"class_name": "RandomUniform", "config": {"minval": -0.05, "maxval": 0.05, "seed": null}}, "embeddings_regularizer": null, "activity_regularizer": null, "embeddings_constraint": null, "mask_zero": false, "input_length": 8}}, {"class_name": "Flatten", "config": {"name": "flatten_1", "trainable": true, "dtype": "float32", "data_format": "channels_last"}}, {"class_name": "Dense", "config": {"name": "dense_1", "trainable": true, "dtype": "float32", "units": 1, "activation": "sigmoid", "use_bias": true, "kernel_initializer": {"class_name": "VarianceScaling", "config": {"scale": 1.0, "mode": "fan_avg", "distribution": "uniform", "seed": null}}, "bias_initializer": {"class_name": "Zeros", "config": {}}, "kernel_regularizer": null, "bias_regularizer": null, "activity_regularizer": null, "kernel_constraint": null, "bias_constraint": null}}]}, "val_accuracy": [… "epochs": 150, "embedding_dim": 8, "input_len": 8, "batch_size": 2048, "optimizer": "rmsprop"}}, "2020-04-08 20:07:34.595524": {"data": {"preprocess_options": {"remove_links": true, "remove_users": true, "remove_hash": false, "unslang": false, "split_words": true, "stem": false, "remove_punctuations": true, "remove_numbers": false, "to_lower_case": true, "remove_stop_words": true, "remove_not_alpha": false, "join": false}, "words_reputation_filter": 0, "add_start_symbol": true, "train_percentage": 0.8, "vocabulary_len": 8504, "tweets_for_vocabulary_base": true, "shuffle_data": true}, "model": {"config": {"name": "sequential_1", "layers": [{"class_name": "Embedding", "config": {"name": "embedding_1", "trainable": true, "batch_input_shape": [null, 16], "dtype": "float32", "input_dim": 8504, "output_dim": 16, "embeddings_initializer": {"class_name": "RandomUniform", "config": {"minval": -0.05, "maxval": 0.05, "seed": null}}, "embeddings_regularizer": null, "activity_regularizer": null, "embeddings_constraint": null, "mask_zero": false, "input_length": 16}}, {"class_name": "Flatten", "config": {"name": "flatten_1", "trainable": true, "dtype": "float32", "data_format": "channels_last"}}, {"class_name": "Dense", "config": {"name": "dense_1", "trainable": true, "dtype": "float32", "units": 1, "activation": "sigmoid", "use_bias": true, "kernel_initializer": {"class_name": "VarianceScaling", "config": {"scale": 1.0, "mode": "fan_avg", "distribution": "uniform", "seed": null}}, "bias_initializer": {"class_name": "Zeros", "config": {}}, "kernel_regularizer": null, "bias_regularizer": null, "activity_regularizer": null, "kernel_constraint": null, "bias_constraint": null}}]}, "val_accuracy": [… "epochs": 100, "embedding_dim": 16, "input_len": 16, "batch_size": 2048, "optimizer": "rmsprop"}}, "2020-04-08 20:07:58.346565": {"data": {"preprocess_options": {"remove_links": true, "remove_users": true, "remove_hash": false, "unslang": false, "split_words": true, "stem": false, "remove_punctuations": true, "remove_numbers": false, "to_lower_case": true, "remove_stop_words": true, "remove_not_alpha": false, "join": false}, "words_reputation_filter": 0, "add_start_symbol": true, "train_percentage": 0.8, "vocabulary_len": 15360, "tweets_for_vocabulary_base": null, "shuffle_data": true}, "model": {"config": {"name": "sequential_1", "layers": [{"class_name": "Embedding", "config": {"name": "embedding_1", "trainable": true, "batch_input_shape": [null, 16], "dtype": "float32", "input_dim": 15360, "output_dim": 16, "embeddings_initializer": {"class_name": "RandomUniform", "config": {"minval": -0.05, "maxval": 0.05, "seed": null}}, "embeddings_regularizer": null, "activity_regularizer": null, "embeddings_constraint": null, "mask_zero": false, "input_length": 16}}, {"class_name": "Flatten", "config": {"name": "flatten_1", "trainable": true, "dtype": "float32", "data_format": "channels_last"}}, {"class_name": "Dense", "config": {"name": "dense_1", "trainable": true, "dtype": "float32", "units": 1, "activation": "sigmoid", "use_bias": true, "kernel_initializer": {"class_name": "VarianceScaling", "config": {"scale": 1.0, "mode": "fan_avg", "distribution": "uniform", "seed": null}}, "bias_initializer": {"class_name": "Zeros", "config": {}}, "kernel_regularizer": null, "bias_regularizer": null, "activity_regularizer": null, "kernel_constraint": null, "bias_constraint": null}}]}, "val_accuracy": [… "epochs": 100, "embedding_dim": 16, "input_len": 16, "batch_size": 2048, "optimizer": "rmsprop"}}, "2020-04-08 20:11:02.518348": {"data": {"preprocess_options": {"remove_links": true, "remove_users": true, "remove_hash": false, "unslang": false, "split_words": true, "stem": false, "remove_punctuations": true, "remove_numbers": false, "to_lower_case": true, "remove_stop_words": true, "remove_not_alpha": false, "join": false}, "words_reputation_filter": 0, "add_start_symbol": true, "train_percentage": 0.8, "vocabulary_len": 15360, "tweets_for_vocabulary_base": null, "shuffle_data": true}, "model": {"config": {"name": "sequential_1", "layers": [{"class_name": "Embedding", "config": {"name": "embedding_1", "trainable": true, "batch_input_shape": [null, 25], "dtype": "float32", "input_dim": 15360, "output_dim": 128, "embeddings_initializer": {"class_name": "RandomUniform", "config": {"minval": -0.05, "maxval": 0.05, "seed": null}}, "embeddings_regularizer": null, "activity_regularizer": null, "embeddings_constraint": null, "mask_zero": false, "input_length": 25}}, {"class_name": "Flatten", "config": {"name": "flatten_1", "trainable": true, "dtype": "float32", "data_format": "channels_last"}}, {"class_name": "Dense", "config": {"name": "dense_1", "trainable": true, "dtype": "float32", "units": 1, "activation": "sigmoid", "use_bias": true, "kernel_initializer": {"class_name": "VarianceScaling", "config": {"scale": 1.0, "mode": "fan_avg", "distribution": "uniform", "seed": null}}, "bias_initializer": {"class_name": "Zeros", "config": {}}, "kernel_regularizer": null, "bias_regularizer": null, "activity_regularizer": null, "kernel_constraint": null, "bias_constraint": null}}]}, "val_accuracy": [… "epochs": 50, "embedding_dim": 128, "input_len": 25, "batch_size": 1024, "optimizer": "rmsprop"}}, "2020-04-08 20:11:51.789759": {"data": {"preprocess_options": {"remove_links": true, "remove_users": true, "remove_hash": false, "unslang": false, "split_words": true, "stem": false, "remove_punctuations": true, "remove_numbers": false, "to_lower_case": true, "remove_stop_words": true, "remove_not_alpha": false, "join": false}, "words_reputation_filter": 0, "add_start_symbol": true, "train_percentage": 0.8, "vocabulary_len": 15360, "tweets_for_vocabulary_base": null, "shuffle_data": true}, "model": {"config": {"name": "sequential_1", "layers": [{"class_name": "Embedding", "config": {"name": "embedding_1", "trainable": true, "batch_input_shape": [null, 25], "dtype": "float32", "input_dim": 15360, "output_dim": 128, "embeddings_initializer": {"class_name": "RandomUniform", "config": {"minval": -0.05, "maxval": 0.05, "seed": null}}, "embeddings_regularizer": null, "activity_regularizer": null, "embeddings_constraint": null, "mask_zero": false, "input_length": 25}}, {"class_name": "Flatten", "config": {"name": "flatten_1", "trainable": true, "dtype": "float32", "data_format": "channels_last"}}, {"class_name": "Dense", "config": {"name": "dense_1", "trainable": true, "dtype": "float32", "units": 1, "activation": "sigmoid", "use_bias": true, "kernel_initializer": {"class_name": "VarianceScaling", "config": {"scale": 1.0, "mode": "fan_avg", "distribution": "uniform", "seed": null}}, "bias_initializer": {"class_name": "Zeros", "config": {}}, "kernel_regularizer": null, "bias_regularizer": null, "activity_regularizer": null, "kernel_constraint": null, "bias_constraint": null}}]}, "val_accuracy": [… "epochs": 30, "embedding_dim": 128, "input_len": 25, "batch_size": 512, "optimizer": "rmsprop"}}, "2020-04-08 20:13:03.845850": {"data": {"preprocess_options": {"remove_links": true, "remove_users": true, "remove_hash": false, "unslang": false, "split_words": true, "stem": false, "remove_punctuations": true, "remove_numbers": false, "to_lower_case": true, "remove_stop_words": true, "remove_not_alpha": false, "join": false}, "words_reputation_filter": 0, "add_start_symbol": true, "train_percentage": 0.8, "vocabulary_len": 15360, "tweets_for_vocabulary_base": null, "shuffle_data": true}, "model": {"config": {"name": "sequential_1", "layers": [{"class_name": "Embedding", "config": {"name": "embedding_1", "trainable": true, "batch_input_shape": [null, 25], "dtype": "float32", "input_dim": 15360, "output_dim": 64, "embeddings_initializer": {"class_name": "RandomUniform", "config": {"minval": -0.05, "maxval": 0.05, "seed": null}}, "embeddings_regularizer": null, "activity_regularizer": null, "embeddings_constraint": null, "mask_zero": false, "input_length": 25}}, {"class_name": "Flatten", "config": {"name": "flatten_1", "trainable": true, "dtype": "float32", "data_format": "channels_last"}}, {"class_name": "Dense", "config": {"name": "dense_1", "trainable": true, "dtype": "float32", "units": 1, "activation": "sigmoid", "use_bias": true, "kernel_initializer": {"class_name": "VarianceScaling", "config": {"scale": 1.0, "mode": "fan_avg", "distribution": "uniform", "seed": null}}, "bias_initializer": {"class_name": "Zeros", "config": {}}, "kernel_regularizer": null, "bias_regularizer": null, "activity_regularizer": null, "kernel_constraint": null, "bias_constraint": null}}]}, "val_accuracy": [… "epochs": 30, "embedding_dim": 64, "input_len": 25, "batch_size": 512, "optimizer": "rmsprop"}}, "2020-04-08 20:14:27.935669": {"data": {"preprocess_options": {"remove_links": true, "remove_users": true, "remove_hash": false, "unslang": false, "split_words": true, "stem": false, "remove_punctuations": true, "remove_numbers": false, "to_lower_case": true, "remove_stop_words": true, "remove_not_alpha": false, "join": false}, "words_reputation_filter": 0, "add_start_symbol": true, "train_percentage": 0.8, "vocabulary_len": 8504, "tweets_for_vocabulary_base": true, "shuffle_data": true}, "model": {"config": {"name": "sequential_1", "layers": [{"class_name": "Embedding", "config": {"name": "embedding_1", "trainable": true, "batch_input_shape": [null, 23], "dtype": "float32", "input_dim": 8504, "output_dim": 64, "embeddings_initializer": {"class_name": "RandomUniform", "config": {"minval": -0.05, "maxval": 0.05, "seed": null}}, "embeddings_regularizer": null, "activity_regularizer": null, "embeddings_constraint": null, "mask_zero": false, "input_length": 23}}, {"class_name": "Flatten", "config": {"name": "flatten_1", "trainable": true, "dtype": "float32", "data_format": "channels_last"}}, {"class_name": "Dense", "config": {"name": "dense_1", "trainable": true, "dtype": "float32", "units": 1, "activation": "sigmoid", "use_bias": true, "kernel_initializer": {"class_name": "VarianceScaling", "config": {"scale": 1.0, "mode": "fan_avg", "distribution": "uniform", "seed": null}}, "bias_initializer": {"class_name": "Zeros", "config": {}}, "kernel_regularizer": null, "bias_regularizer": null, "activity_regularizer": null, "kernel_constraint": null, "bias_constraint": null}}]}, "val_accuracy": [… "epochs": 30, "embedding_dim": 64, "input_len": 23, "batch_size": 512, "optimizer": "rmsprop"}}, "2020-04-08 20:15:05.090085": {"data": {"preprocess_options": {"remove_links": true, "remove_users": true, "remove_hash": false, "unslang": false, "split_words": true, "stem": false, "remove_punctuations": true, "remove_numbers": false, "to_lower_case": true, "remove_stop_words": true, "remove_not_alpha": false, "join": false}, "words_reputation_filter": 0, "add_start_symbol": true, "train_percentage": 0.8, "vocabulary_len": 8504, "tweets_for_vocabulary_base": true, "shuffle_data": true}, "model": {"config": {"name": "sequential_1", "layers": [{"class_name": "Embedding", "config": {"name": "embedding_1", "trainable": true, "batch_input_shape": [null, 23], "dtype": "float32", "input_dim": 8504, "output_dim": 64, "embeddings_initializer": {"class_name": "RandomUniform", "config": {"minval": -0.05, "maxval": 0.05, "seed": null}}, "embeddings_regularizer": null, "activity_regularizer": null, "embeddings_constraint": null, "mask_zero": false, "input_length": 23}}, {"class_name": "Flatten", "config": {"name": "flatten_1", "trainable": true, "dtype": "float32", "data_format": "channels_last"}}, {"class_name": "Dense", "config": {"name": "dense_1", "trainable": true, "dtype": "float32", "units": 1, "activation": "sigmoid", "use_bias": true, "kernel_initializer": {"class_name": "VarianceScaling", "config": {"scale": 1.0, "mode": "fan_avg", "distribution": "uniform", "seed": null}}, "bias_initializer": {"class_name": "Zeros", "config": {}}, "kernel_regularizer": null, "bias_regularizer": null, "activity_regularizer": null, "kernel_constraint": null, "bias_constraint": null}}]}, "val_accuracy": [… "epochs": 30, "embedding_dim": 64, "input_len": 23, "batch_size": 512, "optimizer": "rmsprop"}}, "2020-04-08 21:22:53.161230": {"data": {"preprocess_options": {"remove_links": true, "remove_users": true, "remove_hash": false, "unslang": true, "split_words": true, "stem": false, "remove_punctuations": true, "remove_numbers": false, "to_lower_case": true, "remove_stop_words": true, "remove_not_alpha": false, "join": false}, "words_reputation_filter": 0, "add_start_symbol": true, "train_percentage": 0.8, "vocabulary_len": 8481, "tweets_for_vocabulary_base": true, "shuffle_data": true}, "model": {"config": {"name": "sequential_1", "layers": [{"class_name": "Embedding", "config": {"name": "embedding_1", "trainable": true, "batch_input_shape": [null, 25], "dtype": "float32", "input_dim": 8481, "output_dim": 8, "embeddings_initializer": {"class_name": "RandomUniform", "config": {"minval": -0.05, "maxval": 0.05, "seed": null}}, "embeddings_regularizer": null, "activity_regularizer": null, "embeddings_constraint": null, "mask_zero": false, "input_length": 25}}, {"class_name": "Flatten", "config": {"name": "flatten_1", "trainable": true, "dtype": "float32", "data_format": "channels_last"}}, {"class_name": "Dense", "config": {"name": "dense_1", "trainable": true, "dtype": "float32", "units": 1, "activation": "sigmoid", "use_bias": true, "kernel_initializer": {"class_name": "VarianceScaling", "config": {"scale": 1.0, "mode": "fan_avg", "distribution": "uniform", "seed": null}}, "bias_initializer": {"class_name": "Zeros", "config": {}}, "kernel_regularizer": null, "bias_regularizer": null, "activity_regularizer": null, "kernel_constraint": null, "bias_constraint": null}}]}, "val_accuracy": [… "epochs": 50, "embedding_dim": 8, "input_len": 25, "batch_size": 512, "optimizer": "rmsprop"}}, "2020-04-08 21:23:47.115220": {"data": {"preprocess_options": {"remove_links": true, "remove_users": true, "remove_hash": false, "unslang": true, "split_words": true, "stem": false, "remove_punctuations": true, "remove_numbers": false, "to_lower_case": true, "remove_stop_words": true, "remove_not_alpha": false, "join": false}, "words_reputation_filter": 0, "add_start_symbol": true, "train_percentage": 0.8, "vocabulary_len": 8481, "tweets_for_vocabulary_base": true, "shuffle_data": true}, "model": {"config": {"name": "sequential_1", "layers": [{"class_name": "Embedding", "config": {"name": "embedding_1", "trainable": true, "batch_input_shape": [null, 25], "dtype": "float32", "input_dim": 8481, "output_dim": 8, "embeddings_initializer": {"class_name": "RandomUniform", "config": {"minval": -0.05, "maxval": 0.05, "seed": null}}, "embeddings_regularizer": null, "activity_regularizer": null, "embeddings_constraint": null, "mask_zero": false, "input_length": 25}}, {"class_name": "Flatten", "config": {"name": "flatten_1", "trainable": true, "dtype": "float32", "data_format": "channels_last"}}, {"class_name": "Dense", "config": {"name": "dense_1", "trainable": true, "dtype": "float32", "units": 1, "activation": "sigmoid", "use_bias": true, "kernel_initializer": {"class_name": "VarianceScaling", "config": {"scale": 1.0, "mode": "fan_avg", "distribution": "uniform", "seed": null}}, "bias_initializer": {"class_name": "Zeros", "config": {}}, "kernel_regularizer": null, "bias_regularizer": null, "activity_regularizer": null, "kernel_constraint": null, "bias_constraint": null}}]}, "val_accuracy": [… "epochs": 50, "embedding_dim": 8, "input_len": 25, "batch_size": 512, "optimizer": "rmsprop"}}}