{"2020-04-11 16:01:49.994837": {"data": {"TRAIN_PERCENTAGE": 0.8, "SHUFFLE_DATA": true, "PREPROCESS_OPTRIONS": {"remove_links": true, "remove_users": true, "remove_hash": true, "unslang": true, "split_words": true, "stem": true, "remove_punctuations": true, "remove_numbers": true, "to_lower_case": true, "remove_stop_words": true, "remove_not_alpha": true, "join": false}}, "model": {"BATCH_SIZE": 512, "EPOCHS": 30, "VERBOSE": 1, "OPTIMIZER": "rmsprop", "SHUFFLE": true, "EMBEDDING_OPTIONS": {"input_dim": 9557, "output_dim": 16, "input_length": 23}, "config": {"name": "sequential_1", "layers": [{"class_name": "Embedding", "config": {"name": "embedding_1", "trainable": true, "batch_input_shape": [null, 23], "dtype": "float32", "input_dim": 9557, "output_dim": 16, "embeddings_initializer": {"class_name": "RandomUniform", "config": {"minval": -0.05, "maxval": 0.05, "seed": null}}, "embeddings_regularizer": null, "activity_regularizer": null, "embeddings_constraint": null, "mask_zero": false, "input_length": 23}}, {"class_name": "Flatten", "config": {"name": "flatten_1", "trainable": true, "dtype": "float32", "data_format": "channels_last"}}, {"class_name": "Dense", "config": {"name": "dense_1", "trainable": true, "dtype": "float32", "units": 1, "activation": "sigmoid", "use_bias": true, "kernel_initializer": {"class_name": "VarianceScaling", "config": {"scale": 1.0, "mode": "fan_avg", "distribution": "uniform", "seed": null}}, "bias_initializer": {"class_name": "Zeros", "config": {}}, "kernel_regularizer": null, "bias_regularizer": null, "activity_regularizer": null, "kernel_constraint": null, "bias_constraint": null}}]}, "val_accuracy": [… "test_performance": ["59.76%", "58.32%", "60.07%", "62.46%", "65.74%", "69.14%", "72.51%", "72.23%", "74.07%", "74.93%", "76.10%", "76.43%", "76.65%", "76.80%", "77.02%", "77.32%", "77.44%", "77.47%", "77.66%", "77.72%", "77.93%", "78.12%", "78.06%", "78.39%", "78.49%", "78.49%", "78.67%", "78.67%", "78.67%", "78.76%"]}}, "2020-04-11 16:02:17.909843": {"data": {"TRAIN_PERCENTAGE": 0.8, "SHUFFLE_DATA": true, "PREPROCESS_OPTRIONS": {"remove_links": true, "remove_users": true, "remove_hash": true, "unslang": true, "split_words": true, "stem": true, "remove_punctuations": true, "remove_numbers": true, "to_lower_case": true, "remove_stop_words": true, "remove_not_alpha": true, "join": false}}, "model": {"BATCH_SIZE": 512, "EPOCHS": 50, "VERBOSE": 1, "OPTIMIZER": "rmsprop", "SHUFFLE": true, "EMBEDDING_OPTIONS": {"input_dim": 9592, "output_dim": 16, "input_length": 23}, "config": {"name": "sequential_1", "layers": [{"class_name": "Embedding", "config": {"name": "embedding_1", "trainable": true, "batch_input_shape": [null, 23], "dtype": "float32", "input_dim": 9592, "output_dim": 16, "embeddings_initializer": {"class_name": "RandomUniform", "config": {"minval": -0.05, "maxval": 0.05, "seed": null}}, "embeddings_regularizer": null, "activity_regularizer": null, "embeddings_constraint": null, "mask_zero": false, "input_length": 23}}, {"class_name": "Flatten", "config": {"name": "flatten_1", "trainable": true, "dtype": "float32", "data_format": "channels_last"}}, {"class_name": "Dense", "config": {"name": "dense_1", "trainable": true, "dtype": "float32", "units": 1, "activation": "sigmoid", "use_bias": true, "kernel_initializer": {"class_name": "VarianceScaling", "config": {"scale": 1.0, "mode": "fan_avg", "distribution": "uniform", "seed": null}}, "bias_initializer": {"class_name": "Zeros", "config": {}}, "kernel_regularizer": null, "bias_regularizer": null, "activity_regularizer": null, "kernel_constraint": null, "bias_constraint": null}}]}, "val_accuracy": [… "test_performance": ["57.80%", "57.92%", "59.39%", "62.12%", "65.12%", "67.73%", "70.00%", "71.53%", "73.12%", "74.56%", "75.48%", "76.13%", "76.43%", "76.86%", "77.02%", "77.35%", "77.60%", "78.12%", "78.42%", "78.52%", "78.42%", "78.58%", "78.52%", "78.49%", "78.67%", "78.70%", "78.73%", "78.67%", "78.79%", "78.88%", "78.73%", "78.92%", "79.01%", "79.16%", "79.31%", "79.50%", "79.62%", "79.68%", "79.59%", "79.59%", "79.47%", "79.34%", "79.13%", "79.07%", "78.88%", "78.67%", "78.79%", "78.73%", "78.67%", "78.58%"]}}, "2020-04-11 16:04:33.976423": {"data": {"TRAIN_PERCENTAGE": 0.8, "SHUFFLE_DATA": true, "PREPROCESS_OPTRIONS": {"remove_links": true, "remove_users": true, "remove_hash": false, "unslang": true, "split_words": true, "stem": false, "remove_punctuations": true, "remove_numbers": false, "to_lower_case": true, "remove_stop_words": true, "remove_not_alpha": false, "join": false}}, "model": {"BATCH_SIZE": 512, "EPOCHS": 50, "VERBOSE": 1, "OPTIMIZER": "rmsprop", "SHUFFLE": true, "EMBEDDING_OPTIONS": {"input_dim": 13476, "output_dim": 16, "input_length": 27}, "config": {"name": "sequential_1", "layers": [{"class_name": "Embedding", "config": {"name": "embedding_1", "trainable": true, "batch_input_shape": [null, 27], "dtype": "float32", "input_dim": 13476, "output_dim": 16, "embeddings_initializer": {"class_name": "RandomUniform", "config": {"minval": -0.05, "maxval": 0.05, "seed": null}}, "embeddings_regularizer": null, "activity_regularizer": null, "embeddings_constraint": null, "mask_zero": false, "input_length": 27}}, {"class_name": "Flatten", "config": {"name": "flatten_1", "trainable": true, "dtype": "float32", "data_format": "channels_last"}}, {"class_name": "Dense", "config": {"name": "dense_1", "trainable": true, "dtype": "float32", "units": 1, "activation": "sigmoid", "use_bias": true, "kernel_initializer": {"class_name": "VarianceScaling", "config": {"scale": 1.0, "mode": "fan_avg", "distribution": "uniform", "seed": null}}, "bias_initializer": {"class_name": "Zeros", "config": {}}, "kernel_regularizer": null, "bias_regularizer": null, "activity_regularizer": null, "kernel_constraint": null, "bias_constraint": null}}]}, "val_accuracy": [… "test_performance": ["57.13%", "58.01%", "59.73%", "62.24%", "65.58%", "66.41%", "68.00%", "70.03%", "70.40%", "71.22%", "72.76%", "73.61%", "73.98%", "74.07%", "74.41%", "74.96%", "75.15%", "75.57%", "75.85%", "76.03%", "76.22%", "76.37%", "76.46%", "77.02%", "77.08%", "76.92%", "77.11%", "77.02%", "77.26%", "77.26%", "77.29%", "77.23%", "77.23%", "77.20%", "77.14%", "77.26%", "77.41%", "77.29%", "77.29%", "77.35%", "77.29%", "77.32%", "77.17%", "77.26%", "77.05%", "77.14%", "76.89%", "76.92%", "76.83%", "76.98%"]}}, "2020-04-11 16:05:21.595127": {"data": {"TRAIN_PERCENTAGE": 0.8, "SHUFFLE_DATA": true, "PREPROCESS_OPTRIONS": {"remove_links": true, "remove_users": true, "remove_hash": false, "unslang": true, "split_words": true, "stem": false, "remove_punctuations": true, "remove_numbers": true, "to_lower_case": true, "remove_stop_words": true, "remove_not_alpha": true, "join": false}}, "model": {"BATCH_SIZE": 512, "EPOCHS": 50, "VERBOSE": 1, "OPTIMIZER": "rmsprop", "SHUFFLE": true, "EMBEDDING_OPTIONS": {"input_dim": 12793, "output_dim": 16, "input_length": 21}, "config": {"name": "sequential_1", "layers": [{"class_name": "Embedding", "config": {"name": "embedding_1", "trainable": true, "batch_input_shape": [null, 21], "dtype": "float32", "input_dim": 12793, "output_dim": 16, "embeddings_initializer": {"class_name": "RandomUniform", "config": {"minval": -0.05, "maxval": 0.05, "seed": null}}, "embeddings_regularizer": null, "activity_regularizer": null, "embeddings_constraint": null, "mask_zero": false, "input_length": 21}}, {"class_name": "Flatten", "config": {"name": "flatten_1", "trainable": true, "dtype": "float32", "data_format": "channels_last"}}, {"class_name": "Dense", "config": {"name": "dense_1", "trainable": true, "dtype": "float32", "units": 1, "activation": "sigmoid", "use_bias": true, "kernel_initializer": {"class_name": "VarianceScaling", "config": {"scale": 1.0, "mode": "fan_avg", "distribution": "uniform", "seed": null}}, "bias_initializer": {"class_name": "Zeros", "config": {}}, "kernel_regularizer": null, "bias_regularizer": null, "activity_regularizer": null, "kernel_constraint": null, "bias_constraint": null}}]}, "val_accuracy": [… "test_performance": ["58.66%", "58.93%", "60.68%", "63.32%", "64.76%", "66.50%", "70.18%", "71.59%", "72.33%", "72.60%", "73.49%", "73.86%", "74.38%", "74.93%", "75.67%", "76.06%", "76.46%", "76.74%", "76.74%", "76.86%", "77.02%", "77.35%", "77.41%", "77.63%", "77.54%", "77.63%", "77.72%", "77.51%", "77.54%", "77.60%", "77.57%", "77.87%", "77.75%", "77.63%", "77.60%", "77.60%", "77.72%", "77.66%", "77.57%", "77.41%", "77.44%", "77.41%", "77.14%", "76.86%", "77.02%", "76.98%", "76.95%", "76.80%", "76.80%", "76.83%"]}}, "2020-04-11 16:06:22.368388": {"data": {"TRAIN_PERCENTAGE": 0.8, "SHUFFLE_DATA": true, "PREPROCESS_OPTRIONS": {"remove_links": true, "remove_users": true, "remove_hash": false, "unslang": true, "split_words": true, "stem": false, "remove_punctuations": true, "remove_numbers": true, "to_lower_case": true, "remove_stop_words": true, "remove_not_alpha": true, "join": false}}, "model": {"BATCH_SIZE": 512, "EPOCHS": 30, "VERBOSE": 1, "OPTIMIZER": "rmsprop", "SHUFFLE": true, "EMBEDDING_OPTIONS": {"input_dim": 12802, "output_dim": 128, "input_length": 23}, "config": {"name": "sequential_1", "layers": [{"class_name": "Embedding", "config": {"name": "embedding_1", "trainable": true, "batch_input_shape": [null, 23], "dtype": "float32", "input_dim": 12802, "output_dim": 128, "embeddings_initializer": {"class_name": "RandomUniform", "config": {"minval": -0.05, "maxval": 0.05, "seed": null}}, "embeddings_regularizer": null, "activity_regularizer": null, "embeddings_constraint": null, "mask_zero": false, "input_length": 23}}, {"class_name": "Flatten", "config": {"name": "flatten_1", "trainable": true, "dtype": "float32", "data_format": "channels_last"}}, {"class_name": "Dense", "config": {"name": "dense_1", "trainable": true, "dtype": "float32", "units": 1, "activation": "sigmoid", "use_bias": true, "kernel_initializer": {"class_name": "VarianceScaling", "config": {"scale": 1.0, "mode": "fan_avg", "distribution": "uniform", "seed": null}}, "bias_initializer": {"class_name": "Zeros", "config": {}}, "kernel_regularizer": null, "bias_regularizer": null, "activity_regularizer": null, "kernel_constraint": null, "bias_constraint": null}}]}, "val_accuracy": [… "test_performance": ["60.01%", "71.07%", "72.60%", "75.05%", "76.22%", "76.98%", "77.57%", "78.18%", "78.42%", "78.64%", "78.64%", "78.88%", "78.85%", "78.36%", "78.30%", "78.46%", "78.00%", "78.00%", "77.84%", "77.81%", "77.75%", "77.57%", "77.57%", "77.08%", "77.08%", "76.77%", "76.92%", "76.77%", "76.68%", "76.68%"]}}, "2020-04-11 16:07:49.078361": {"data": {"TRAIN_PERCENTAGE": 0.8, "SHUFFLE_DATA": true, "PREPROCESS_OPTRIONS": {"remove_links": true, "remove_users": true, "remove_hash": false, "unslang": true, "split_words": true, "stem": true, "remove_punctuations": true, "remove_numbers": true, "to_lower_case": true, "remove_stop_words": true, "remove_not_alpha": true, "join": false}}, "model": {"BATCH_SIZE": 512, "EPOCHS": 30, "VERBOSE": 1, "OPTIMIZER": "rmsprop", "SHUFFLE": true, "EMBEDDING_OPTIONS": {"input_dim": 10323, "output_dim": 128, "input_length": 23}, "config": {"name": "sequential_1", "layers": [{"class_name": "Embedding", "config": {"name": "embedding_1", "trainable": true, "batch_input_shape": [null, 23], "dtype": "float32", "input_dim": 10323, "output_dim": 128, "embeddings_initializer": {"class_name": "RandomUniform", "config": {"minval": -0.05, "maxval": 0.05, "seed": null}}, "embeddings_regularizer": null, "activity_regularizer": null, "embeddings_constraint": null, "mask_zero": false, "input_length": 23}}, {"class_name": "Flatten", "config": {"name": "flatten_1", "trainable": true, "dtype": "float32", "data_format": "channels_last"}}, {"class_name": "Dense", "config": {"name": "dense_1", "trainable": true, "dtype": "float32", "units": 1, "activation": "sigmoid", "use_bias": true, "kernel_initializer": {"class_name": "VarianceScaling", "config": {"scale": 1.0, "mode": "fan_avg", "distribution": "uniform", "seed": null}}, "bias_initializer": {"class_name": "Zeros", "config": {}}, "kernel_regularizer": null, "bias_regularizer": null, "activity_regularizer": null, "kernel_constraint": null, "bias_constraint": null}}]}, "val_accuracy": [… "test_performance": ["61.51%", "70.03%", "74.66%", "76.34%", "77.14%", "77.35%", "78.15%", "78.12%", "78.73%", "78.49%", "78.82%", "78.79%", "79.07%", "78.95%", "78.64%", "78.92%", "78.64%", "78.49%", "78.15%", "78.21%", "78.09%", "78.12%", "77.84%", "77.87%", "77.78%", "77.44%", "77.78%", "77.29%", "77.26%", "77.02%"]}}, "2020-04-11 16:08:21.698379": {"data": {"TRAIN_PERCENTAGE": 0.8, "SHUFFLE_DATA": true, "PREPROCESS_OPTRIONS": {"remove_links": true, "remove_users": true, "remove_hash": false, "unslang": true, "split_words": true, "stem": true, "remove_punctuations": true, "remove_numbers": true, "to_lower_case": true, "remove_stop_words": true, "remove_not_alpha": true, "join": false}}, "model": {"BATCH_SIZE": 512, "EPOCHS": 20, "VERBOSE": 1, "OPTIMIZER": "rmsprop", "SHUFFLE": true, "EMBEDDING_OPTIONS": {"input_dim": 10338, "output_dim": 256, "input_length": 23}, "config": {"name": "sequential_1", "layers": [{"class_name": "Embedding", "config": {"name": "embedding_1", "trainable": true, "batch_input_shape": [null, 23], "dtype": "float32", "input_dim": 10338, "output_dim": 256, "embeddings_initializer": {"class_name": "RandomUniform", "config": {"minval": -0.05, "maxval": 0.05, "seed": null}}, "embeddings_regularizer": null, "activity_regularizer": null, "embeddings_constraint": null, "mask_zero": false, "input_length": 23}}, {"class_name": "Flatten", "config": {"name": "flatten_1", "trainable": true, "dtype": "float32", "data_format": "channels_last"}}, {"class_name": "Dense", "config": {"name": "dense_1", "trainable": true, "dtype": "float32", "units": 1, "activation": "sigmoid", "use_bias": true, "kernel_initializer": {"class_name": "VarianceScaling", "config": {"scale": 1.0, "mode": "fan_avg", "distribution": "uniform", "seed": null}}, "bias_initializer": {"class_name": "Zeros", "config": {}}, "kernel_regularizer": null, "bias_regularizer": null, "activity_regularizer": null, "kernel_constraint": null, "bias_constraint": null}}]}, "val_accuracy": [… "test_performance": ["67.61%", "73.80%", "75.48%", "77.54%", "77.78%", "78.24%", "78.82%", "78.61%", "78.46%", "78.79%", "78.36%", "78.49%", "77.90%", "77.54%", "77.47%", "77.66%", "77.69%", "77.17%", "77.23%", "76.92%"]}}, "2020-04-11 16:12:47.007040": {"data": {"TRAIN_PERCENTAGE": 0.8, "SHUFFLE_DATA": true, "PREPROCESS_OPTRIONS": {"remove_links": true, "remove_users": true, "remove_hash": false, "unslang": true, "split_words": true, "stem": true, "remove_punctuations": true, "remove_numbers": true, "to_lower_case": true, "remove_stop_words": true, "remove_not_alpha": true, "join": false}}, "model": {"BATCH_SIZE": 512, "EPOCHS": 20, "VERBOSE": 1, "OPTIMIZER": "rmsprop", "SHUFFLE": true, "EMBEDDING_OPTIONS": {"input_dim": 10332, "output_dim": 128, "input_length": 23}, "config": {"name": "sequential_1", "layers": [{"class_name": "Embedding", "config": {"name": "embedding_1", "trainable": true, "batch_input_shape": [null, 23], "dtype": "float32", "input_dim": 10332, "output_dim": 128, "embeddings_initializer": {"class_name": "RandomUniform", "config": {"minval": -0.05, "maxval": 0.05, "seed": null}}, "embeddings_regularizer": null, "activity_regularizer": null, "embeddings_constraint": null, "mask_zero": false, "input_length": 23}}, {"class_name": "Conv1D", "config": {"name": "conv1d_1", "trainable": true, "dtype": "float32", "filters": 128, "kernel_size": [10], "strides": [1], "padding": "valid", "data_format": "channels_last", "dilation_rate": [1], "activation": "relu", "use_bias": true, "kernel_initializer": {"class_name": "VarianceScaling", "config": {"scale": 1.0, "mode": "fan_avg", "distribution": "uniform", "seed": null}}, "bias_initializer": {"class_name": "Zeros", "config": {}}, "kernel_regularizer": null, "bias_regularizer": null, "activity_regularizer": null, "kernel_constraint": null, "bias_constraint": null}}, {"class_name": "GlobalAveragePooling1D", "config": {"name": "global_average_pooling1d_1", "trainable": true, "dtype": "float32", "data_format": "channels_last"}}, {"class_name": "Dense", "config": {"name": "dense_1", "trainable": true, "dtype": "float32", "units": 16, "activation": "relu", "use_bias": true, "kernel_initializer": {"class_name": "VarianceScaling", "config": {"scale": 1.0, "mode": "fan_avg", "distribution": "uniform", "seed": null}}, "bias_initializer": {"class_name": "Zeros", "config": {}}, "kernel_regularizer": null, "bias_regularizer": null, "activity_regularizer": null, "kernel_constraint": null, "bias_constraint": null}}, {"class_name": "Dense", "config": {"name": "dense_2", "trainable": true, "dtype": "float32", "units": 1, "activation": "sigmoid", "use_bias": true, "kernel_initializer": {"class_name": "VarianceScaling", "config": {"scale": 1.0, "mode": "fan_avg", "distribution": "uniform", "seed": null}}, "bias_initializer": {"class_name": "Zeros", "config": {}}, "kernel_regularizer": null, "bias_regularizer": null, "activity_regularizer": null, "kernel_constraint": null, "bias_constraint": null}}]}, "val_accuracy": [… "test_performance": ["65.86%", "73.86%", "76.86%", "77.78%", "77.35%", "76.28%", "77.29%", "74.35%", "75.15%", "76.46%", "76.10%", "73.77%", "75.61%", "70.09%", "75.51%", "75.33%", "75.15%", "75.30%", "73.52%", "74.62%"]}}, "2020-04-11 16:14:11.016448": {"data": {"TRAIN_PERCENTAGE": 0.8, "SHUFFLE_DATA": true, "PREPROCESS_OPTRIONS": {"remove_links": true, "remove_users": true, "remove_hash": true, "unslang": true, "split_words": true, "stem": true, "remove_punctuations": true, "remove_numbers": true, "to_lower_case": true, "remove_stop_words": true, "remove_not_alpha": true, "join": false}}, "model": {"BATCH_SIZE": 512, "EPOCHS": 20, "VERBOSE": 1, "OPTIMIZER": "rmsprop", "SHUFFLE": true, "EMBEDDING_OPTIONS": {"input_dim": 9578, "output_dim": 128, "input_length": 23}, "config": {"name": "sequential_1", "layers": [{"class_name": "Embedding", "config": {"name": "embedding_1", "trainable": true, "batch_input_shape": [null, 23], "dtype": "float32", "input_dim": 9578, "output_dim": 128, "embeddings_initializer": {"class_name": "RandomUniform", "config": {"minval": -0.05, "maxval": 0.05, "seed": null}}, "embeddings_regularizer": null, "activity_regularizer": null, "embeddings_constraint": null, "mask_zero": false, "input_length": 23}}, {"class_name": "GlobalAveragePooling1D", "config": {"name": "global_average_pooling1d_1", "trainable": true, "dtype": "float32", "data_format": "channels_last"}}, {"class_name": "Dense", "config": {"name": "dense_1", "trainable": true, "dtype": "float32", "units": 64, "activation": "relu", "use_bias": true, "kernel_initializer": {"class_name": "VarianceScaling", "config": {"scale": 1.0, "mode": "fan_avg", "distribution": "uniform", "seed": null}}, "bias_initializer": {"class_name": "Zeros", "config": {}}, "kernel_regularizer": null, "bias_regularizer": null, "activity_regularizer": null, "kernel_constraint": null, "bias_constraint": null}}, {"class_name": "Dense", "config": {"name": "dense_2", "trainable": true, "dtype": "float32", "units": 1, "activation": "sigmoid", "use_bias": true, "kernel_initializer": {"class_name": "VarianceScaling", "config": {"scale": 1.0, "mode": "fan_avg", "distribution": "uniform", "seed": null}}, "bias_initializer": {"class_name": "Zeros", "config": {}}, "kernel_regularizer": null, "bias_regularizer": null, "activity_regularizer": null, "kernel_constraint": null, "bias_constraint": null}}]}, "val_accuracy": [… "test_performance": ["57.25%", "63.53%", "73.06%", "74.35%", "78.15%", "78.24%", "78.61%", "79.22%", "79.41%", "79.44%", "79.41%", "79.10%", "79.53%", "79.59%", "79.50%", "79.01%", "79.19%", "77.90%", "78.21%", "78.18%"]}}, "2020-04-11 16:14:37.341143": {"data": {"TRAIN_PERCENTAGE": 0.8, "SHUFFLE_DATA": true, "PREPROCESS_OPTRIONS": {"remove_links": true, "remove_users": true, "remove_hash": true, "unslang": true, "split_words": true, "stem": false, "remove_punctuations": true, "remove_numbers": true, "to_lower_case": true, "remove_stop_words": true, "remove_not_alpha": true, "join": false}}, "model": {"BATCH_SIZE": 512, "EPOCHS": 20, "VERBOSE": 1, "OPTIMIZER": "rmsprop", "SHUFFLE": true, "EMBEDDING_OPTIONS": {"input_dim": 12173, "output_dim": 128, "input_length": 23}, "config": {"name": "sequential_1", "layers": [{"class_name": "Embedding", "config": {"name": "embedding_1", "trainable": true, "batch_input_shape": [null, 23], "dtype": "float32", "input_dim": 12173, "output_dim": 128, "embeddings_initializer": {"class_name": "RandomUniform", "config": {"minval": -0.05, "maxval": 0.05, "seed": null}}, "embeddings_regularizer": null, "activity_regularizer": null, "embeddings_constraint": null, "mask_zero": false, "input_length": 23}}, {"class_name": "GlobalAveragePooling1D", "config": {"name": "global_average_pooling1d_1", "trainable": true, "dtype": "float32", "data_format": "channels_last"}}, {"class_name": "Dense", "config": {"name": "dense_1", "trainable": true, "dtype": "float32", "units": 64, "activation": "relu", "use_bias": true, "kernel_initializer": {"class_name": "VarianceScaling", "config": {"scale": 1.0, "mode": "fan_avg", "distribution": "uniform", "seed": null}}, "bias_initializer": {"class_name": "Zeros", "config": {}}, "kernel_regularizer": null, "bias_regularizer": null, "activity_regularizer": null, "kernel_constraint": null, "bias_constraint": null}}, {"class_name": "Dense", "config": {"name": "dense_2", "trainable": true, "dtype": "float32", "units": 1, "activation": "sigmoid", "use_bias": true, "kernel_initializer": {"class_name": "VarianceScaling", "config": {"scale": 1.0, "mode": "fan_avg", "distribution": "uniform", "seed": null}}, "bias_initializer": {"class_name": "Zeros", "config": {}}, "kernel_regularizer": null, "bias_regularizer": null, "activity_regularizer": null, "kernel_constraint": null, "bias_constraint": null}}]}, "val_accuracy": [… "test_performance": ["57.22%", "62.30%", "68.83%", "74.93%", "78.46%", "77.63%", "79.16%", "79.31%", "79.59%", "79.71%", "79.53%", "79.50%", "79.22%", "79.28%", "79.10%", "78.95%", "78.33%", "78.49%", "79.37%", "79.01%"]}}, "2020-04-11 16:15:25.588092": {"data": {"TRAIN_PERCENTAGE": 0.8, "SHUFFLE_DATA": true, "PREPROCESS_OPTRIONS": {"remove_links": true, "remove_users": true, "remove_hash": false, "unslang": true, "split_words": true, "stem": false, "remove_punctuations": true, "remove_numbers": false, "to_lower_case": true, "remove_stop_words": false, "remove_not_alpha": false, "join": false}}, "model": {"BATCH_SIZE": 512, "EPOCHS": 20, "VERBOSE": 1, "OPTIMIZER": "rmsprop", "SHUFFLE": true, "EMBEDDING_OPTIONS": {"input_dim": 13655, "output_dim": 128, "input_length": 38}, "config": {"name": "sequential_1", "layers": [{"class_name": "Embedding", "config": {"name": "embedding_1", "trainable": true, "batch_input_shape": [null, 38], "dtype": "float32", "input_dim": 13655, "output_dim": 128, "embeddings_initializer": {"class_name": "RandomUniform", "config": {"minval": -0.05, "maxval": 0.05, "seed": null}}, "embeddings_regularizer": null, "activity_regularizer": null, "embeddings_constraint": null, "mask_zero": false, "input_length": 38}}, {"class_name": "GlobalAveragePooling1D", "config": {"name": "global_average_pooling1d_1", "trainable": true, "dtype": "float32", "data_format": "channels_last"}}, {"class_name": "Dense", "config": {"name": "dense_1", "trainable": true, "dtype": "float32", "units": 64, "activation": "relu", "use_bias": true, "kernel_initializer": {"class_name": "VarianceScaling", "config": {"scale": 1.0, "mode": "fan_avg", "distribution": "uniform", "seed": null}}, "bias_initializer": {"class_name": "Zeros", "config": {}}, "kernel_regularizer": null, "bias_regularizer": null, "activity_regularizer": null, "kernel_constraint": null, "bias_constraint": null}}, {"class_name": "Dense", "config": {"name": "dense_2", "trainable": true, "dtype": "float32", "units": 1, "activation": "sigmoid", "use_bias": true, "kernel_initializer": {"class_name": "VarianceScaling", "config": {"scale": 1.0, "mode": "fan_avg", "distribution": "uniform", "seed": null}}, "bias_initializer": {"class_name": "Zeros", "config": {}}, "kernel_regularizer": null, "bias_regularizer": null, "activity_regularizer": null, "kernel_constraint": null, "bias_constraint": null}}]}, "val_accuracy": [… "test_performance": ["57.13%", "60.44%", "66.53%", "75.61%", "76.62%", "77.72%", "78.79%", "79.47%", "79.41%", "80.02%", "79.28%", "79.74%", "79.93%", "79.59%", "79.59%", "79.47%", "78.42%", "79.74%", "79.59%", "79.80%"]}}, "2020-04-11 16:15:57.621426": {"data": {"TRAIN_PERCENTAGE": 0.8, "SHUFFLE_DATA": true, "PREPROCESS_OPTRIONS": {"remove_links": true, "remove_users": true, "remove_hash": false, "unslang": true, "split_words": true, "stem": false, "remove_punctuations": true, "remove_numbers": false, "to_lower_case": true, "remove_stop_words": false, "remove_not_alpha": false, "join": false}}, "model": {"BATCH_SIZE": 512, "EPOCHS": 20, "VERBOSE": 1, "OPTIMIZER": "rmsprop", "SHUFFLE": true, "EMBEDDING_OPTIONS": {"input_dim": 13647, "output_dim": 128, "input_length": 38}, "config": {"name": "sequential_1", "layers": [{"class_name": "Embedding", "config": {"name": "embedding_1", "trainable": true, "batch_input_shape": [null, 38], "dtype": "float32", "input_dim": 13647, "output_dim": 128, "embeddings_initializer": {"class_name": "RandomUniform", "config": {"minval": -0.05, "maxval": 0.05, "seed": null}}, "embeddings_regularizer": null, "activity_regularizer": null, "embeddings_constraint": null, "mask_zero": false, "input_length": 38}}, {"class_name": "GlobalAveragePooling1D", "config": {"name": "global_average_pooling1d_1", "trainable": true, "dtype": "float32", "data_format": "channels_last"}}, {"class_name": "Dense", "config": {"name": "dense_1", "trainable": true, "dtype": "float32", "units": 64, "activation": "relu", "use_bias": true, "kernel_initializer": {"class_name": "VarianceScaling", "config": {"scale": 1.0, "mode": "fan_avg", "distribution": "uniform", "seed": null}}, "bias_initializer": {"class_name": "Zeros", "config": {}}, "kernel_regularizer": null, "bias_regularizer": null, "activity_regularizer": null, "kernel_constraint": null, "bias_constraint": null}}, {"class_name": "Dense", "config": {"name": "dense_2", "trainable": true, "dtype": "float32", "units": 1, "activation": "sigmoid", "use_bias": true, "kernel_initializer": {"class_name": "VarianceScaling", "config": {"scale": 1.0, "mode": "fan_avg", "distribution": "uniform", "seed": null}}, "bias_initializer": {"class_name": "Zeros", "config": {}}, "kernel_regularizer": null, "bias_regularizer": null, "activity_regularizer": null, "kernel_constraint": null, "bias_constraint": null}}]}, "val_accuracy": [… "test_performance": ["57.13%", "61.57%", "70.06%", "75.88%", "79.10%", "78.49%", "79.25%", "79.77%", "79.90%", "79.99%", "79.37%", "79.37%", "79.31%", "79.71%", "79.77%", "79.83%", "79.87%", "79.71%", "79.68%", "79.68%"]}}, "2020-04-11 16:16:54.223529": {"data": {"TRAIN_PERCENTAGE": 0.8, "SHUFFLE_DATA": true, "PREPROCESS_OPTRIONS": {"remove_links": true, "remove_users": true, "remove_hash": false, "unslang": true, "split_words": true, "stem": false, "remove_punctuations": true, "remove_numbers": false, "to_lower_case": true, "remove_stop_words": false, "remove_not_alpha": false, "join": false}}, "model": {"BATCH_SIZE": 512, "EPOCHS": 20, "VERBOSE": 1, "OPTIMIZER": "rmsprop", "SHUFFLE": true, "EMBEDDING_OPTIONS": {"input_dim": 7633, "output_dim": 128, "input_length": 35}, "config": {"name": "sequential_1", "layers": [{"class_name": "Embedding", "config": {"name": "embedding_1", "trainable": true, "batch_input_shape": [null, 35], "dtype": "float32", "input_dim": 7633, "output_dim": 128, "embeddings_initializer": {"class_name": "RandomUniform", "config": {"minval": -0.05, "maxval": 0.05, "seed": null}}, "embeddings_regularizer": null, "activity_regularizer": null, "embeddings_constraint": null, "mask_zero": false, "input_length": 35}}, {"class_name": "GlobalAveragePooling1D", "config": {"name": "global_average_pooling1d_1", "trainable": true, "dtype": "float32", "data_format": "channels_last"}}, {"class_name": "Dense", "config": {"name": "dense_1", "trainable": true, "dtype": "float32", "units": 64, "activation": "relu", "use_bias": true, "kernel_initializer": {"class_name": "VarianceScaling", "config": {"scale": 1.0, "mode": "fan_avg", "distribution": "uniform", "seed": null}}, "bias_initializer": {"class_name": "Zeros", "config": {}}, "kernel_regularizer": null, "bias_regularizer": null, "activity_regularizer": null, "kernel_constraint": null, "bias_constraint": null}}, {"class_name": "Dense", "config": {"name": "dense_2", "trainable": true, "dtype": "float32", "units": 1, "activation": "sigmoid", "use_bias": true, "kernel_initializer": {"class_name": "VarianceScaling", "config": {"scale": 1.0, "mode": "fan_avg", "distribution": "uniform", "seed": null}}, "bias_initializer": {"class_name": "Zeros", "config": {}}, "kernel_regularizer": null, "bias_regularizer": null, "activity_regularizer": null, "kernel_constraint": null, "bias_constraint": null}}]}, "val_accuracy": [… "test_performance": ["57.16%", "61.11%", "69.66%", "72.17%", "75.48%", "76.71%", "76.71%", "78.06%", "79.19%", "78.67%", "78.73%", "79.53%", "79.53%", "79.53%", "79.59%", "79.68%", "79.44%", "79.53%", "79.37%", "79.25%"]}}, "2020-04-11 16:17:50.696496": {"data": {"TRAIN_PERCENTAGE": 0.8, "SHUFFLE_DATA": true, "PREPROCESS_OPTRIONS": {"remove_links": true, "remove_users": true, "remove_hash": false, "unslang": true, "split_words": true, "stem": false, "remove_punctuations": true, "remove_numbers": false, "to_lower_case": true, "remove_stop_words": true, "remove_not_alpha": false, "join": false}}, "model": {"BATCH_SIZE": 512, "EPOCHS": 20, "VERBOSE": 1, "OPTIMIZER": "rmsprop", "SHUFFLE": true, "EMBEDDING_OPTIONS": {"input_dim": 13581, "output_dim": 128, "input_length": 27}, "config": {"name": "sequential_1", "layers": [{"class_name": "Embedding", "config": {"name": "embedding_1", "trainable": true, "batch_input_shape": [null, 27], "dtype": "float32", "input_dim": 13581, "output_dim": 128, "embeddings_initializer": {"class_name": "RandomUniform", "config": {"minval": -0.05, "maxval": 0.05, "seed": null}}, "embeddings_regularizer": null, "activity_regularizer": null, "embeddings_constraint": null, "mask_zero": false, "input_length": 27}}, {"class_name": "GlobalAveragePooling1D", "config": {"name": "global_average_pooling1d_1", "trainable": true, "dtype": "float32", "data_format": "channels_last"}}, {"class_name": "Dense", "config": {"name": "dense_1", "trainable": true, "dtype": "float32", "units": 64, "activation": "relu", "use_bias": true, "kernel_initializer": {"class_name": "VarianceScaling", "config": {"scale": 1.0, "mode": "fan_avg", "distribution": "uniform", "seed": null}}, "bias_initializer": {"class_name": "Zeros", "config": {}}, "kernel_regularizer": null, "bias_regularizer": null, "activity_regularizer": null, "kernel_constraint": null, "bias_constraint": null}}, {"class_name": "Dense", "config": {"name": "dense_2", "trainable": true, "dtype": "float32", "units": 1, "activation": "sigmoid", "use_bias": true, "kernel_initializer": {"class_name": "VarianceScaling", "config": {"scale": 1.0, "mode": "fan_avg", "distribution": "uniform", "seed": null}}, "bias_initializer": {"class_name": "Zeros", "config": {}}, "kernel_regularizer": null, "bias_regularizer": null, "activity_regularizer": null, "kernel_constraint": null, "bias_constraint": null}}]}, "val_accuracy": [… "test_performance": ["57.37%", "60.44%", "68.92%", "70.86%", "75.39%", "75.91%", "77.81%", "79.01%", "79.44%", "79.41%", "79.62%", "79.41%", "79.16%", "79.77%", "79.22%", "79.28%", "78.73%", "78.03%", "77.81%", "79.56%"]}}, "2020-04-11 16:18:22.351688": {"data": {"TRAIN_PERCENTAGE": 0.8, "SHUFFLE_DATA": true, "PREPROCESS_OPTRIONS": {"remove_links": true, "remove_users": true, "remove_hash": false, "unslang": true, "split_words": true, "stem": false, "remove_punctuations": true, "remove_numbers": true, "to_lower_case": true, "remove_stop_words": true, "remove_not_alpha": true, "join": false}}, "model": {"BATCH_SIZE": 512, "EPOCHS": 20, "VERBOSE": 1, "OPTIMIZER": "rmsprop", "SHUFFLE": true, "EMBEDDING_OPTIONS": {"input_dim": 12862, "output_dim": 128, "input_length": 23}, "config": {"name": "sequential_1", "layers": [{"class_name": "Embedding", "config": {"name": "embedding_1", "trainable": true, "batch_input_shape": [null, 23], "dtype": "float32", "input_dim": 12862, "output_dim": 128, "embeddings_initializer": {"class_name": "RandomUniform", "config": {"minval": -0.05, "maxval": 0.05, "seed": null}}, "embeddings_regularizer": null, "activity_regularizer": null, "embeddings_constraint": null, "mask_zero": false, "input_length": 23}}, {"class_name": "GlobalAveragePooling1D", "config": {"name": "global_average_pooling1d_1", "trainable": true, "dtype": "float32", "data_format": "channels_last"}}, {"class_name": "Dense", "config": {"name": "dense_1", "trainable": true, "dtype": "float32", "units": 64, "activation": "relu", "use_bias": true, "kernel_initializer": {"class_name": "VarianceScaling", "config": {"scale": 1.0, "mode": "fan_avg", "distribution": "uniform", "seed": null}}, "bias_initializer": {"class_name": "Zeros", "config": {}}, "kernel_regularizer": null, "bias_regularizer": null, "activity_regularizer": null, "kernel_constraint": null, "bias_constraint": null}}, {"class_name": "Dense", "config": {"name": "dense_2", "trainable": true, "dtype": "float32", "units": 1, "activation": "sigmoid", "use_bias": true, "kernel_initializer": {"class_name": "VarianceScaling", "config": {"scale": 1.0, "mode": "fan_avg", "distribution": "uniform", "seed": null}}, "bias_initializer": {"class_name": "Zeros", "config": {}}, "kernel_regularizer": null, "bias_regularizer": null, "activity_regularizer": null, "kernel_constraint": null, "bias_constraint": null}}]}, "val_accuracy": [… "test_performance": ["57.13%", "63.38%", "68.25%", "74.90%", "76.13%", "78.58%", "79.22%", "78.98%", "79.07%", "79.13%", "79.47%", "79.07%", "78.76%", "78.76%", "78.52%", "78.95%", "78.61%", "77.90%", "78.21%", "77.87%"]}}, "2020-04-11 16:19:13.428685": {"data": {"TRAIN_PERCENTAGE": 0.8, "SHUFFLE_DATA": true, "PREPROCESS_OPTRIONS": {"remove_links": true, "remove_users": true, "remove_hash": true, "unslang": true, "split_words": true, "stem": true, "remove_punctuations": true, "remove_numbers": true, "to_lower_case": true, "remove_stop_words": true, "remove_not_alpha": true, "join": false}}, "model": {"BATCH_SIZE": 512, "EPOCHS": 20, "VERBOSE": 1, "OPTIMIZER": "rmsprop", "SHUFFLE": true, "EMBEDDING_OPTIONS": {"input_dim": 9555, "output_dim": 128, "input_length": 21}, "config": {"name": "sequential_1", "layers": [{"class_name": "Embedding", "config": {"name": "embedding_1", "trainable": true, "batch_input_shape": [null, 21], "dtype": "float32", "input_dim": 9555, "output_dim": 128, "embeddings_initializer": {"class_name": "RandomUniform", "config": {"minval": -0.05, "maxval": 0.05, "seed": null}}, "embeddings_regularizer": null, "activity_regularizer": null, "embeddings_constraint": null, "mask_zero": false, "input_length": 21}}, {"class_name": "GlobalAveragePooling1D", "config": {"name": "global_average_pooling1d_1", "trainable": true, "dtype": "float32", "data_format": "channels_last"}}, {"class_name": "Dense", "config": {"name": "dense_1", "trainable": true, "dtype": "float32", "units": 64, "activation": "relu", "use_bias": true, "kernel_initializer": {"class_name": "VarianceScaling", "config": {"scale": 1.0, "mode": "fan_avg", "distribution": "uniform", "seed": null}}, "bias_initializer": {"class_name": "Zeros", "config": {}}, "kernel_regularizer": null, "bias_regularizer": null, "activity_regularizer": null, "kernel_constraint": null, "bias_constraint": null}}, {"class_name": "Dense", "config": {"name": "dense_2", "trainable": true, "dtype": "float32", "units": 1, "activation": "sigmoid", "use_bias": true, "kernel_initializer": {"class_name": "VarianceScaling", "config": {"scale": 1.0, "mode": "fan_avg", "distribution": "uniform", "seed": null}}, "bias_initializer": {"class_name": "Zeros", "config": {}}, "kernel_regularizer": null, "bias_regularizer": null, "activity_regularizer": null, "kernel_constraint": null, "bias_constraint": null}}]}, "val_accuracy": [… "test_performance": ["57.74%", "65.86%", "72.91%", "77.44%", "77.54%", "78.39%", "78.12%", "79.10%", "78.92%", "79.50%", "79.22%", "78.58%", "78.98%", "79.16%", "78.64%", "78.58%", "78.24%", "78.12%", "77.75%", "77.60%"]}}, "2020-04-11 16:42:19.759973": {"data": {"TRAIN_PERCENTAGE": 0.8, "SHUFFLE_DATA": true, "PREPROCESS_OPTRIONS": {"remove_links": true, "remove_users": true, "remove_hash": true, "unslang": true, "split_words": true, "stem": true, "remove_punctuations": true, "remove_numbers": true, "to_lower_case": true, "remove_stop_words": true, "remove_not_alpha": true, "join": false}}, "model": {"BATCH_SIZE": 512, "EPOCHS": 20, "VERBOSE": 1, "OPTIMIZER": "rmsprop", "SHUFFLE": true, "EMBEDDING_OPTIONS": {"input_dim": 10855, "output_dim": 128, "input_length": 23}, "config": {"name": "sequential_1", "layers": [{"class_name": "Embedding", "config": {"name": "embedding_1", "trainable": true, "batch_input_shape": [null, 23], "dtype": "float32", "input_dim": 10855, "output_dim": 128, "embeddings_initializer": {"class_name": "RandomUniform", "config": {"minval": -0.05, "maxval": 0.05, "seed": null}}, "embeddings_regularizer": null, "activity_regularizer": null, "embeddings_constraint": null, "mask_zero": false, "input_length": 23}}, {"class_name": "GlobalAveragePooling1D", "config": {"name": "global_average_pooling1d_1", "trainable": true, "dtype": "float32", "data_format": "channels_last"}}, {"class_name": "Dense", "config": {"name": "dense_1", "trainable": true, "dtype": "float32", "units": 64, "activation": "relu", "use_bias": true, "kernel_initializer": {"class_name": "VarianceScaling", "config": {"scale": 1.0, "mode": "fan_avg", "distribution": "uniform", "seed": null}}, "bias_initializer": {"class_name": "Zeros", "config": {}}, "kernel_regularizer": null, "bias_regularizer": null, "activity_regularizer": null, "kernel_constraint": null, "bias_constraint": null}}, {"class_name": "Dense", "config": {"name": "dense_2", "trainable": true, "dtype": "float32", "units": 1, "activation": "sigmoid", "use_bias": true, "kernel_initializer": {"class_name": "VarianceScaling", "config": {"scale": 1.0, "mode": "fan_avg", "distribution": "uniform", "seed": null}}, "bias_initializer": {"class_name": "Zeros", "config": {}}, "kernel_regularizer": null, "bias_regularizer": null, "activity_regularizer": null, "kernel_constraint": null, "bias_constraint": null}}]}, "val_accuracy": [… "test_performance": ["57.25%", "64.63%", "72.30%", "75.39%", "77.05%", "78.46%", "78.30%", "78.36%", "78.95%", "79.37%", "79.53%", "79.19%", "79.04%", "78.85%", "78.70%", "78.82%", "78.88%", "78.00%", "78.52%", "78.42%"]}}, "2020-04-11 16:43:11.892447": {"data": {"TRAIN_PERCENTAGE": 0.8, "SHUFFLE_DATA": true, "PREPROCESS_OPTRIONS": {"remove_links": true, "remove_users": true, "remove_hash": true, "unslang": true, "split_words": true, "stem": true, "remove_punctuations": true, "remove_numbers": true, "to_lower_case": true, "remove_stop_words": true, "remove_not_alpha": true, "join": false}}, "model": {"BATCH_SIZE": 512, "EPOCHS": 20, "VERBOSE": 1, "OPTIMIZER": "rmsprop", "SHUFFLE": true, "EMBEDDING_OPTIONS": {"input_dim": 10855, "output_dim": 256, "input_length": 23}, "config": {"name": "sequential_1", "layers": [{"class_name": "Embedding", "config": {"name": "embedding_1", "trainable": true, "batch_input_shape": [null, 23], "dtype": "float32", "input_dim": 10855, "output_dim": 256, "embeddings_initializer": {"class_name": "RandomUniform", "config": {"minval": -0.05, "maxval": 0.05, "seed": null}}, "embeddings_regularizer": null, "activity_regularizer": null, "embeddings_constraint": null, "mask_zero": false, "input_length": 23}}, {"class_name": "GlobalAveragePooling1D", "config": {"name": "global_average_pooling1d_1", "trainable": true, "dtype": "float32", "data_format": "channels_last"}}, {"class_name": "Dense", "config": {"name": "dense_1", "trainable": true, "dtype": "float32", "units": 64, "activation": "relu", "use_bias": true, "kernel_initializer": {"class_name": "VarianceScaling", "config": {"scale": 1.0, "mode": "fan_avg", "distribution": "uniform", "seed": null}}, "bias_initializer": {"class_name": "Zeros", "config": {}}, "kernel_regularizer": null, "bias_regularizer": null, "activity_regularizer": null, "kernel_constraint": null, "bias_constraint": null}}, {"class_name": "Dense", "config": {"name": "dense_2", "trainable": true, "dtype": "float32", "units": 1, "activation": "sigmoid", "use_bias": true, "kernel_initializer": {"class_name": "VarianceScaling", "config": {"scale": 1.0, "mode": "fan_avg", "distribution": "uniform", "seed": null}}, "bias_initializer": {"class_name": "Zeros", "config": {}}, "kernel_regularizer": null, "bias_regularizer": null, "activity_regularizer": null, "kernel_constraint": null, "bias_constraint": null}}]}, "val_accuracy": [… "test_performance": ["61.05%", "75.02%", "75.54%", "78.15%", "77.87%", "78.79%", "78.67%", "78.70%", "78.24%", "78.79%", "78.42%", "78.67%", "75.67%", "78.06%", "78.52%", "78.21%", "77.97%", "78.15%", "76.74%", "76.03%"]}}, "2020-04-11 16:44:17.649967": {"data": {"TRAIN_PERCENTAGE": 0.8, "SHUFFLE_DATA": true, "PREPROCESS_OPTRIONS": {"remove_links": true, "remove_users": true, "remove_hash": true, "unslang": true, "split_words": true, "stem": true, "remove_punctuations": true, "remove_numbers": true, "to_lower_case": true, "remove_stop_words": true, "remove_not_alpha": true, "join": false}}, "model": {"BATCH_SIZE": 512, "EPOCHS": 20, "VERBOSE": 1, "OPTIMIZER": "rmsprop", "SHUFFLE": true, "EMBEDDING_OPTIONS": {"input_dim": 10855, "output_dim": 64, "input_length": 23}, "config": {"name": "sequential_1", "layers": [{"class_name": "Embedding", "config": {"name": "embedding_1", "trainable": true, "batch_input_shape": [null, 23], "dtype": "float32", "input_dim": 10855, "output_dim": 64, "embeddings_initializer": {"class_name": "RandomUniform", "config": {"minval": -0.05, "maxval": 0.05, "seed": null}}, "embeddings_regularizer": null, "activity_regularizer": null, "embeddings_constraint": null, "mask_zero": false, "input_length": 23}}, {"class_name": "GlobalAveragePooling1D", "config": {"name": "global_average_pooling1d_1", "trainable": true, "dtype": "float32", "data_format": "channels_last"}}, {"class_name": "Dense", "config": {"name": "dense_1", "trainable": true, "dtype": "float32", "units": 64, "activation": "relu", "use_bias": true, "kernel_initializer": {"class_name": "VarianceScaling", "config": {"scale": 1.0, "mode": "fan_avg", "distribution": "uniform", "seed": null}}, "bias_initializer": {"class_name": "Zeros", "config": {}}, "kernel_regularizer": null, "bias_regularizer": null, "activity_regularizer": null, "kernel_constraint": null, "bias_constraint": null}}, {"class_name": "Dense", "config": {"name": "dense_2", "trainable": true, "dtype": "float32", "units": 1, "activation": "sigmoid", "use_bias": true, "kernel_initializer": {"class_name": "VarianceScaling", "config": {"scale": 1.0, "mode": "fan_avg", "distribution": "uniform", "seed": null}}, "bias_initializer": {"class_name": "Zeros", "config": {}}, "kernel_regularizer": null, "bias_regularizer": null, "activity_regularizer": null, "kernel_constraint": null, "bias_constraint": null}}]}, "val_accuracy": [… "test_performance": ["57.06%", "58.87%", "66.32%", "70.70%", "75.82%", "76.77%", "77.41%", "77.44%", "78.73%", "78.85%", "78.73%", "78.85%", "78.98%", "79.25%", "79.19%", "78.36%", "79.10%", "79.22%", "78.67%", "78.98%"]}}, "2020-04-11 16:44:39.049822": {"data": {"TRAIN_PERCENTAGE": 0.8, "SHUFFLE_DATA": true, "PREPROCESS_OPTRIONS": {"remove_links": true, "remove_users": true, "remove_hash": true, "unslang": true, "split_words": true, "stem": true, "remove_punctuations": true, "remove_numbers": true, "to_lower_case": true, "remove_stop_words": true, "remove_not_alpha": true, "join": false}}, "model": {"BATCH_SIZE": 512, "EPOCHS": 20, "VERBOSE": 1, "OPTIMIZER": "rmsprop", "SHUFFLE": true, "EMBEDDING_OPTIONS": {"input_dim": 10855, "output_dim": 32, "input_length": 23}, "config": {"name": "sequential_1", "layers": [{"class_name": "Embedding", "config": {"name": "embedding_1", "trainable": true, "batch_input_shape": [null, 23], "dtype": "float32", "input_dim": 10855, "output_dim": 32, "embeddings_initializer": {"class_name": "RandomUniform", "config": {"minval": -0.05, "maxval": 0.05, "seed": null}}, "embeddings_regularizer": null, "activity_regularizer": null, "embeddings_constraint": null, "mask_zero": false, "input_length": 23}}, {"class_name": "GlobalAveragePooling1D", "config": {"name": "global_average_pooling1d_1", "trainable": true, "dtype": "float32", "data_format": "channels_last"}}, {"class_name": "Dense", "config": {"name": "dense_1", "trainable": true, "dtype": "float32", "units": 64, "activation": "relu", "use_bias": true, "kernel_initializer": {"class_name": "VarianceScaling", "config": {"scale": 1.0, "mode": "fan_avg", "distribution": "uniform", "seed": null}}, "bias_initializer": {"class_name": "Zeros", "config": {}}, "kernel_regularizer": null, "bias_regularizer": null, "activity_regularizer": null, "kernel_constraint": null, "bias_constraint": null}}, {"class_name": "Dense", "config": {"name": "dense_2", "trainable": true, "dtype": "float32", "units": 1, "activation": "sigmoid", "use_bias": true, "kernel_initializer": {"class_name": "VarianceScaling", "config": {"scale": 1.0, "mode": "fan_avg", "distribution": "uniform", "seed": null}}, "bias_initializer": {"class_name": "Zeros", "config": {}}, "kernel_regularizer": null, "bias_regularizer": null, "activity_regularizer": null, "kernel_constraint": null, "bias_constraint": null}}]}, "val_accuracy": [… "test_performance": ["57.03%", "57.19%", "59.06%", "63.75%", "69.02%", "71.38%", "74.20%", "76.34%", "77.26%", "77.38%", "77.51%", "77.78%", "78.12%", "78.33%", "78.58%", "78.85%", "79.07%", "78.85%", "78.67%", "78.76%"]}}, "2020-04-11 16:45:26.359110": {"data": {"TRAIN_PERCENTAGE": 0.8, "SHUFFLE_DATA": false, "PREPROCESS_OPTRIONS": {"remove_links": true, "remove_users": true, "remove_hash": true, "unslang": true, "split_words": true, "stem": true, "remove_punctuations": true, "remove_numbers": true, "to_lower_case": true, "remove_stop_words": true, "remove_not_alpha": true, "join": false}}, "model": {"BATCH_SIZE": 512, "EPOCHS": 20, "VERBOSE": 1, "OPTIMIZER": "rmsprop", "SHUFFLE": false, "EMBEDDING_OPTIONS": {"input_dim": 10855, "output_dim": 32, "input_length": 23}, "config": {"name": "sequential_1", "layers": [{"class_name": "Embedding", "config": {"name": "embedding_1", "trainable": true, "batch_input_shape": [null, 23], "dtype": "float32", "input_dim": 10855, "output_dim": 32, "embeddings_initializer": {"class_name": "RandomUniform", "config": {"minval": -0.05, "maxval": 0.05, "seed": null}}, "embeddings_regularizer": null, "activity_regularizer": null, "embeddings_constraint": null, "mask_zero": false, "input_length": 23}}, {"class_name": "GlobalAveragePooling1D", "config": {"name": "global_average_pooling1d_1", "trainable": true, "dtype": "float32", "data_format": "channels_last"}}, {"class_name": "Dense", "config": {"name": "dense_1", "trainable": true, "dtype": "float32", "units": 64, "activation": "relu", "use_bias": true, "kernel_initializer": {"class_name": "VarianceScaling", "config": {"scale": 1.0, "mode": "fan_avg", "distribution": "uniform", "seed": null}}, "bias_initializer": {"class_name": "Zeros", "config": {}}, "kernel_regularizer": null, "bias_regularizer": null, "activity_regularizer": null, "kernel_constraint": null, "bias_constraint": null}}, {"class_name": "Dense", "config": {"name": "dense_2", "trainable": true, "dtype": "float32", "units": 1, "activation": "sigmoid", "use_bias": true, "kernel_initializer": {"class_name": "VarianceScaling", "config": {"scale": 1.0, "mode": "fan_avg", "distribution": "uniform", "seed": null}}, "bias_initializer": {"class_name": "Zeros", "config": {}}, "kernel_regularizer": null, "bias_regularizer": null, "activity_regularizer": null, "kernel_constraint": null, "bias_constraint": null}}]}, "val_accuracy": [… "test_performance": ["57.03%", "57.03%", "57.13%", "57.25%", "58.20%", "60.16%", "63.53%", "67.21%", "71.04%", "73.67%", "75.21%", "76.37%", "77.72%", "77.97%", "77.78%", "77.90%", "78.24%", "78.52%", "78.36%", "78.46%"]}}, "2020-04-11 16:45:44.774741": {"data": {"TRAIN_PERCENTAGE": 0.8, "SHUFFLE_DATA": false, "PREPROCESS_OPTRIONS": {"remove_links": true, "remove_users": true, "remove_hash": true, "unslang": true, "split_words": true, "stem": true, "remove_punctuations": true, "remove_numbers": true, "to_lower_case": true, "remove_stop_words": true, "remove_not_alpha": true, "join": false}}, "model": {"BATCH_SIZE": 512, "EPOCHS": 20, "VERBOSE": 1, "OPTIMIZER": "rmsprop", "SHUFFLE": false, "EMBEDDING_OPTIONS": {"input_dim": 10855, "output_dim": 32, "input_length": 23}, "config": {"name": "sequential_1", "layers": [{"class_name": "Embedding", "config": {"name": "embedding_1", "trainable": true, "batch_input_shape": [null, 23], "dtype": "float32", "input_dim": 10855, "output_dim": 32, "embeddings_initializer": {"class_name": "RandomUniform", "config": {"minval": -0.05, "maxval": 0.05, "seed": null}}, "embeddings_regularizer": null, "activity_regularizer": null, "embeddings_constraint": null, "mask_zero": false, "input_length": 23}}, {"class_name": "GlobalAveragePooling1D", "config": {"name": "global_average_pooling1d_1", "trainable": true, "dtype": "float32", "data_format": "channels_last"}}, {"class_name": "Dense", "config": {"name": "dense_1", "trainable": true, "dtype": "float32", "units": 64, "activation": "relu", "use_bias": true, "kernel_initializer": {"class_name": "VarianceScaling", "config": {"scale": 1.0, "mode": "fan_avg", "distribution": "uniform", "seed": null}}, "bias_initializer": {"class_name": "Zeros", "config": {}}, "kernel_regularizer": null, "bias_regularizer": null, "activity_regularizer": null, "kernel_constraint": null, "bias_constraint": null}}, {"class_name": "Dense", "config": {"name": "dense_2", "trainable": true, "dtype": "float32", "units": 1, "activation": "sigmoid", "use_bias": true, "kernel_initializer": {"class_name": "VarianceScaling", "config": {"scale": 1.0, "mode": "fan_avg", "distribution": "uniform", "seed": null}}, "bias_initializer": {"class_name": "Zeros", "config": {}}, "kernel_regularizer": null, "bias_regularizer": null, "activity_regularizer": null, "kernel_constraint": null, "bias_constraint": null}}]}, "val_accuracy": [… "test_performance": ["57.03%", "57.03%", "57.19%", "57.28%", "58.41%", "60.47%", "63.62%", "67.55%", "71.62%", "73.80%", "75.79%", "76.68%", "77.54%", "77.66%", "77.93%", "78.06%", "78.12%", "78.46%", "78.52%", "78.61%"]}}, "2020-04-11 16:46:12.002273": {"data": {"TRAIN_PERCENTAGE": 0.8, "SHUFFLE_DATA": false, "PREPROCESS_OPTRIONS": {"remove_links": true, "remove_users": true, "remove_hash": true, "unslang": true, "split_words": true, "stem": true, "remove_punctuations": true, "remove_numbers": true, "to_lower_case": true, "remove_stop_words": true, "remove_not_alpha": true, "join": false}}, "model": {"BATCH_SIZE": 512, "EPOCHS": 50, "VERBOSE": 1, "OPTIMIZER": "rmsprop", "SHUFFLE": false, "EMBEDDING_OPTIONS": {"input_dim": 10855, "output_dim": 32, "input_length": 23}, "config": {"name": "sequential_1", "layers": [{"class_name": "Embedding", "config": {"name": "embedding_1", "trainable": true, "batch_input_shape": [null, 23], "dtype": "float32", "input_dim": 10855, "output_dim": 32, "embeddings_initializer": {"class_name": "RandomUniform", "config": {"minval": -0.05, "maxval": 0.05, "seed": null}}, "embeddings_regularizer": null, "activity_regularizer": null, "embeddings_constraint": null, "mask_zero": false, "input_length": 23}}, {"class_name": "GlobalAveragePooling1D", "config": {"name": "global_average_pooling1d_1", "trainable": true, "dtype": "float32", "data_format": "channels_last"}}, {"class_name": "Dense", "config": {"name": "dense_1", "trainable": true, "dtype": "float32", "units": 64, "activation": "relu", "use_bias": true, "kernel_initializer": {"class_name": "VarianceScaling", "config": {"scale": 1.0, "mode": "fan_avg", "distribution": "uniform", "seed": null}}, "bias_initializer": {"class_name": "Zeros", "config": {}}, "kernel_regularizer": null, "bias_regularizer": null, "activity_regularizer": null, "kernel_constraint": null, "bias_constraint": null}}, {"class_name": "Dense", "config": {"name": "dense_2", "trainable": true, "dtype": "float32", "units": 1, "activation": "sigmoid", "use_bias": true, "kernel_initializer": {"class_name": "VarianceScaling", "config": {"scale": 1.0, "mode": "fan_avg", "distribution": "uniform", "seed": null}}, "bias_initializer": {"class_name": "Zeros", "config": {}}, "kernel_regularizer": null, "bias_regularizer": null, "activity_regularizer": null, "kernel_constraint": null, "bias_constraint": null}}]}, "val_accuracy": [… "test_performance": ["57.03%", "57.03%", "57.03%", "57.25%", "58.17%", "60.22%", "63.78%", "67.36%", "70.49%", "73.40%", "74.96%", "76.22%", "77.38%", "77.57%", "77.78%", "77.90%", "78.09%", "78.36%", "78.46%", "78.49%", "78.64%", "78.70%", "78.88%", "78.85%", "78.79%", "78.55%", "78.61%", "78.52%", "78.39%", "78.42%", "78.24%", "77.97%", "78.00%", "77.84%", "77.60%", "77.38%", "77.32%", "77.08%", "76.71%", "76.98%", "76.62%", "76.16%", "76.28%", "75.91%", "76.25%", "75.85%", "75.91%", "75.70%", "75.82%", "75.45%"]}}, "2020-04-11 16:46:44.572879": {"data": {"TRAIN_PERCENTAGE": 0.8, "SHUFFLE_DATA": false, "PREPROCESS_OPTRIONS": {"remove_links": true, "remove_users": true, "remove_hash": true, "unslang": true, "split_words": true, "stem": true, "remove_punctuations": true, "remove_numbers": true, "to_lower_case": true, "remove_stop_words": true, "remove_not_alpha": true, "join": false}}, "model": {"BATCH_SIZE": 512, "EPOCHS": 30, "VERBOSE": 1, "OPTIMIZER": "rmsprop", "SHUFFLE": false, "EMBEDDING_OPTIONS": {"input_dim": 10855, "output_dim": 128, "input_length": 23}, "config": {"name": "sequential_1", "layers": [{"class_name": "Embedding", "config": {"name": "embedding_1", "trainable": true, "batch_input_shape": [null, 23], "dtype": "float32", "input_dim": 10855, "output_dim": 128, "embeddings_initializer": {"class_name": "RandomUniform", "config": {"minval": -0.05, "maxval": 0.05, "seed": null}}, "embeddings_regularizer": null, "activity_regularizer": null, "embeddings_constraint": null, "mask_zero": false, "input_length": 23}}, {"class_name": "GlobalAveragePooling1D", "config": {"name": "global_average_pooling1d_1", "trainable": true, "dtype": "float32", "data_format": "channels_last"}}, {"class_name": "Dense", "config": {"name": "dense_1", "trainable": true, "dtype": "float32", "units": 64, "activation": "relu", "use_bias": true, "kernel_initializer": {"class_name": "VarianceScaling", "config": {"scale": 1.0, "mode": "fan_avg", "distribution": "uniform", "seed": null}}, "bias_initializer": {"class_name": "Zeros", "config": {}}, "kernel_regularizer": null, "bias_regularizer": null, "activity_regularizer": null, "kernel_constraint": null, "bias_constraint": null}}, {"class_name": "Dense", "config": {"name": "dense_2", "trainable": true, "dtype": "float32", "units": 1, "activation": "sigmoid", "use_bias": true, "kernel_initializer": {"class_name": "VarianceScaling", "config": {"scale": 1.0, "mode": "fan_avg", "distribution": "uniform", "seed": null}}, "bias_initializer": {"class_name": "Zeros", "config": {}}, "kernel_regularizer": null, "bias_regularizer": null, "activity_regularizer": null, "kernel_constraint": null, "bias_constraint": null}}]}, "val_accuracy": [… "test_performance": ["57.03%", "57.25%", "59.12%", "65.12%", "71.31%", "75.15%", "76.77%", "78.00%", "78.06%", "78.30%", "78.58%", "78.42%", "78.36%", "78.49%", "78.27%", "78.46%", "78.39%", "78.36%", "78.36%", "77.72%", "77.66%", "77.54%", "76.95%", "76.98%", "76.19%", "76.89%", "75.88%", "76.19%", "75.15%", "76.03%"]}}, "2020-04-11 16:47:11.147043": {"data": {"TRAIN_PERCENTAGE": 0.8, "SHUFFLE_DATA": false, "PREPROCESS_OPTRIONS": {"remove_links": true, "remove_users": true, "remove_hash": true, "unslang": true, "split_words": true, "stem": true, "remove_punctuations": true, "remove_numbers": true, "to_lower_case": true, "remove_stop_words": true, "remove_not_alpha": true, "join": false}}, "model": {"BATCH_SIZE": 512, "EPOCHS": 30, "VERBOSE": 1, "OPTIMIZER": "rmsprop", "SHUFFLE": false, "EMBEDDING_OPTIONS": {"input_dim": 10855, "output_dim": 16, "input_length": 23}, "config": {"name": "sequential_1", "layers": [{"class_name": "Embedding", "config": {"name": "embedding_1", "trainable": true, "batch_input_shape": [null, 23], "dtype": "float32", "input_dim": 10855, "output_dim": 16, "embeddings_initializer": {"class_name": "RandomUniform", "config": {"minval": -0.05, "maxval": 0.05, "seed": null}}, "embeddings_regularizer": null, "activity_regularizer": null, "embeddings_constraint": null, "mask_zero": false, "input_length": 23}}, {"class_name": "GlobalAveragePooling1D", "config": {"name": "global_average_pooling1d_1", "trainable": true, "dtype": "float32", "data_format": "channels_last"}}, {"class_name": "Dense", "config": {"name": "dense_1", "trainable": true, "dtype": "float32", "units": 64, "activation": "relu", "use_bias": true, "kernel_initializer": {"class_name": "VarianceScaling", "config": {"scale": 1.0, "mode": "fan_avg", "distribution": "uniform", "seed": null}}, "bias_initializer": {"class_name": "Zeros", "config": {}}, "kernel_regularizer": null, "bias_regularizer": null, "activity_regularizer": null, "kernel_constraint": null, "bias_constraint": null}}, {"class_name": "Dense", "config": {"name": "dense_2", "trainable": true, "dtype": "float32", "units": 1, "activation": "sigmoid", "use_bias": true, "kernel_initializer": {"class_name": "VarianceScaling", "config": {"scale": 1.0, "mode": "fan_avg", "distribution": "uniform", "seed": null}}, "bias_initializer": {"class_name": "Zeros", "config": {}}, "kernel_regularizer": null, "bias_regularizer": null, "activity_regularizer": null, "kernel_constraint": null, "bias_constraint": null}}]}, "val_accuracy": [… "test_performance": ["57.03%", "57.03%", "57.03%", "57.13%", "57.28%", "57.71%", "58.87%", "60.37%", "63.07%", "66.26%", "68.74%", "71.87%", "73.43%", "74.66%", "75.79%", "76.37%", "77.17%", "77.57%", "77.81%", "77.87%", "78.09%", "78.39%", "78.39%", "78.36%", "78.46%", "78.49%", "78.61%", "78.52%", "78.46%", "78.39%"]}}, "2020-04-11 16:47:42.059276": {"data": {"TRAIN_PERCENTAGE": 0.8, "SHUFFLE_DATA": false, "PREPROCESS_OPTRIONS": {"remove_links": true, "remove_users": true, "remove_hash": true, "unslang": true, "split_words": true, "stem": true, "remove_punctuations": true, "remove_numbers": true, "to_lower_case": true, "remove_stop_words": true, "remove_not_alpha": true, "join": false}}, "model": {"BATCH_SIZE": 512, "EPOCHS": 30, "VERBOSE": 1, "OPTIMIZER": "rmsprop", "SHUFFLE": false, "EMBEDDING_OPTIONS": {"input_dim": 10855, "output_dim": 64, "input_length": 23}, "config": {"name": "sequential_1", "layers": [{"class_name": "Embedding", "config": {"name": "embedding_1", "trainable": true, "batch_input_shape": [null, 23], "dtype": "float32", "input_dim": 10855, "output_dim": 64, "embeddings_initializer": {"class_name": "RandomUniform", "config": {"minval": -0.05, "maxval": 0.05, "seed": null}}, "embeddings_regularizer": null, "activity_regularizer": null, "embeddings_constraint": null, "mask_zero": false, "input_length": 23}}, {"class_name": "GlobalAveragePooling1D", "config": {"name": "global_average_pooling1d_1", "trainable": true, "dtype": "float32", "data_format": "channels_last"}}, {"class_name": "Dense", "config": {"name": "dense_1", "trainable": true, "dtype": "float32", "units": 512, "activation": "relu", "use_bias": true, "kernel_initializer": {"class_name": "VarianceScaling", "config": {"scale": 1.0, "mode": "fan_avg", "distribution": "uniform", "seed": null}}, "bias_initializer": {"class_name": "Zeros", "config": {}}, "kernel_regularizer": null, "bias_regularizer": null, "activity_regularizer": null, "kernel_constraint": null, "bias_constraint": null}}, {"class_name": "Dense", "config": {"name": "dense_2", "trainable": true, "dtype": "float32", "units": 1, "activation": "sigmoid", "use_bias": true, "kernel_initializer": {"class_name": "VarianceScaling", "config": {"scale": 1.0, "mode": "fan_avg", "distribution": "uniform", "seed": null}}, "bias_initializer": {"class_name": "Zeros", "config": {}}, "kernel_regularizer": null, "bias_regularizer": null, "activity_regularizer": null, "kernel_constraint": null, "bias_constraint": null}}]}, "val_accuracy": [… "test_performance": ["57.03%", "57.19%", "60.07%", "68.16%", "74.41%", "76.98%", "77.47%", "77.87%", "78.24%", "78.24%", "78.39%", "78.46%", "78.33%", "78.06%", "77.90%", "77.63%", "77.41%", "77.26%", "76.22%", "76.98%", "75.97%", "76.52%", "75.11%", "76.03%", "74.81%", "75.45%", "74.81%", "75.18%", "74.44%", "74.81%"]}}, "2020-04-11 16:48:08.428606": {"data": {"TRAIN_PERCENTAGE": 0.8, "SHUFFLE_DATA": false, "PREPROCESS_OPTRIONS": {"remove_links": true, "remove_users": true, "remove_hash": true, "unslang": true, "split_words": true, "stem": true, "remove_punctuations": true, "remove_numbers": true, "to_lower_case": true, "remove_stop_words": true, "remove_not_alpha": true, "join": false}}, "model": {"BATCH_SIZE": 512, "EPOCHS": 30, "VERBOSE": 1, "OPTIMIZER": "rmsprop", "SHUFFLE": false, "EMBEDDING_OPTIONS": {"input_dim": 10855, "output_dim": 64, "input_length": 23}, "config": {"name": "sequential_1", "layers": [{"class_name": "Embedding", "config": {"name": "embedding_1", "trainable": true, "batch_input_shape": [null, 23], "dtype": "float32", "input_dim": 10855, "output_dim": 64, "embeddings_initializer": {"class_name": "RandomUniform", "config": {"minval": -0.05, "maxval": 0.05, "seed": null}}, "embeddings_regularizer": null, "activity_regularizer": null, "embeddings_constraint": null, "mask_zero": false, "input_length": 23}}, {"class_name": "GlobalAveragePooling1D", "config": {"name": "global_average_pooling1d_1", "trainable": true, "dtype": "float32", "data_format": "channels_last"}}, {"class_name": "Dense", "config": {"name": "dense_1", "trainable": true, "dtype": "float32", "units": 256, "activation": "relu", "use_bias": true, "kernel_initializer": {"class_name": "VarianceScaling", "config": {"scale": 1.0, "mode": "fan_avg", "distribution": "uniform", "seed": null}}, "bias_initializer": {"class_name": "Zeros", "config": {}}, "kernel_regularizer": null, "bias_regularizer": null, "activity_regularizer": null, "kernel_constraint": null, "bias_constraint": null}}, {"class_name": "Dense", "config": {"name": "dense_2", "trainable": true, "dtype": "float32", "units": 1, "activation": "sigmoid", "use_bias": true, "kernel_initializer": {"class_name": "VarianceScaling", "config": {"scale": 1.0, "mode": "fan_avg", "distribution": "uniform", "seed": null}}, "bias_initializer": {"class_name": "Zeros", "config": {}}, "kernel_regularizer": null, "bias_regularizer": null, "activity_regularizer": null, "kernel_constraint": null, "bias_constraint": null}}]}, "val_accuracy": [… "test_performance": ["57.03%", "57.19%", "58.96%", "64.57%", "70.92%", "75.24%", "76.89%", "77.66%", "78.06%", "78.52%", "78.67%", "78.49%", "78.55%", "78.52%", "78.70%", "78.39%", "78.12%", "77.78%", "77.97%", "77.26%", "77.38%", "77.41%", "76.49%", "76.68%", "75.85%", "76.40%", "75.11%", "76.19%", "74.87%", "75.64%"]}}, "2020-04-11 16:48:44.233833": {"data": {"TRAIN_PERCENTAGE": 0.8, "SHUFFLE_DATA": false, "PREPROCESS_OPTRIONS": {"remove_links": true, "remove_users": true, "remove_hash": true, "unslang": true, "split_words": true, "stem": true, "remove_punctuations": true, "remove_numbers": true, "to_lower_case": true, "remove_stop_words": true, "remove_not_alpha": true, "join": false}}, "model": {"BATCH_SIZE": 512, "EPOCHS": 30, "VERBOSE": 1, "OPTIMIZER": "rmsprop", "SHUFFLE": false, "EMBEDDING_OPTIONS": {"input_dim": 10855, "output_dim": 64, "input_length": 23}, "config": {"name": "sequential_1", "layers": [{"class_name": "Embedding", "config": {"name": "embedding_1", "trainable": true, "batch_input_shape": [null, 23], "dtype": "float32", "input_dim": 10855, "output_dim": 64, "embeddings_initializer": {"class_name": "RandomUniform", "config": {"minval": -0.05, "maxval": 0.05, "seed": null}}, "embeddings_regularizer": null, "activity_regularizer": null, "embeddings_constraint": null, "mask_zero": false, "input_length": 23}}, {"class_name": "GlobalAveragePooling1D", "config": {"name": "global_average_pooling1d_1", "trainable": true, "dtype": "float32", "data_format": "channels_last"}}, {"class_name": "Dense", "config": {"name": "dense_1", "trainable": true, "dtype": "float32", "units": 128, "activation": "relu", "use_bias": true, "kernel_initializer": {"class_name": "VarianceScaling", "config": {"scale": 1.0, "mode": "fan_avg", "distribution": "uniform", "seed": null}}, "bias_initializer": {"class_name": "Zeros", "config": {}}, "kernel_regularizer": null, "bias_regularizer": null, "activity_regularizer": null, "kernel_constraint": null, "bias_constraint": null}}, {"class_name": "Dense", "config": {"name": "dense_2", "trainable": true, "dtype": "float32", "units": 1, "activation": "sigmoid", "use_bias": true, "kernel_initializer": {"class_name": "VarianceScaling", "config": {"scale": 1.0, "mode": "fan_avg", "distribution": "uniform", "seed": null}}, "bias_initializer": {"class_name": "Zeros", "config": {}}, "kernel_regularizer": null, "bias_regularizer": null, "activity_regularizer": null, "kernel_constraint": null, "bias_constraint": null}}]}, "val_accuracy": [… "test_performance": ["57.03%", "57.16%", "58.23%", "61.29%", "66.93%", "72.39%", "75.21%", "76.52%", "77.78%", "77.81%", "78.15%", "78.18%", "78.21%", "78.24%", "78.39%", "78.36%", "78.39%", "78.30%", "78.27%", "78.12%", "78.12%", "77.60%", "77.75%", "77.29%", "77.23%", "76.31%", "76.77%", "75.97%", "76.49%", "75.45%"]}}, "2020-04-11 16:49:30.414567": {"data": {"TRAIN_PERCENTAGE": 0.8, "SHUFFLE_DATA": false, "PREPROCESS_OPTRIONS": {"remove_links": true, "remove_users": true, "remove_hash": true, "unslang": true, "split_words": true, "stem": true, "remove_punctuations": true, "remove_numbers": true, "to_lower_case": true, "remove_stop_words": true, "remove_not_alpha": true, "join": false}}, "model": {"BATCH_SIZE": 512, "EPOCHS": 30, "VERBOSE": 1, "OPTIMIZER": "rmsprop", "SHUFFLE": false, "EMBEDDING_OPTIONS": {"input_dim": 10855, "output_dim": 64, "input_length": 23}, "config": {"name": "sequential_1", "layers": [{"class_name": "Embedding", "config": {"name": "embedding_1", "trainable": true, "batch_input_shape": [null, 23], "dtype": "float32", "input_dim": 10855, "output_dim": 64, "embeddings_initializer": {"class_name": "RandomUniform", "config": {"minval": -0.05, "maxval": 0.05, "seed": null}}, "embeddings_regularizer": null, "activity_regularizer": null, "embeddings_constraint": null, "mask_zero": false, "input_length": 23}}, {"class_name": "Flatten", "config": {"name": "flatten_1", "trainable": true, "dtype": "float32", "data_format": "channels_last"}}, {"class_name": "Dense", "config": {"name": "dense_1", "trainable": true, "dtype": "float32", "units": 256, "activation": "relu", "use_bias": true, "kernel_initializer": {"class_name": "VarianceScaling", "config": {"scale": 1.0, "mode": "fan_avg", "distribution": "uniform", "seed": null}}, "bias_initializer": {"class_name": "Zeros", "config": {}}, "kernel_regularizer": null, "bias_regularizer": null, "activity_regularizer": null, "kernel_constraint": null, "bias_constraint": null}}, {"class_name": "Dense", "config": {"name": "dense_2", "trainable": true, "dtype": "float32", "units": 64, "activation": "relu", "use_bias": true, "kernel_initializer": {"class_name": "VarianceScaling", "config": {"scale": 1.0, "mode": "fan_avg", "distribution": "uniform", "seed": null}}, "bias_initializer": {"class_name": "Zeros", "config": {}}, "kernel_regularizer": null, "bias_regularizer": null, "activity_regularizer": null, "kernel_constraint": null, "bias_constraint": null}}, {"class_name": "Dense", "config": {"name": "dense_3", "trainable": true, "dtype": "float32", "units": 1, "activation": "sigmoid", "use_bias": true, "kernel_initializer": {"class_name": "VarianceScaling", "config": {"scale": 1.0, "mode": "fan_avg", "distribution": "uniform", "seed": null}}, "bias_initializer": {"class_name": "Zeros", "config": {}}, "kernel_regularizer": null, "bias_regularizer": null, "activity_regularizer": null, "kernel_constraint": null, "bias_constraint": null}}]}, "val_accuracy": [… "test_performance": ["58.87%", "71.01%", "75.21%", "77.05%", "76.46%", "76.03%", "75.85%", "75.05%", "75.57%", "74.75%", "75.42%", "74.87%", "75.27%", "74.04%", "74.93%", "74.26%", "74.84%", "74.07%", "74.56%", "74.41%", "74.75%", "74.44%", "74.78%", "74.23%", "74.41%", "74.16%", "74.29%", "74.01%", "74.50%", "74.20%"]}}, "2020-04-11 16:50:00.758531": {"data": {"TRAIN_PERCENTAGE": 0.8, "SHUFFLE_DATA": false, "PREPROCESS_OPTRIONS": {"remove_links": true, "remove_users": true, "remove_hash": true, "unslang": true, "split_words": true, "stem": true, "remove_punctuations": true, "remove_numbers": true, "to_lower_case": true, "remove_stop_words": true, "remove_not_alpha": true, "join": false}}, "model": {"BATCH_SIZE": 512, "EPOCHS": 30, "VERBOSE": 1, "OPTIMIZER": "rmsprop", "SHUFFLE": false, "EMBEDDING_OPTIONS": {"input_dim": 10855, "output_dim": 64, "input_length": 23}, "config": {"name": "sequential_1", "layers": [{"class_name": "Embedding", "config": {"name": "embedding_1", "trainable": true, "batch_input_shape": [null, 23], "dtype": "float32", "input_dim": 10855, "output_dim": 64, "embeddings_initializer": {"class_name": "RandomUniform", "config": {"minval": -0.05, "maxval": 0.05, "seed": null}}, "embeddings_regularizer": null, "activity_regularizer": null, "embeddings_constraint": null, "mask_zero": false, "input_length": 23}}, {"class_name": "Flatten", "config": {"name": "flatten_1", "trainable": true, "dtype": "float32", "data_format": "channels_last"}}, {"class_name": "Dense", "config": {"name": "dense_1", "trainable": true, "dtype": "float32", "units": 64, "activation": "relu", "use_bias": true, "kernel_initializer": {"class_name": "VarianceScaling", "config": {"scale": 1.0, "mode": "fan_avg", "distribution": "uniform", "seed": null}}, "bias_initializer": {"class_name": "Zeros", "config": {}}, "kernel_regularizer": null, "bias_regularizer": null, "activity_regularizer": null, "kernel_constraint": null, "bias_constraint": null}}, {"class_name": "Dense", "config": {"name": "dense_2", "trainable": true, "dtype": "float32", "units": 8, "activation": "relu", "use_bias": true, "kernel_initializer": {"class_name": "VarianceScaling", "config": {"scale": 1.0, "mode": "fan_avg", "distribution": "uniform", "seed": null}}, "bias_initializer": {"class_name": "Zeros", "config": {}}, "kernel_regularizer": null, "bias_regularizer": null, "activity_regularizer": null, "kernel_constraint": null, "bias_constraint": null}}, {"class_name": "Dense", "config": {"name": "dense_3", "trainable": true, "dtype": "float32", "units": 1, "activation": "sigmoid", "use_bias": true, "kernel_initializer": {"class_name": "VarianceScaling", "config": {"scale": 1.0, "mode": "fan_avg", "distribution": "uniform", "seed": null}}, "bias_initializer": {"class_name": "Zeros", "config": {}}, "kernel_regularizer": null, "bias_regularizer": null, "activity_regularizer": null, "kernel_constraint": null, "bias_constraint": null}}]}, "val_accuracy": [… "test_performance": ["57.22%", "71.77%", "74.56%", "75.85%", "76.86%", "77.26%", "76.92%", "77.35%", "76.56%", "76.40%", "75.33%", "76.22%", "75.05%", "75.64%", "75.08%", "75.33%", "74.59%", "75.05%", "74.59%", "74.96%", "74.10%", "74.87%", "74.20%", "74.62%", "74.41%", "74.66%", "74.35%", "74.35%", "74.56%", "74.53%"]}}}