{"2020-05-01 15:34:13.317309": {"target": "keras", "data": {"PREPROCESS_OPTRIONS": {"add_link_flag": false, "add_user_flag": false, "add_hash_flag": false, "add_number_flag": false, "add_keyword_flag": false, "add_location_flag": false, "remove_links": true, "remove_users": true, "remove_hash": true, "unslang": true, "split_words": true, "stem": false, "remove_punctuations": true, "remove_numbers": true, "to_lower_case": true, "remove_stop_words": true, "remove_not_alpha": true, "join": false}}, "model": {"BATCH_SIZE": 256, "EPOCHS": 20, "VERBOSE": 1, "OPTIMIZER": "rmsprop", "LEARNING_RATE": 0.0001, "SHUFFLE": true, "EMBEDDING_OPTIONS": {"input_dim": 12171, "output_dim": 128, "input_length": 21}, "TYPE": "LSTM_DROPOUT", "config": {"name": "sequential", "layers": [{"class_name": "Embedding", "config": {"name": "embedding", "trainable": true, "batch_input_shape": [null, 21], "dtype": "float32", "input_dim": 12171, "output_dim": 128, "embeddings_initializer": {"class_name": "RandomUniform", "config": {"minval": -0.05, "maxval": 0.05, "seed": null}}, "embeddings_regularizer": null, "activity_regularizer": null, "embeddings_constraint": null, "mask_zero": false, "input_length": 21}}, {"class_name": "SpatialDropout1D", "config": {"name": "spatial_dropout1d", "trainable": true, "dtype": "float32", "rate": 0.2, "noise_shape": null, "seed": null}}, {"class_name": "LSTM", "config": {"name": "lstm_1", "trainable": true, "dtype": "float32", "return_sequences": false, "return_state": false, "go_backwards": false, "stateful": false, "unroll": false, "time_major": false, "units": 64, "activation": "tanh", "recurrent_activation": "sigmoid", "use_bias": true, "kernel_initializer": {"class_name": "GlorotUniform", "config": {"seed": null}}, "recurrent_initializer": {"class_name": "Orthogonal", "config": {"gain": 1.0, "seed": null}}, "bias_initializer": {"class_name": "Zeros", "config": {}}, "unit_forget_bias": true, "kernel_regularizer": null, "recurrent_regularizer": null, "bias_regularizer": null, "activity_regularizer": null, "kernel_constraint": null, "recurrent_constraint": null, "bias_constraint": null, "dropout": 0.2, "recurrent_dropout": 0.2, "implementation": 1}}, {"class_name": "Dense", "config": {"name": "dense_4", "trainable": true, "dtype": "float32", "units": 1, "activation": "sigmoid", "use_bias": true, "kernel_initializer": {"class_name": "GlorotUniform", "config": {"seed": null}}, "bias_initializer": {"class_name": "Zeros", "config": {}}, "kernel_regularizer": null, "bias_regularizer": null, "activity_regularizer": null, "kernel_constraint": null, "bias_constraint": null}}]}, "history": {"loss": [… "accuracy": [… "val_loss": [… "val_accuracy": [… "test_loss": [… "test_accuracy": [… "2020-05-01 15:35:09.945086": {"target": "keras", "data": {"PREPROCESS_OPTRIONS": {"add_link_flag": false, "add_user_flag": false, "add_hash_flag": false, "add_number_flag": false, "add_keyword_flag": false, "add_location_flag": false, "remove_links": true, "remove_users": true, "remove_hash": true, "unslang": true, "split_words": true, "stem": false, "remove_punctuations": true, "remove_numbers": true, "to_lower_case": true, "remove_stop_words": true, "remove_not_alpha": true, "join": false}}, "model": {"BATCH_SIZE": 128, "EPOCHS": 20, "VERBOSE": 1, "OPTIMIZER": "rmsprop", "LEARNING_RATE": 0.0001, "SHUFFLE": true, "EMBEDDING_OPTIONS": {"input_dim": 12171, "output_dim": 128, "input_length": 21}, "TYPE": "LSTM_DROPOUT", "config": {"name": "sequential", "layers": [{"class_name": "Embedding", "config": {"name": "embedding", "trainable": true, "batch_input_shape": [null, 21], "dtype": "float32", "input_dim": 12171, "output_dim": 128, "embeddings_initializer": {"class_name": "RandomUniform", "config": {"minval": -0.05, "maxval": 0.05, "seed": null}}, "embeddings_regularizer": null, "activity_regularizer": null, "embeddings_constraint": null, "mask_zero": false, "input_length": 21}}, {"class_name": "SpatialDropout1D", "config": {"name": "spatial_dropout1d", "trainable": true, "dtype": "float32", "rate": 0.2, "noise_shape": null, "seed": null}}, {"class_name": "LSTM", "config": {"name": "lstm_1", "trainable": true, "dtype": "float32", "return_sequences": false, "return_state": false, "go_backwards": false, "stateful": false, "unroll": false, "time_major": false, "units": 64, "activation": "tanh", "recurrent_activation": "sigmoid", "use_bias": true, "kernel_initializer": {"class_name": "GlorotUniform", "config": {"seed": null}}, "recurrent_initializer": {"class_name": "Orthogonal", "config": {"gain": 1.0, "seed": null}}, "bias_initializer": {"class_name": "Zeros", "config": {}}, "unit_forget_bias": true, "kernel_regularizer": null, "recurrent_regularizer": null, "bias_regularizer": null, "activity_regularizer": null, "kernel_constraint": null, "recurrent_constraint": null, "bias_constraint": null, "dropout": 0.2, "recurrent_dropout": 0.2, "implementation": 1}}, {"class_name": "Dense", "config": {"name": "dense_4", "trainable": true, "dtype": "float32", "units": 1, "activation": "sigmoid", "use_bias": true, "kernel_initializer": {"class_name": "GlorotUniform", "config": {"seed": null}}, "bias_initializer": {"class_name": "Zeros", "config": {}}, "kernel_regularizer": null, "bias_regularizer": null, "activity_regularizer": null, "kernel_constraint": null, "bias_constraint": null}}]}, "history": {"loss": [… "accuracy": [… "val_loss": [… "val_accuracy": [… "test_loss": [… "test_accuracy": [… "2020-05-01 15:36:27.076434": {"target": "keras", "data": {"PREPROCESS_OPTRIONS": {"add_link_flag": false, "add_user_flag": false, "add_hash_flag": false, "add_number_flag": false, "add_keyword_flag": false, "add_location_flag": false, "remove_links": true, "remove_users": true, "remove_hash": true, "unslang": true, "split_words": true, "stem": false, "remove_punctuations": true, "remove_numbers": true, "to_lower_case": true, "remove_stop_words": true, "remove_not_alpha": true, "join": false}}, "model": {"BATCH_SIZE": 64, "EPOCHS": 20, "VERBOSE": 1, "OPTIMIZER": "rmsprop", "LEARNING_RATE": 0.0001, "SHUFFLE": true, "EMBEDDING_OPTIONS": {"input_dim": 12171, "output_dim": 128, "input_length": 21}, "TYPE": "LSTM_DROPOUT", "config": {"name": "sequential", "layers": [{"class_name": "Embedding", "config": {"name": "embedding", "trainable": true, "batch_input_shape": [null, 21], "dtype": "float32", "input_dim": 12171, "output_dim": 128, "embeddings_initializer": {"class_name": "RandomUniform", "config": {"minval": -0.05, "maxval": 0.05, "seed": null}}, "embeddings_regularizer": null, "activity_regularizer": null, "embeddings_constraint": null, "mask_zero": false, "input_length": 21}}, {"class_name": "SpatialDropout1D", "config": {"name": "spatial_dropout1d", "trainable": true, "dtype": "float32", "rate": 0.2, "noise_shape": null, "seed": null}}, {"class_name": "LSTM", "config": {"name": "lstm_1", "trainable": true, "dtype": "float32", "return_sequences": false, "return_state": false, "go_backwards": false, "stateful": false, "unroll": false, "time_major": false, "units": 64, "activation": "tanh", "recurrent_activation": "sigmoid", "use_bias": true, "kernel_initializer": {"class_name": "GlorotUniform", "config": {"seed": null}}, "recurrent_initializer": {"class_name": "Orthogonal", "config": {"gain": 1.0, "seed": null}}, "bias_initializer": {"class_name": "Zeros", "config": {}}, "unit_forget_bias": true, "kernel_regularizer": null, "recurrent_regularizer": null, "bias_regularizer": null, "activity_regularizer": null, "kernel_constraint": null, "recurrent_constraint": null, "bias_constraint": null, "dropout": 0.2, "recurrent_dropout": 0.2, "implementation": 1}}, {"class_name": "Dense", "config": {"name": "dense_4", "trainable": true, "dtype": "float32", "units": 1, "activation": "sigmoid", "use_bias": true, "kernel_initializer": {"class_name": "GlorotUniform", "config": {"seed": null}}, "bias_initializer": {"class_name": "Zeros", "config": {}}, "kernel_regularizer": null, "bias_regularizer": null, "activity_regularizer": null, "kernel_constraint": null, "bias_constraint": null}}]}, "history": {"loss": [… "accuracy": [… "val_loss": [… "val_accuracy": [… "test_loss": [… "test_accuracy": [… "2020-05-01 15:37:39.678819": {"target": "keras", "data": {"PREPROCESS_OPTRIONS": {"add_link_flag": false, "add_user_flag": false, "add_hash_flag": false, "add_number_flag": false, "add_keyword_flag": false, "add_location_flag": false, "remove_links": true, "remove_users": true, "remove_hash": true, "unslang": true, "split_words": true, "stem": false, "remove_punctuations": true, "remove_numbers": true, "to_lower_case": true, "remove_stop_words": true, "remove_not_alpha": true, "join": false}}, "model": {"BATCH_SIZE": 64, "EPOCHS": 20, "VERBOSE": 1, "OPTIMIZER": "rmsprop", "LEARNING_RATE": 0.0001, "SHUFFLE": true, "EMBEDDING_OPTIONS": {"input_dim": 12171, "output_dim": 64, "input_length": 21}, "TYPE": "LSTM_DROPOUT", "config": {"name": "sequential", "layers": [{"class_name": "Embedding", "config": {"name": "embedding", "trainable": true, "batch_input_shape": [null, 21], "dtype": "float32", "input_dim": 12171, "output_dim": 64, "embeddings_initializer": {"class_name": "RandomUniform", "config": {"minval": -0.05, "maxval": 0.05, "seed": null}}, "embeddings_regularizer": null, "activity_regularizer": null, "embeddings_constraint": null, "mask_zero": false, "input_length": 21}}, {"class_name": "SpatialDropout1D", "config": {"name": "spatial_dropout1d", "trainable": true, "dtype": "float32", "rate": 0.2, "noise_shape": null, "seed": null}}, {"class_name": "LSTM", "config": {"name": "lstm_1", "trainable": true, "dtype": "float32", "return_sequences": false, "return_state": false, "go_backwards": false, "stateful": false, "unroll": false, "time_major": false, "units": 64, "activation": "tanh", "recurrent_activation": "sigmoid", "use_bias": true, "kernel_initializer": {"class_name": "GlorotUniform", "config": {"seed": null}}, "recurrent_initializer": {"class_name": "Orthogonal", "config": {"gain": 1.0, "seed": null}}, "bias_initializer": {"class_name": "Zeros", "config": {}}, "unit_forget_bias": true, "kernel_regularizer": null, "recurrent_regularizer": null, "bias_regularizer": null, "activity_regularizer": null, "kernel_constraint": null, "recurrent_constraint": null, "bias_constraint": null, "dropout": 0.2, "recurrent_dropout": 0.2, "implementation": 1}}, {"class_name": "Dense", "config": {"name": "dense_4", "trainable": true, "dtype": "float32", "units": 1, "activation": "sigmoid", "use_bias": true, "kernel_initializer": {"class_name": "GlorotUniform", "config": {"seed": null}}, "bias_initializer": {"class_name": "Zeros", "config": {}}, "kernel_regularizer": null, "bias_regularizer": null, "activity_regularizer": null, "kernel_constraint": null, "bias_constraint": null}}]}, "history": {"loss": [… "accuracy": [… "val_loss": [… "val_accuracy": [… "test_loss": [… "test_accuracy": [… "2020-05-01 15:38:43.884491": {"target": "keras", "data": {"PREPROCESS_OPTRIONS": {"add_link_flag": false, "add_user_flag": false, "add_hash_flag": false, "add_number_flag": false, "add_keyword_flag": false, "add_location_flag": false, "remove_links": true, "remove_users": true, "remove_hash": true, "unslang": true, "split_words": true, "stem": false, "remove_punctuations": true, "remove_numbers": true, "to_lower_case": true, "remove_stop_words": true, "remove_not_alpha": true, "join": false}}, "model": {"BATCH_SIZE": 64, "EPOCHS": 20, "VERBOSE": 1, "OPTIMIZER": "rmsprop", "LEARNING_RATE": 0.0001, "SHUFFLE": true, "EMBEDDING_OPTIONS": {"input_dim": 12171, "output_dim": 64, "input_length": 21}, "TYPE": "LSTM_DROPOUT", "config": {"name": "sequential", "layers": [{"class_name": "Embedding", "config": {"name": "embedding", "trainable": true, "batch_input_shape": [null, 21], "dtype": "float32", "input_dim": 12171, "output_dim": 64, "embeddings_initializer": {"class_name": "RandomUniform", "config": {"minval": -0.05, "maxval": 0.05, "seed": null}}, "embeddings_regularizer": null, "activity_regularizer": null, "embeddings_constraint": null, "mask_zero": false, "input_length": 21}}, {"class_name": "SpatialDropout1D", "config": {"name": "spatial_dropout1d", "trainable": true, "dtype": "float32", "rate": 0.2, "noise_shape": null, "seed": null}}, {"class_name": "LSTM", "config": {"name": "lstm_1", "trainable": true, "dtype": "float32", "return_sequences": false, "return_state": false, "go_backwards": false, "stateful": false, "unroll": false, "time_major": false, "units": 32, "activation": "tanh", "recurrent_activation": "sigmoid", "use_bias": true, "kernel_initializer": {"class_name": "GlorotUniform", "config": {"seed": null}}, "recurrent_initializer": {"class_name": "Orthogonal", "config": {"gain": 1.0, "seed": null}}, "bias_initializer": {"class_name": "Zeros", "config": {}}, "unit_forget_bias": true, "kernel_regularizer": null, "recurrent_regularizer": null, "bias_regularizer": null, "activity_regularizer": null, "kernel_constraint": null, "recurrent_constraint": null, "bias_constraint": null, "dropout": 0.2, "recurrent_dropout": 0.2, "implementation": 1}}, {"class_name": "Dense", "config": {"name": "dense_4", "trainable": true, "dtype": "float32", "units": 1, "activation": "sigmoid", "use_bias": true, "kernel_initializer": {"class_name": "GlorotUniform", "config": {"seed": null}}, "bias_initializer": {"class_name": "Zeros", "config": {}}, "kernel_regularizer": null, "bias_regularizer": null, "activity_regularizer": null, "kernel_constraint": null, "bias_constraint": null}}]}, "history": {"loss": [… "accuracy": [… "val_loss": [… "val_accuracy": [… "test_loss": [… "test_accuracy": [… "2020-05-01 16:19:16.676640": {"target": "keras", "data": {"PREPROCESS_OPTRIONS": {"add_link_flag": true, "add_user_flag": true, "add_hash_flag": true, "add_number_flag": true, "add_keyword_flag": false, "add_location_flag": false, "remove_links": true, "remove_users": true, "remove_hash": true, "unslang": true, "split_words": true, "stem": false, "remove_punctuations": true, "remove_numbers": true, "to_lower_case": true, "remove_stop_words": true, "remove_not_alpha": true, "join": false}}, "model": {"BATCH_SIZE": 64, "EPOCHS": 20, "VERBOSE": 1, "OPTIMIZER": "rmsprop", "LEARNING_RATE": 0.0001, "SHUFFLE": true, "EMBEDDING_OPTIONS": {"input_dim": 12175, "output_dim": 128, "input_length": 22}, "TYPE": "LSTM_DROPOUT", "config": {"name": "sequential", "layers": [{"class_name": "Embedding", "config": {"name": "embedding", "trainable": true, "batch_input_shape": [null, 22], "dtype": "float32", "input_dim": 12175, "output_dim": 128, "embeddings_initializer": {"class_name": "RandomUniform", "config": {"minval": -0.05, "maxval": 0.05, "seed": null}}, "embeddings_regularizer": null, "activity_regularizer": null, "embeddings_constraint": null, "mask_zero": false, "input_length": 22}}, {"class_name": "SpatialDropout1D", "config": {"name": "spatial_dropout1d", "trainable": true, "dtype": "float32", "rate": 0.2, "noise_shape": null, "seed": null}}, {"class_name": "LSTM", "config": {"name": "lstm_1", "trainable": true, "dtype": "float32", "return_sequences": false, "return_state": false, "go_backwards": false, "stateful": false, "unroll": false, "time_major": false, "units": 32, "activation": "tanh", "recurrent_activation": "sigmoid", "use_bias": true, "kernel_initializer": {"class_name": "GlorotUniform", "config": {"seed": null}}, "recurrent_initializer": {"class_name": "Orthogonal", "config": {"gain": 1.0, "seed": null}}, "bias_initializer": {"class_name": "Zeros", "config": {}}, "unit_forget_bias": true, "kernel_regularizer": null, "recurrent_regularizer": null, "bias_regularizer": null, "activity_regularizer": null, "kernel_constraint": null, "recurrent_constraint": null, "bias_constraint": null, "dropout": 0.2, "recurrent_dropout": 0.2, "implementation": 1}}, {"class_name": "Dense", "config": {"name": "dense_4", "trainable": true, "dtype": "float32", "units": 1, "activation": "sigmoid", "use_bias": true, "kernel_initializer": {"class_name": "GlorotUniform", "config": {"seed": null}}, "bias_initializer": {"class_name": "Zeros", "config": {}}, "kernel_regularizer": null, "bias_regularizer": null, "activity_regularizer": null, "kernel_constraint": null, "bias_constraint": null}}]}, "history": {"loss": [… "accuracy": [… "val_loss": [… "val_accuracy": [… "test_loss": [… "test_accuracy": [… "2020-05-01 16:21:38.511952": {"target": "keras", "data": {"PREPROCESS_OPTRIONS": {"add_link_flag": false, "add_user_flag": false, "add_hash_flag": false, "add_number_flag": false, "add_keyword_flag": false, "add_location_flag": false, "remove_links": true, "remove_users": true, "remove_hash": false, "unslang": true, "split_words": true, "stem": false, "remove_punctuations": false, "remove_numbers": true, "to_lower_case": true, "remove_stop_words": false, "remove_not_alpha": false, "join": false}}, "model": {"BATCH_SIZE": 64, "EPOCHS": 20, "VERBOSE": 1, "OPTIMIZER": "rmsprop", "LEARNING_RATE": 0.0001, "SHUFFLE": true, "EMBEDDING_OPTIONS": {"input_dim": 13344, "output_dim": 128, "input_length": 39}, "TYPE": "LSTM_DROPOUT", "config": {"name": "sequential", "layers": [{"class_name": "Embedding", "config": {"name": "embedding", "trainable": true, "batch_input_shape": [null, 39], "dtype": "float32", "input_dim": 13344, "output_dim": 128, "embeddings_initializer": {"class_name": "RandomUniform", "config": {"minval": -0.05, "maxval": 0.05, "seed": null}}, "embeddings_regularizer": null, "activity_regularizer": null, "embeddings_constraint": null, "mask_zero": false, "input_length": 39}}, {"class_name": "SpatialDropout1D", "config": {"name": "spatial_dropout1d", "trainable": true, "dtype": "float32", "rate": 0.2, "noise_shape": null, "seed": null}}, {"class_name": "LSTM", "config": {"name": "lstm_1", "trainable": true, "dtype": "float32", "return_sequences": false, "return_state": false, "go_backwards": false, "stateful": false, "unroll": false, "time_major": false, "units": 32, "activation": "tanh", "recurrent_activation": "sigmoid", "use_bias": true, "kernel_initializer": {"class_name": "GlorotUniform", "config": {"seed": null}}, "recurrent_initializer": {"class_name": "Orthogonal", "config": {"gain": 1.0, "seed": null}}, "bias_initializer": {"class_name": "Zeros", "config": {}}, "unit_forget_bias": true, "kernel_regularizer": null, "recurrent_regularizer": null, "bias_regularizer": null, "activity_regularizer": null, "kernel_constraint": null, "recurrent_constraint": null, "bias_constraint": null, "dropout": 0.2, "recurrent_dropout": 0.2, "implementation": 1}}, {"class_name": "Dense", "config": {"name": "dense_4", "trainable": true, "dtype": "float32", "units": 1, "activation": "sigmoid", "use_bias": true, "kernel_initializer": {"class_name": "GlorotUniform", "config": {"seed": null}}, "bias_initializer": {"class_name": "Zeros", "config": {}}, "kernel_regularizer": null, "bias_regularizer": null, "activity_regularizer": null, "kernel_constraint": null, "bias_constraint": null}}]}, "history": {"loss": [… "accuracy": [… "val_loss": [… "val_accuracy": [… "test_loss": [… "test_accuracy": [… "2020-05-01 16:23:51.961249": {"target": "keras", "data": {"PREPROCESS_OPTRIONS": {"add_link_flag": false, "add_user_flag": false, "add_hash_flag": false, "add_number_flag": false, "add_keyword_flag": false, "add_location_flag": false, "remove_links": true, "remove_users": true, "remove_hash": true, "unslang": true, "split_words": true, "stem": false, "remove_punctuations": false, "remove_numbers": true, "to_lower_case": true, "remove_stop_words": false, "remove_not_alpha": false, "join": false}}, "model": {"BATCH_SIZE": 64, "EPOCHS": 20, "VERBOSE": 1, "OPTIMIZER": "rmsprop", "LEARNING_RATE": 0.0001, "SHUFFLE": true, "EMBEDDING_OPTIONS": {"input_dim": 12743, "output_dim": 128, "input_length": 39}, "TYPE": "LSTM_DROPOUT", "config": {"name": "sequential", "layers": [{"class_name": "Embedding", "config": {"name": "embedding", "trainable": true, "batch_input_shape": [null, 39], "dtype": "float32", "input_dim": 12743, "output_dim": 128, "embeddings_initializer": {"class_name": "RandomUniform", "config": {"minval": -0.05, "maxval": 0.05, "seed": null}}, "embeddings_regularizer": null, "activity_regularizer": null, "embeddings_constraint": null, "mask_zero": false, "input_length": 39}}, {"class_name": "SpatialDropout1D", "config": {"name": "spatial_dropout1d", "trainable": true, "dtype": "float32", "rate": 0.2, "noise_shape": null, "seed": null}}, {"class_name": "LSTM", "config": {"name": "lstm_1", "trainable": true, "dtype": "float32", "return_sequences": false, "return_state": false, "go_backwards": false, "stateful": false, "unroll": false, "time_major": false, "units": 32, "activation": "tanh", "recurrent_activation": "sigmoid", "use_bias": true, "kernel_initializer": {"class_name": "GlorotUniform", "config": {"seed": null}}, "recurrent_initializer": {"class_name": "Orthogonal", "config": {"gain": 1.0, "seed": null}}, "bias_initializer": {"class_name": "Zeros", "config": {}}, "unit_forget_bias": true, "kernel_regularizer": null, "recurrent_regularizer": null, "bias_regularizer": null, "activity_regularizer": null, "kernel_constraint": null, "recurrent_constraint": null, "bias_constraint": null, "dropout": 0.2, "recurrent_dropout": 0.2, "implementation": 1}}, {"class_name": "Dense", "config": {"name": "dense_4", "trainable": true, "dtype": "float32", "units": 1, "activation": "sigmoid", "use_bias": true, "kernel_initializer": {"class_name": "GlorotUniform", "config": {"seed": null}}, "bias_initializer": {"class_name": "Zeros", "config": {}}, "kernel_regularizer": null, "bias_regularizer": null, "activity_regularizer": null, "kernel_constraint": null, "bias_constraint": null}}]}, "history": {"loss": [… "accuracy": [… "val_loss": [… "val_accuracy": [… "test_loss": [… "test_accuracy": [… "2020-05-01 16:26:12.647079": {"target": "keras", "data": {"PREPROCESS_OPTRIONS": {"add_link_flag": false, "add_user_flag": false, "add_hash_flag": false, "add_number_flag": false, "add_keyword_flag": false, "add_location_flag": false, "remove_links": true, "remove_users": true, "remove_hash": false, "unslang": false, "split_words": true, "stem": false, "remove_punctuations": false, "remove_numbers": true, "to_lower_case": true, "remove_stop_words": false, "remove_not_alpha": false, "join": false}}, "model": {"BATCH_SIZE": 64, "EPOCHS": 20, "VERBOSE": 1, "OPTIMIZER": "rmsprop", "LEARNING_RATE": 0.0001, "SHUFFLE": true, "EMBEDDING_OPTIONS": {"input_dim": 13393, "output_dim": 128, "input_length": 39}, "TYPE": "LSTM_DROPOUT", "config": {"name": "sequential", "layers": [{"class_name": "Embedding", "config": {"name": "embedding", "trainable": true, "batch_input_shape": [null, 39], "dtype": "float32", "input_dim": 13393, "output_dim": 128, "embeddings_initializer": {"class_name": "RandomUniform", "config": {"minval": -0.05, "maxval": 0.05, "seed": null}}, "embeddings_regularizer": null, "activity_regularizer": null, "embeddings_constraint": null, "mask_zero": false, "input_length": 39}}, {"class_name": "SpatialDropout1D", "config": {"name": "spatial_dropout1d", "trainable": true, "dtype": "float32", "rate": 0.2, "noise_shape": null, "seed": null}}, {"class_name": "LSTM", "config": {"name": "lstm_1", "trainable": true, "dtype": "float32", "return_sequences": false, "return_state": false, "go_backwards": false, "stateful": false, "unroll": false, "time_major": false, "units": 32, "activation": "tanh", "recurrent_activation": "sigmoid", "use_bias": true, "kernel_initializer": {"class_name": "GlorotUniform", "config": {"seed": null}}, "recurrent_initializer": {"class_name": "Orthogonal", "config": {"gain": 1.0, "seed": null}}, "bias_initializer": {"class_name": "Zeros", "config": {}}, "unit_forget_bias": true, "kernel_regularizer": null, "recurrent_regularizer": null, "bias_regularizer": null, "activity_regularizer": null, "kernel_constraint": null, "recurrent_constraint": null, "bias_constraint": null, "dropout": 0.2, "recurrent_dropout": 0.2, "implementation": 1}}, {"class_name": "Dense", "config": {"name": "dense_4", "trainable": true, "dtype": "float32", "units": 1, "activation": "sigmoid", "use_bias": true, "kernel_initializer": {"class_name": "GlorotUniform", "config": {"seed": null}}, "bias_initializer": {"class_name": "Zeros", "config": {}}, "kernel_regularizer": null, "bias_regularizer": null, "activity_regularizer": null, "kernel_constraint": null, "bias_constraint": null}}]}, "history": {"loss": [… "accuracy": [… "val_loss": [… "val_accuracy": [… "test_loss": [… "test_accuracy": [… "2020-05-01 16:27:39.779431": {"target": "keras", "data": {"PREPROCESS_OPTRIONS": {"add_link_flag": true, "add_user_flag": true, "add_hash_flag": true, "add_number_flag": false, "add_keyword_flag": false, "add_location_flag": false, "remove_links": true, "remove_users": true, "remove_hash": false, "unslang": false, "split_words": true, "stem": false, "remove_punctuations": false, "remove_numbers": true, "to_lower_case": true, "remove_stop_words": false, "remove_not_alpha": false, "join": false}}, "model": {"BATCH_SIZE": 64, "EPOCHS": 20, "VERBOSE": 1, "OPTIMIZER": "rmsprop", "LEARNING_RATE": 0.0001, "SHUFFLE": true, "EMBEDDING_OPTIONS": {"input_dim": 13396, "output_dim": 128, "input_length": 39}, "TYPE": "LSTM_DROPOUT", "config": {"name": "sequential", "layers": [{"class_name": "Embedding", "config": {"name": "embedding", "trainable": true, "batch_input_shape": [null, 39], "dtype": "float32", "input_dim": 13396, "output_dim": 128, "embeddings_initializer": {"class_name": "RandomUniform", "config": {"minval": -0.05, "maxval": 0.05, "seed": null}}, "embeddings_regularizer": null, "activity_regularizer": null, "embeddings_constraint": null, "mask_zero": false, "input_length": 39}}, {"class_name": "SpatialDropout1D", "config": {"name": "spatial_dropout1d", "trainable": true, "dtype": "float32", "rate": 0.2, "noise_shape": null, "seed": null}}, {"class_name": "LSTM", "config": {"name": "lstm_1", "trainable": true, "dtype": "float32", "return_sequences": false, "return_state": false, "go_backwards": false, "stateful": false, "unroll": false, "time_major": false, "units": 32, "activation": "tanh", "recurrent_activation": "sigmoid", "use_bias": true, "kernel_initializer": {"class_name": "GlorotUniform", "config": {"seed": null}}, "recurrent_initializer": {"class_name": "Orthogonal", "config": {"gain": 1.0, "seed": null}}, "bias_initializer": {"class_name": "Zeros", "config": {}}, "unit_forget_bias": true, "kernel_regularizer": null, "recurrent_regularizer": null, "bias_regularizer": null, "activity_regularizer": null, "kernel_constraint": null, "recurrent_constraint": null, "bias_constraint": null, "dropout": 0.2, "recurrent_dropout": 0.2, "implementation": 1}}, {"class_name": "Dense", "config": {"name": "dense_4", "trainable": true, "dtype": "float32", "units": 1, "activation": "sigmoid", "use_bias": true, "kernel_initializer": {"class_name": "GlorotUniform", "config": {"seed": null}}, "bias_initializer": {"class_name": "Zeros", "config": {}}, "kernel_regularizer": null, "bias_regularizer": null, "activity_regularizer": null, "kernel_constraint": null, "bias_constraint": null}}]}, "history": {"loss": [… "accuracy": [… "val_loss": [… "val_accuracy": [… "test_loss": [… "test_accuracy": [… "2020-05-01 16:30:11.479180": {"target": "keras", "data": {"PREPROCESS_OPTRIONS": {"add_link_flag": true, "add_user_flag": true, "add_hash_flag": true, "add_number_flag": false, "add_keyword_flag": false, "add_location_flag": false, "remove_links": true, "remove_users": true, "remove_hash": false, "unslang": false, "split_words": true, "stem": false, "remove_punctuations": true, "remove_numbers": true, "to_lower_case": true, "remove_stop_words": true, "remove_not_alpha": false, "join": false}}, "model": {"BATCH_SIZE": 64, "EPOCHS": 25, "VERBOSE": 1, "OPTIMIZER": "rmsprop", "LEARNING_RATE": 0.0001, "SHUFFLE": true, "EMBEDDING_OPTIONS": {"input_dim": 13207, "output_dim": 128, "input_length": 25}, "TYPE": "LSTM_DROPOUT", "config": {"name": "sequential", "layers": [{"class_name": "Embedding", "config": {"name": "embedding", "trainable": true, "batch_input_shape": [null, 25], "dtype": "float32", "input_dim": 13207, "output_dim": 128, "embeddings_initializer": {"class_name": "RandomUniform", "config": {"minval": -0.05, "maxval": 0.05, "seed": null}}, "embeddings_regularizer": null, "activity_regularizer": null, "embeddings_constraint": null, "mask_zero": false, "input_length": 25}}, {"class_name": "SpatialDropout1D", "config": {"name": "spatial_dropout1d", "trainable": true, "dtype": "float32", "rate": 0.2, "noise_shape": null, "seed": null}}, {"class_name": "LSTM", "config": {"name": "lstm_1", "trainable": true, "dtype": "float32", "return_sequences": false, "return_state": false, "go_backwards": false, "stateful": false, "unroll": false, "time_major": false, "units": 32, "activation": "tanh", "recurrent_activation": "sigmoid", "use_bias": true, "kernel_initializer": {"class_name": "GlorotUniform", "config": {"seed": null}}, "recurrent_initializer": {"class_name": "Orthogonal", "config": {"gain": 1.0, "seed": null}}, "bias_initializer": {"class_name": "Zeros", "config": {}}, "unit_forget_bias": true, "kernel_regularizer": null, "recurrent_regularizer": null, "bias_regularizer": null, "activity_regularizer": null, "kernel_constraint": null, "recurrent_constraint": null, "bias_constraint": null, "dropout": 0.2, "recurrent_dropout": 0.2, "implementation": 1}}, {"class_name": "Dense", "config": {"name": "dense_4", "trainable": true, "dtype": "float32", "units": 1, "activation": "sigmoid", "use_bias": true, "kernel_initializer": {"class_name": "GlorotUniform", "config": {"seed": null}}, "bias_initializer": {"class_name": "Zeros", "config": {}}, "kernel_regularizer": null, "bias_regularizer": null, "activity_regularizer": null, "kernel_constraint": null, "bias_constraint": null}}]}, "history": {"loss": [… "accuracy": [… "val_loss": [… "val_accuracy": [… "test_loss": [… "test_accuracy": [… "2020-05-01 16:37:10.904262": {"target": "keras", "data": {"PREPROCESS_OPTRIONS": {"add_link_flag": true, "add_user_flag": true, "add_hash_flag": true, "add_number_flag": true, "add_keyword_flag": false, "add_location_flag": false, "remove_links": true, "remove_users": true, "remove_hash": true, "unslang": false, "split_words": true, "stem": false, "remove_punctuations": false, "remove_numbers": true, "to_lower_case": true, "remove_stop_words": false, "remove_not_alpha": false, "join": false}}, "model": {"BATCH_SIZE": 64, "EPOCHS": 25, "VERBOSE": 1, "OPTIMIZER": "rmsprop", "LEARNING_RATE": 0.0001, "SHUFFLE": true, "EMBEDDING_OPTIONS": {"input_dim": 12788, "output_dim": 128, "input_length": 39}, "TYPE": "LSTM_DROPOUT", "config": {"name": "sequential", "layers": [{"class_name": "Embedding", "config": {"name": "embedding", "trainable": true, "batch_input_shape": [null, 39], "dtype": "float32", "input_dim": 12788, "output_dim": 128, "embeddings_initializer": {"class_name": "RandomUniform", "config": {"minval": -0.05, "maxval": 0.05, "seed": null}}, "embeddings_regularizer": null, "activity_regularizer": null, "embeddings_constraint": null, "mask_zero": false, "input_length": 39}}, {"class_name": "SpatialDropout1D", "config": {"name": "spatial_dropout1d", "trainable": true, "dtype": "float32", "rate": 0.2, "noise_shape": null, "seed": null}}, {"class_name": "LSTM", "config": {"name": "lstm_1", "trainable": true, "dtype": "float32", "return_sequences": false, "return_state": false, "go_backwards": false, "stateful": false, "unroll": false, "time_major": false, "units": 32, "activation": "tanh", "recurrent_activation": "sigmoid", "use_bias": true, "kernel_initializer": {"class_name": "GlorotUniform", "config": {"seed": null}}, "recurrent_initializer": {"class_name": "Orthogonal", "config": {"gain": 1.0, "seed": null}}, "bias_initializer": {"class_name": "Zeros", "config": {}}, "unit_forget_bias": true, "kernel_regularizer": null, "recurrent_regularizer": null, "bias_regularizer": null, "activity_regularizer": null, "kernel_constraint": null, "recurrent_constraint": null, "bias_constraint": null, "dropout": 0.2, "recurrent_dropout": 0.2, "implementation": 1}}, {"class_name": "Dense", "config": {"name": "dense_4", "trainable": true, "dtype": "float32", "units": 1, "activation": "sigmoid", "use_bias": true, "kernel_initializer": {"class_name": "GlorotUniform", "config": {"seed": null}}, "bias_initializer": {"class_name": "Zeros", "config": {}}, "kernel_regularizer": null, "bias_regularizer": null, "activity_regularizer": null, "kernel_constraint": null, "bias_constraint": null}}]}, "history": {"loss": [… "accuracy": [… "val_loss": [… "val_accuracy": [… "test_loss": [… "test_accuracy": [… "2020-05-01 16:39:01.955110": {"target": "keras", "data": {"PREPROCESS_OPTRIONS": {"add_link_flag": true, "add_user_flag": true, "add_hash_flag": true, "add_number_flag": true, "add_keyword_flag": false, "add_location_flag": false, "remove_links": true, "remove_users": true, "remove_hash": false, "unslang": false, "split_words": true, "stem": false, "remove_punctuations": false, "remove_numbers": true, "to_lower_case": true, "remove_stop_words": false, "remove_not_alpha": false, "join": false}}, "model": {"BATCH_SIZE": 64, "EPOCHS": 25, "VERBOSE": 1, "OPTIMIZER": "rmsprop", "LEARNING_RATE": 0.0001, "SHUFFLE": true, "EMBEDDING_OPTIONS": {"input_dim": 13397, "output_dim": 128, "input_length": 39}, "TYPE": "LSTM_DROPOUT", "config": {"name": "sequential", "layers": [{"class_name": "Embedding", "config": {"name": "embedding", "trainable": true, "batch_input_shape": [null, 39], "dtype": "float32", "input_dim": 13397, "output_dim": 128, "embeddings_initializer": {"class_name": "RandomUniform", "config": {"minval": -0.05, "maxval": 0.05, "seed": null}}, "embeddings_regularizer": null, "activity_regularizer": null, "embeddings_constraint": null, "mask_zero": false, "input_length": 39}}, {"class_name": "SpatialDropout1D", "config": {"name": "spatial_dropout1d", "trainable": true, "dtype": "float32", "rate": 0.2, "noise_shape": null, "seed": null}}, {"class_name": "LSTM", "config": {"name": "lstm_1", "trainable": true, "dtype": "float32", "return_sequences": false, "return_state": false, "go_backwards": false, "stateful": false, "unroll": false, "time_major": false, "units": 32, "activation": "tanh", "recurrent_activation": "sigmoid", "use_bias": true, "kernel_initializer": {"class_name": "GlorotUniform", "config": {"seed": null}}, "recurrent_initializer": {"class_name": "Orthogonal", "config": {"gain": 1.0, "seed": null}}, "bias_initializer": {"class_name": "Zeros", "config": {}}, "unit_forget_bias": true, "kernel_regularizer": null, "recurrent_regularizer": null, "bias_regularizer": null, "activity_regularizer": null, "kernel_constraint": null, "recurrent_constraint": null, "bias_constraint": null, "dropout": 0.2, "recurrent_dropout": 0.2, "implementation": 1}}, {"class_name": "Dense", "config": {"name": "dense_4", "trainable": true, "dtype": "float32", "units": 1, "activation": "sigmoid", "use_bias": true, "kernel_initializer": {"class_name": "GlorotUniform", "config": {"seed": null}}, "bias_initializer": {"class_name": "Zeros", "config": {}}, "kernel_regularizer": null, "bias_regularizer": null, "activity_regularizer": null, "kernel_constraint": null, "bias_constraint": null}}]}, "history": {"loss": [… "accuracy": [… "val_loss": [… "val_accuracy": [… "test_loss": [… "test_accuracy": [… "2020-05-01 16:43:56.802696": {"target": "keras", "data": {"PREPROCESS_OPTRIONS": {"add_link_flag": true, "add_user_flag": true, "add_hash_flag": true, "add_number_flag": true, "add_keyword_flag": false, "add_location_flag": false, "remove_links": true, "remove_users": true, "remove_hash": true, "unslang": true, "split_words": true, "stem": false, "remove_punctuations": false, "remove_numbers": true, "to_lower_case": true, "remove_stop_words": false, "remove_not_alpha": false, "join": false}}, "model": {"BATCH_SIZE": 64, "EPOCHS": 25, "VERBOSE": 1, "OPTIMIZER": "rmsprop", "LEARNING_RATE": 0.0001, "SHUFFLE": true, "EMBEDDING_OPTIONS": {"input_dim": 12747, "output_dim": 128, "input_length": 39}, "TYPE": "LSTM_DROPOUT", "config": {"name": "sequential", "layers": [{"class_name": "Embedding", "config": {"name": "embedding", "trainable": true, "batch_input_shape": [null, 39], "dtype": "float32", "input_dim": 12747, "output_dim": 128, "embeddings_initializer": {"class_name": "RandomUniform", "config": {"minval": -0.05, "maxval": 0.05, "seed": null}}, "embeddings_regularizer": null, "activity_regularizer": null, "embeddings_constraint": null, "mask_zero": false, "input_length": 39}}, {"class_name": "SpatialDropout1D", "config": {"name": "spatial_dropout1d", "trainable": true, "dtype": "float32", "rate": 0.2, "noise_shape": null, "seed": null}}, {"class_name": "LSTM", "config": {"name": "lstm_1", "trainable": true, "dtype": "float32", "return_sequences": false, "return_state": false, "go_backwards": false, "stateful": false, "unroll": false, "time_major": false, "units": 32, "activation": "tanh", "recurrent_activation": "sigmoid", "use_bias": true, "kernel_initializer": {"class_name": "GlorotUniform", "config": {"seed": null}}, "recurrent_initializer": {"class_name": "Orthogonal", "config": {"gain": 1.0, "seed": null}}, "bias_initializer": {"class_name": "Zeros", "config": {}}, "unit_forget_bias": true, "kernel_regularizer": null, "recurrent_regularizer": null, "bias_regularizer": null, "activity_regularizer": null, "kernel_constraint": null, "recurrent_constraint": null, "bias_constraint": null, "dropout": 0.2, "recurrent_dropout": 0.2, "implementation": 1}}, {"class_name": "Dense", "config": {"name": "dense_4", "trainable": true, "dtype": "float32", "units": 1, "activation": "sigmoid", "use_bias": true, "kernel_initializer": {"class_name": "GlorotUniform", "config": {"seed": null}}, "bias_initializer": {"class_name": "Zeros", "config": {}}, "kernel_regularizer": null, "bias_regularizer": null, "activity_regularizer": null, "kernel_constraint": null, "bias_constraint": null}}]}, "history": {"loss": [… "accuracy": [… "val_loss": [… "val_accuracy": [… "test_loss": [… "test_accuracy": [… "2020-05-01 16:46:40.635037": {"target": "keras", "data": {"PREPROCESS_OPTRIONS": {"add_link_flag": true, "add_user_flag": true, "add_hash_flag": true, "add_number_flag": true, "add_keyword_flag": false, "add_location_flag": false, "remove_links": true, "remove_users": true, "remove_hash": true, "unslang": false, "split_words": false, "stem": false, "remove_punctuations": false, "remove_numbers": true, "to_lower_case": true, "remove_stop_words": false, "remove_not_alpha": false, "join": false}}, "model": {"BATCH_SIZE": 64, "EPOCHS": 25, "VERBOSE": 1, "OPTIMIZER": "rmsprop", "LEARNING_RATE": 0.0001, "SHUFFLE": true, "EMBEDDING_OPTIONS": {"input_dim": 13334, "output_dim": 128, "input_length": 54}, "TYPE": "LSTM_DROPOUT", "config": {"name": "sequential", "layers": [{"class_name": "Embedding", "config": {"name": "embedding", "trainable": true, "batch_input_shape": [null, 54], "dtype": "float32", "input_dim": 13334, "output_dim": 128, "embeddings_initializer": {"class_name": "RandomUniform", "config": {"minval": -0.05, "maxval": 0.05, "seed": null}}, "embeddings_regularizer": null, "activity_regularizer": null, "embeddings_constraint": null, "mask_zero": false, "input_length": 54}}, {"class_name": "SpatialDropout1D", "config": {"name": "spatial_dropout1d", "trainable": true, "dtype": "float32", "rate": 0.2, "noise_shape": null, "seed": null}}, {"class_name": "LSTM", "config": {"name": "lstm_1", "trainable": true, "dtype": "float32", "return_sequences": false, "return_state": false, "go_backwards": false, "stateful": false, "unroll": false, "time_major": false, "units": 32, "activation": "tanh", "recurrent_activation": "sigmoid", "use_bias": true, "kernel_initializer": {"class_name": "GlorotUniform", "config": {"seed": null}}, "recurrent_initializer": {"class_name": "Orthogonal", "config": {"gain": 1.0, "seed": null}}, "bias_initializer": {"class_name": "Zeros", "config": {}}, "unit_forget_bias": true, "kernel_regularizer": null, "recurrent_regularizer": null, "bias_regularizer": null, "activity_regularizer": null, "kernel_constraint": null, "recurrent_constraint": null, "bias_constraint": null, "dropout": 0.2, "recurrent_dropout": 0.2, "implementation": 1}}, {"class_name": "Dense", "config": {"name": "dense_4", "trainable": true, "dtype": "float32", "units": 1, "activation": "sigmoid", "use_bias": true, "kernel_initializer": {"class_name": "GlorotUniform", "config": {"seed": null}}, "bias_initializer": {"class_name": "Zeros", "config": {}}, "kernel_regularizer": null, "bias_regularizer": null, "activity_regularizer": null, "kernel_constraint": null, "bias_constraint": null}}]}, "history": {"loss": [… "accuracy": [… "val_loss": [… "val_accuracy": [… "test_loss": [… "test_accuracy": [… "2020-05-01 18:59:59.809985": {"target": "keras", "data": {"PREPROCESS_OPTRIONS": {"add_link_flag": true, "add_user_flag": true, "add_hash_flag": true, "add_number_flag": true, "add_keyword_flag": false, "add_location_flag": false, "remove_links": true, "remove_users": true, "remove_hash": true, "unslang": true, "split_words": true, "stem": false, "remove_punctuations": true, "remove_numbers": true, "to_lower_case": true, "remove_stop_words": true, "remove_not_alpha": true, "join": false}}, "model": {"BATCH_SIZE": 64, "EPOCHS": 25, "VERBOSE": 1, "OPTIMIZER": "rmsprop", "LEARNING_RATE": 0.0001, "SHUFFLE": true, "EMBEDDING_OPTIONS": {"input_dim": 12175, "output_dim": 128, "input_length": 22}, "TYPE": "LSTM_DROPOUT", "config": {"name": "sequential", "layers": [{"class_name": "Embedding", "config": {"name": "embedding", "trainable": true, "batch_input_shape": [null, 22], "dtype": "float32", "input_dim": 12175, "output_dim": 128, "embeddings_initializer": {"class_name": "RandomUniform", "config": {"minval": -0.05, "maxval": 0.05, "seed": null}}, "embeddings_regularizer": null, "activity_regularizer": null, "embeddings_constraint": null, "mask_zero": false, "input_length": 22}}, {"class_name": "SpatialDropout1D", "config": {"name": "spatial_dropout1d", "trainable": true, "dtype": "float32", "rate": 0.2, "noise_shape": null, "seed": null}}, {"class_name": "LSTM", "config": {"name": "lstm_1", "trainable": true, "dtype": "float32", "return_sequences": false, "return_state": false, "go_backwards": false, "stateful": false, "unroll": false, "time_major": false, "units": 32, "activation": "tanh", "recurrent_activation": "sigmoid", "use_bias": true, "kernel_initializer": {"class_name": "GlorotUniform", "config": {"seed": null}}, "recurrent_initializer": {"class_name": "Orthogonal", "config": {"gain": 1.0, "seed": null}}, "bias_initializer": {"class_name": "Zeros", "config": {}}, "unit_forget_bias": true, "kernel_regularizer": null, "recurrent_regularizer": null, "bias_regularizer": null, "activity_regularizer": null, "kernel_constraint": null, "recurrent_constraint": null, "bias_constraint": null, "dropout": 0.2, "recurrent_dropout": 0.2, "implementation": 1}}, {"class_name": "Dense", "config": {"name": "dense_4", "trainable": true, "dtype": "float32", "units": 1, "activation": "sigmoid", "use_bias": true, "kernel_initializer": {"class_name": "GlorotUniform", "config": {"seed": null}}, "bias_initializer": {"class_name": "Zeros", "config": {}}, "kernel_regularizer": null, "bias_regularizer": null, "activity_regularizer": null, "kernel_constraint": null, "bias_constraint": null}}]}, "history": {"loss": [… "accuracy": [… "val_loss": [… "val_accuracy": [… "test_loss": [… "test_accuracy": [… "2020-05-01 19:11:04.673922": {"target": "keras", "data": {"PREPROCESS_OPTRIONS": {"add_link_flag": true, "add_user_flag": true, "add_hash_flag": true, "add_number_flag": true, "add_keyword_flag": false, "add_location_flag": false, "remove_links": true, "remove_users": true, "remove_hash": true, "unslang": true, "split_words": true, "stem": false, "remove_punctuations": true, "remove_numbers": true, "to_lower_case": true, "remove_stop_words": true, "remove_not_alpha": true, "join": false}}, "model": {"BATCH_SIZE": 64, "EPOCHS": 25, "VERBOSE": 1, "OPTIMIZER": "rmsprop", "LEARNING_RATE": 0.0001, "SHUFFLE": true, "EMBEDDING_OPTIONS": {"input_dim": 12175, "output_dim": 128, "input_length": 22}, "TYPE": "LSTM_DROPOUT", "config": {"name": "sequential", "layers": [{"class_name": "Embedding", "config": {"name": "embedding", "trainable": true, "batch_input_shape": [null, 22], "dtype": "float32", "input_dim": 12175, "output_dim": 128, "embeddings_initializer": {"class_name": "RandomUniform", "config": {"minval": -0.05, "maxval": 0.05, "seed": null}}, "embeddings_regularizer": null, "activity_regularizer": null, "embeddings_constraint": null, "mask_zero": false, "input_length": 22}}, {"class_name": "SpatialDropout1D", "config": {"name": "spatial_dropout1d", "trainable": true, "dtype": "float32", "rate": 0.2, "noise_shape": null, "seed": null}}, {"class_name": "LSTM", "config": {"name": "lstm_1", "trainable": true, "dtype": "float32", "return_sequences": false, "return_state": false, "go_backwards": false, "stateful": false, "unroll": false, "time_major": false, "units": 32, "activation": "tanh", "recurrent_activation": "sigmoid", "use_bias": true, "kernel_initializer": {"class_name": "GlorotUniform", "config": {"seed": null}}, "recurrent_initializer": {"class_name": "Orthogonal", "config": {"gain": 1.0, "seed": null}}, "bias_initializer": {"class_name": "Zeros", "config": {}}, "unit_forget_bias": true, "kernel_regularizer": null, "recurrent_regularizer": null, "bias_regularizer": null, "activity_regularizer": null, "kernel_constraint": null, "recurrent_constraint": null, "bias_constraint": null, "dropout": 0.2, "recurrent_dropout": 0.2, "implementation": 1}}, {"class_name": "Dense", "config": {"name": "dense_4", "trainable": true, "dtype": "float32", "units": 1, "activation": "sigmoid", "use_bias": true, "kernel_initializer": {"class_name": "GlorotUniform", "config": {"seed": null}}, "bias_initializer": {"class_name": "Zeros", "config": {}}, "kernel_regularizer": null, "bias_regularizer": null, "activity_regularizer": null, "kernel_constraint": null, "bias_constraint": null}}]}, "history": {"loss": [… "accuracy": [… "val_loss": [… "val_accuracy": [… "test_loss": [… "test_accuracy": [… "2020-05-01 19:12:59.767841": {"target": "keras", "data": {"PREPROCESS_OPTRIONS": {"add_link_flag": false, "add_user_flag": false, "add_hash_flag": false, "add_number_flag": true, "add_keyword_flag": false, "add_location_flag": false, "remove_links": true, "remove_users": true, "remove_hash": true, "unslang": true, "split_words": true, "stem": false, "remove_punctuations": true, "remove_numbers": true, "to_lower_case": true, "remove_stop_words": true, "remove_not_alpha": true, "join": false}}, "model": {"BATCH_SIZE": 64, "EPOCHS": 25, "VERBOSE": 1, "OPTIMIZER": "rmsprop", "LEARNING_RATE": 0.0001, "SHUFFLE": true, "EMBEDDING_OPTIONS": {"input_dim": 12172, "output_dim": 128, "input_length": 21}, "TYPE": "LSTM_DROPOUT", "config": {"name": "sequential", "layers": [{"class_name": "Embedding", "config": {"name": "embedding", "trainable": true, "batch_input_shape": [null, 21], "dtype": "float32", "input_dim": 12172, "output_dim": 128, "embeddings_initializer": {"class_name": "RandomUniform", "config": {"minval": -0.05, "maxval": 0.05, "seed": null}}, "embeddings_regularizer": null, "activity_regularizer": null, "embeddings_constraint": null, "mask_zero": false, "input_length": 21}}, {"class_name": "SpatialDropout1D", "config": {"name": "spatial_dropout1d", "trainable": true, "dtype": "float32", "rate": 0.2, "noise_shape": null, "seed": null}}, {"class_name": "LSTM", "config": {"name": "lstm_1", "trainable": true, "dtype": "float32", "return_sequences": false, "return_state": false, "go_backwards": false, "stateful": false, "unroll": false, "time_major": false, "units": 32, "activation": "tanh", "recurrent_activation": "sigmoid", "use_bias": true, "kernel_initializer": {"class_name": "GlorotUniform", "config": {"seed": null}}, "recurrent_initializer": {"class_name": "Orthogonal", "config": {"gain": 1.0, "seed": null}}, "bias_initializer": {"class_name": "Zeros", "config": {}}, "unit_forget_bias": true, "kernel_regularizer": null, "recurrent_regularizer": null, "bias_regularizer": null, "activity_regularizer": null, "kernel_constraint": null, "recurrent_constraint": null, "bias_constraint": null, "dropout": 0.2, "recurrent_dropout": 0.2, "implementation": 1}}, {"class_name": "Dense", "config": {"name": "dense_4", "trainable": true, "dtype": "float32", "units": 1, "activation": "sigmoid", "use_bias": true, "kernel_initializer": {"class_name": "GlorotUniform", "config": {"seed": null}}, "bias_initializer": {"class_name": "Zeros", "config": {}}, "kernel_regularizer": null, "bias_regularizer": null, "activity_regularizer": null, "kernel_constraint": null, "bias_constraint": null}}]}, "history": {"loss": [… "accuracy": [… "val_loss": [… "val_accuracy": [… "test_loss": [… "test_accuracy": [… "2020-05-01 19:14:36.720269": {"target": "keras", "data": {"PREPROCESS_OPTRIONS": {"add_link_flag": false, "add_user_flag": false, "add_hash_flag": false, "add_number_flag": false, "add_keyword_flag": false, "add_location_flag": false, "remove_links": true, "remove_users": true, "remove_hash": true, "unslang": true, "split_words": true, "stem": false, "remove_punctuations": true, "remove_numbers": true, "to_lower_case": true, "remove_stop_words": true, "remove_not_alpha": true, "join": false}}, "model": {"BATCH_SIZE": 64, "EPOCHS": 25, "VERBOSE": 1, "OPTIMIZER": "rmsprop", "LEARNING_RATE": 0.0001, "SHUFFLE": true, "EMBEDDING_OPTIONS": {"input_dim": 12171, "output_dim": 128, "input_length": 21}, "TYPE": "LSTM_DROPOUT", "config": {"name": "sequential", "layers": [{"class_name": "Embedding", "config": {"name": "embedding", "trainable": true, "batch_input_shape": [null, 21], "dtype": "float32", "input_dim": 12171, "output_dim": 128, "embeddings_initializer": {"class_name": "RandomUniform", "config": {"minval": -0.05, "maxval": 0.05, "seed": null}}, "embeddings_regularizer": null, "activity_regularizer": null, "embeddings_constraint": null, "mask_zero": false, "input_length": 21}}, {"class_name": "SpatialDropout1D", "config": {"name": "spatial_dropout1d", "trainable": true, "dtype": "float32", "rate": 0.2, "noise_shape": null, "seed": null}}, {"class_name": "LSTM", "config": {"name": "lstm_1", "trainable": true, "dtype": "float32", "return_sequences": false, "return_state": false, "go_backwards": false, "stateful": false, "unroll": false, "time_major": false, "units": 32, "activation": "tanh", "recurrent_activation": "sigmoid", "use_bias": true, "kernel_initializer": {"class_name": "GlorotUniform", "config": {"seed": null}}, "recurrent_initializer": {"class_name": "Orthogonal", "config": {"gain": 1.0, "seed": null}}, "bias_initializer": {"class_name": "Zeros", "config": {}}, "unit_forget_bias": true, "kernel_regularizer": null, "recurrent_regularizer": null, "bias_regularizer": null, "activity_regularizer": null, "kernel_constraint": null, "recurrent_constraint": null, "bias_constraint": null, "dropout": 0.2, "recurrent_dropout": 0.2, "implementation": 1}}, {"class_name": "Dense", "config": {"name": "dense_4", "trainable": true, "dtype": "float32", "units": 1, "activation": "sigmoid", "use_bias": true, "kernel_initializer": {"class_name": "GlorotUniform", "config": {"seed": null}}, "bias_initializer": {"class_name": "Zeros", "config": {}}, "kernel_regularizer": null, "bias_regularizer": null, "activity_regularizer": null, "kernel_constraint": null, "bias_constraint": null}}]}, "history": {"loss": [… "accuracy": [… "val_loss": [… "val_accuracy": [… "test_loss": [… "test_accuracy": [… "2020-05-01 19:16:16.563531": {"target": "keras", "data": {"PREPROCESS_OPTRIONS": {"add_link_flag": true, "add_user_flag": false, "add_hash_flag": true, "add_number_flag": true, "add_keyword_flag": false, "add_location_flag": false, "remove_links": true, "remove_users": true, "remove_hash": true, "unslang": true, "split_words": true, "stem": false, "remove_punctuations": true, "remove_numbers": true, "to_lower_case": true, "remove_stop_words": true, "remove_not_alpha": true, "join": false}}, "model": {"BATCH_SIZE": 64, "EPOCHS": 25, "VERBOSE": 1, "OPTIMIZER": "rmsprop", "LEARNING_RATE": 0.0001, "SHUFFLE": true, "EMBEDDING_OPTIONS": {"input_dim": 12174, "output_dim": 128, "input_length": 22}, "TYPE": "LSTM_DROPOUT", "config": {"name": "sequential", "layers": [{"class_name": "Embedding", "config": {"name": "embedding", "trainable": true, "batch_input_shape": [null, 22], "dtype": "float32", "input_dim": 12174, "output_dim": 128, "embeddings_initializer": {"class_name": "RandomUniform", "config": {"minval": -0.05, "maxval": 0.05, "seed": null}}, "embeddings_regularizer": null, "activity_regularizer": null, "embeddings_constraint": null, "mask_zero": false, "input_length": 22}}, {"class_name": "SpatialDropout1D", "config": {"name": "spatial_dropout1d", "trainable": true, "dtype": "float32", "rate": 0.2, "noise_shape": null, "seed": null}}, {"class_name": "LSTM", "config": {"name": "lstm_1", "trainable": true, "dtype": "float32", "return_sequences": false, "return_state": false, "go_backwards": false, "stateful": false, "unroll": false, "time_major": false, "units": 32, "activation": "tanh", "recurrent_activation": "sigmoid", "use_bias": true, "kernel_initializer": {"class_name": "GlorotUniform", "config": {"seed": null}}, "recurrent_initializer": {"class_name": "Orthogonal", "config": {"gain": 1.0, "seed": null}}, "bias_initializer": {"class_name": "Zeros", "config": {}}, "unit_forget_bias": true, "kernel_regularizer": null, "recurrent_regularizer": null, "bias_regularizer": null, "activity_regularizer": null, "kernel_constraint": null, "recurrent_constraint": null, "bias_constraint": null, "dropout": 0.2, "recurrent_dropout": 0.2, "implementation": 1}}, {"class_name": "Dense", "config": {"name": "dense_4", "trainable": true, "dtype": "float32", "units": 1, "activation": "sigmoid", "use_bias": true, "kernel_initializer": {"class_name": "GlorotUniform", "config": {"seed": null}}, "bias_initializer": {"class_name": "Zeros", "config": {}}, "kernel_regularizer": null, "bias_regularizer": null, "activity_regularizer": null, "kernel_constraint": null, "bias_constraint": null}}]}, "history": {"loss": [… "accuracy": [… "val_loss": [… "val_accuracy": [… "test_loss": [… "test_accuracy": [… "2020-05-01 19:18:00.676807": {"target": "keras", "data": {"PREPROCESS_OPTRIONS": {"add_link_flag": false, "add_user_flag": false, "add_hash_flag": true, "add_number_flag": true, "add_keyword_flag": false, "add_location_flag": false, "remove_links": true, "remove_users": true, "remove_hash": true, "unslang": true, "split_words": true, "stem": false, "remove_punctuations": true, "remove_numbers": true, "to_lower_case": true, "remove_stop_words": true, "remove_not_alpha": true, "join": false}}, "model": {"BATCH_SIZE": 64, "EPOCHS": 25, "VERBOSE": 1, "OPTIMIZER": "rmsprop", "LEARNING_RATE": 0.0001, "SHUFFLE": true, "EMBEDDING_OPTIONS": {"input_dim": 12173, "output_dim": 128, "input_length": 22}, "TYPE": "LSTM_DROPOUT", "config": {"name": "sequential", "layers": [{"class_name": "Embedding", "config": {"name": "embedding", "trainable": true, "batch_input_shape": [null, 22], "dtype": "float32", "input_dim": 12173, "output_dim": 128, "embeddings_initializer": {"class_name": "RandomUniform", "config": {"minval": -0.05, "maxval": 0.05, "seed": null}}, "embeddings_regularizer": null, "activity_regularizer": null, "embeddings_constraint": null, "mask_zero": false, "input_length": 22}}, {"class_name": "SpatialDropout1D", "config": {"name": "spatial_dropout1d", "trainable": true, "dtype": "float32", "rate": 0.2, "noise_shape": null, "seed": null}}, {"class_name": "LSTM", "config": {"name": "lstm_1", "trainable": true, "dtype": "float32", "return_sequences": false, "return_state": false, "go_backwards": false, "stateful": false, "unroll": false, "time_major": false, "units": 32, "activation": "tanh", "recurrent_activation": "sigmoid", "use_bias": true, "kernel_initializer": {"class_name": "GlorotUniform", "config": {"seed": null}}, "recurrent_initializer": {"class_name": "Orthogonal", "config": {"gain": 1.0, "seed": null}}, "bias_initializer": {"class_name": "Zeros", "config": {}}, "unit_forget_bias": true, "kernel_regularizer": null, "recurrent_regularizer": null, "bias_regularizer": null, "activity_regularizer": null, "kernel_constraint": null, "recurrent_constraint": null, "bias_constraint": null, "dropout": 0.2, "recurrent_dropout": 0.2, "implementation": 1}}, {"class_name": "Dense", "config": {"name": "dense_4", "trainable": true, "dtype": "float32", "units": 1, "activation": "sigmoid", "use_bias": true, "kernel_initializer": {"class_name": "GlorotUniform", "config": {"seed": null}}, "bias_initializer": {"class_name": "Zeros", "config": {}}, "kernel_regularizer": null, "bias_regularizer": null, "activity_regularizer": null, "kernel_constraint": null, "bias_constraint": null}}]}, "history": {"loss": [… "accuracy": [… "val_loss": [… "val_accuracy": [… "test_loss": [… "test_accuracy": [… "2020-05-01 19:20:30.272690": {"target": "keras", "data": {"PREPROCESS_OPTRIONS": {"add_link_flag": true, "add_user_flag": true, "add_hash_flag": true, "add_number_flag": true, "add_keyword_flag": false, "add_location_flag": false, "remove_links": true, "remove_users": true, "remove_hash": true, "unslang": true, "split_words": true, "stem": false, "remove_punctuations": true, "remove_numbers": true, "to_lower_case": true, "remove_stop_words": true, "remove_not_alpha": true, "join": false}}, "model": {"BATCH_SIZE": 64, "EPOCHS": 25, "VERBOSE": 1, "OPTIMIZER": "rmsprop", "LEARNING_RATE": 0.0001, "SHUFFLE": true, "EMBEDDING_OPTIONS": {"input_dim": 12175, "output_dim": 128, "input_length": 22}, "TYPE": "LSTM_DROPOUT", "config": {"name": "sequential", "layers": [{"class_name": "Embedding", "config": {"name": "embedding", "trainable": true, "batch_input_shape": [null, 22], "dtype": "float32", "input_dim": 12175, "output_dim": 128, "embeddings_initializer": {"class_name": "RandomUniform", "config": {"minval": -0.05, "maxval": 0.05, "seed": null}}, "embeddings_regularizer": null, "activity_regularizer": null, "embeddings_constraint": null, "mask_zero": false, "input_length": 22}}, {"class_name": "SpatialDropout1D", "config": {"name": "spatial_dropout1d", "trainable": true, "dtype": "float32", "rate": 0.2, "noise_shape": null, "seed": null}}, {"class_name": "LSTM", "config": {"name": "lstm_1", "trainable": true, "dtype": "float32", "return_sequences": false, "return_state": false, "go_backwards": false, "stateful": false, "unroll": false, "time_major": false, "units": 32, "activation": "tanh", "recurrent_activation": "sigmoid", "use_bias": true, "kernel_initializer": {"class_name": "GlorotUniform", "config": {"seed": null}}, "recurrent_initializer": {"class_name": "Orthogonal", "config": {"gain": 1.0, "seed": null}}, "bias_initializer": {"class_name": "Zeros", "config": {}}, "unit_forget_bias": true, "kernel_regularizer": null, "recurrent_regularizer": null, "bias_regularizer": null, "activity_regularizer": null, "kernel_constraint": null, "recurrent_constraint": null, "bias_constraint": null, "dropout": 0.2, "recurrent_dropout": 0.2, "implementation": 1}}, {"class_name": "Dense", "config": {"name": "dense_4", "trainable": true, "dtype": "float32", "units": 1, "activation": "sigmoid", "use_bias": true, "kernel_initializer": {"class_name": "GlorotUniform", "config": {"seed": null}}, "bias_initializer": {"class_name": "Zeros", "config": {}}, "kernel_regularizer": null, "bias_regularizer": null, "activity_regularizer": null, "kernel_constraint": null, "bias_constraint": null}}]}, "history": {"loss": [… "accuracy": [… "val_loss": [… "val_accuracy": [… "test_loss": [… "test_accuracy": [… "2020-05-01 20:35:40.820497": {"target": "keras", "data": {"PREPROCESS_OPTRIONS": {"add_link_flag": true, "add_user_flag": true, "add_hash_flag": true, "add_number_flag": true, "add_keyword_flag": false, "add_location_flag": false, "remove_links": true, "remove_users": true, "remove_hash": true, "unslang": true, "split_words": true, "stem": false, "remove_punctuations": true, "remove_numbers": true, "to_lower_case": true, "remove_stop_words": true, "remove_not_alpha": true, "join": false}}, "model": {"BATCH_SIZE": 64, "EPOCHS": 25, "VERBOSE": 1, "OPTIMIZER": "rmsprop", "LEARNING_RATE": 0.0001, "SHUFFLE": true, "EMBEDDING_OPTIONS": {"input_dim": 12175, "output_dim": 128, "input_length": 22}, "TYPE": "LSTM_DROPOUT", "config": {"name": "sequential", "layers": [{"class_name": "Embedding", "config": {"name": "embedding", "trainable": true, "batch_input_shape": [null, 22], "dtype": "float32", "input_dim": 12175, "output_dim": 128, "embeddings_initializer": {"class_name": "RandomUniform", "config": {"minval": -0.05, "maxval": 0.05, "seed": null}}, "embeddings_regularizer": null, "activity_regularizer": null, "embeddings_constraint": null, "mask_zero": false, "input_length": 22}}, {"class_name": "SpatialDropout1D", "config": {"name": "spatial_dropout1d", "trainable": true, "dtype": "float32", "rate": 0.2, "noise_shape": null, "seed": null}}, {"class_name": "LSTM", "config": {"name": "lstm_1", "trainable": true, "dtype": "float32", "return_sequences": false, "return_state": false, "go_backwards": false, "stateful": false, "unroll": false, "time_major": false, "units": 32, "activation": "tanh", "recurrent_activation": "sigmoid", "use_bias": true, "kernel_initializer": {"class_name": "GlorotUniform", "config": {"seed": null}}, "recurrent_initializer": {"class_name": "Orthogonal", "config": {"gain": 1.0, "seed": null}}, "bias_initializer": {"class_name": "Zeros", "config": {}}, "unit_forget_bias": true, "kernel_regularizer": null, "recurrent_regularizer": null, "bias_regularizer": null, "activity_regularizer": null, "kernel_constraint": null, "recurrent_constraint": null, "bias_constraint": null, "dropout": 0.2, "recurrent_dropout": 0.2, "implementation": 1}}, {"class_name": "Dense", "config": {"name": "dense_4", "trainable": true, "dtype": "float32", "units": 1, "activation": "sigmoid", "use_bias": true, "kernel_initializer": {"class_name": "GlorotUniform", "config": {"seed": null}}, "bias_initializer": {"class_name": "Zeros", "config": {}}, "kernel_regularizer": null, "bias_regularizer": null, "activity_regularizer": null, "kernel_constraint": null, "bias_constraint": null}}]}, "history": {"loss": [… "accuracy": [… "val_loss": [… "val_accuracy": [… "test_loss": [… "test_accuracy": [… "2020-05-01 20:37:09.171184": {"target": "keras", "data": {"PREPROCESS_OPTRIONS": {"add_link_flag": false, "add_user_flag": true, "add_hash_flag": true, "add_number_flag": true, "add_keyword_flag": false, "add_location_flag": false, "remove_links": true, "remove_users": true, "remove_hash": true, "unslang": true, "split_words": true, "stem": false, "remove_punctuations": true, "remove_numbers": true, "to_lower_case": true, "remove_stop_words": true, "remove_not_alpha": true, "join": false}}, "model": {"BATCH_SIZE": 64, "EPOCHS": 25, "VERBOSE": 1, "OPTIMIZER": "rmsprop", "LEARNING_RATE": 0.0001, "SHUFFLE": true, "EMBEDDING_OPTIONS": {"input_dim": 12174, "output_dim": 128, "input_length": 22}, "TYPE": "LSTM_DROPOUT", "config": {"name": "sequential", "layers": [{"class_name": "Embedding", "config": {"name": "embedding", "trainable": true, "batch_input_shape": [null, 22], "dtype": "float32", "input_dim": 12174, "output_dim": 128, "embeddings_initializer": {"class_name": "RandomUniform", "config": {"minval": -0.05, "maxval": 0.05, "seed": null}}, "embeddings_regularizer": null, "activity_regularizer": null, "embeddings_constraint": null, "mask_zero": false, "input_length": 22}}, {"class_name": "SpatialDropout1D", "config": {"name": "spatial_dropout1d", "trainable": true, "dtype": "float32", "rate": 0.2, "noise_shape": null, "seed": null}}, {"class_name": "LSTM", "config": {"name": "lstm_1", "trainable": true, "dtype": "float32", "return_sequences": false, "return_state": false, "go_backwards": false, "stateful": false, "unroll": false, "time_major": false, "units": 32, "activation": "tanh", "recurrent_activation": "sigmoid", "use_bias": true, "kernel_initializer": {"class_name": "GlorotUniform", "config": {"seed": null}}, "recurrent_initializer": {"class_name": "Orthogonal", "config": {"gain": 1.0, "seed": null}}, "bias_initializer": {"class_name": "Zeros", "config": {}}, "unit_forget_bias": true, "kernel_regularizer": null, "recurrent_regularizer": null, "bias_regularizer": null, "activity_regularizer": null, "kernel_constraint": null, "recurrent_constraint": null, "bias_constraint": null, "dropout": 0.2, "recurrent_dropout": 0.2, "implementation": 1}}, {"class_name": "Dense", "config": {"name": "dense_4", "trainable": true, "dtype": "float32", "units": 1, "activation": "sigmoid", "use_bias": true, "kernel_initializer": {"class_name": "GlorotUniform", "config": {"seed": null}}, "bias_initializer": {"class_name": "Zeros", "config": {}}, "kernel_regularizer": null, "bias_regularizer": null, "activity_regularizer": null, "kernel_constraint": null, "bias_constraint": null}}]}, "history": {"loss": [… "accuracy": [… "val_loss": [… "val_accuracy": [… "test_loss": [… "test_accuracy": [… "2020-05-01 20:39:36.756795": {"target": "keras", "data": {"PREPROCESS_OPTRIONS": {"add_link_flag": true, "add_user_flag": true, "add_hash_flag": true, "add_number_flag": true, "add_keyword_flag": false, "add_location_flag": false, "remove_links": true, "remove_users": true, "remove_hash": true, "unslang": true, "split_words": true, "stem": false, "remove_punctuations": true, "remove_numbers": true, "to_lower_case": true, "remove_stop_words": true, "remove_not_alpha": true, "join": false}}, "model": {"BATCH_SIZE": 64, "EPOCHS": 25, "VERBOSE": 1, "OPTIMIZER": "rmsprop", "LEARNING_RATE": 0.0001, "SHUFFLE": true, "EMBEDDING_OPTIONS": {"input_dim": 12175, "output_dim": 128, "input_length": 22}, "TYPE": "LSTM_DROPOUT", "config": {"name": "sequential", "layers": [{"class_name": "Embedding", "config": {"name": "embedding", "trainable": true, "batch_input_shape": [null, 22], "dtype": "float32", "input_dim": 12175, "output_dim": 128, "embeddings_initializer": {"class_name": "RandomUniform", "config": {"minval": -0.05, "maxval": 0.05, "seed": null}}, "embeddings_regularizer": null, "activity_regularizer": null, "embeddings_constraint": null, "mask_zero": false, "input_length": 22}}, {"class_name": "SpatialDropout1D", "config": {"name": "spatial_dropout1d", "trainable": true, "dtype": "float32", "rate": 0.2, "noise_shape": null, "seed": null}}, {"class_name": "LSTM", "config": {"name": "lstm_1", "trainable": true, "dtype": "float32", "return_sequences": false, "return_state": false, "go_backwards": false, "stateful": false, "unroll": false, "time_major": false, "units": 64, "activation": "tanh", "recurrent_activation": "sigmoid", "use_bias": true, "kernel_initializer": {"class_name": "GlorotUniform", "config": {"seed": null}}, "recurrent_initializer": {"class_name": "Orthogonal", "config": {"gain": 1.0, "seed": null}}, "bias_initializer": {"class_name": "Zeros", "config": {}}, "unit_forget_bias": true, "kernel_regularizer": null, "recurrent_regularizer": null, "bias_regularizer": null, "activity_regularizer": null, "kernel_constraint": null, "recurrent_constraint": null, "bias_constraint": null, "dropout": 0.2, "recurrent_dropout": 0.2, "implementation": 1}}, {"class_name": "Dense", "config": {"name": "dense_4", "trainable": true, "dtype": "float32", "units": 1, "activation": "sigmoid", "use_bias": true, "kernel_initializer": {"class_name": "GlorotUniform", "config": {"seed": null}}, "bias_initializer": {"class_name": "Zeros", "config": {}}, "kernel_regularizer": null, "bias_regularizer": null, "activity_regularizer": null, "kernel_constraint": null, "bias_constraint": null}}]}, "history": {"loss": [… "accuracy": [… "val_loss": [… "val_accuracy": [… "test_loss": [… "test_accuracy": [… "2020-05-01 20:40:44.609427": {"target": "keras", "data": {"PREPROCESS_OPTRIONS": {"add_link_flag": true, "add_user_flag": true, "add_hash_flag": true, "add_number_flag": true, "add_keyword_flag": false, "add_location_flag": false, "remove_links": true, "remove_users": true, "remove_hash": true, "unslang": true, "split_words": true, "stem": false, "remove_punctuations": true, "remove_numbers": true, "to_lower_case": true, "remove_stop_words": true, "remove_not_alpha": true, "join": false}}, "model": {"BATCH_SIZE": 64, "EPOCHS": 25, "VERBOSE": 1, "OPTIMIZER": "rmsprop", "LEARNING_RATE": 0.0001, "SHUFFLE": true, "EMBEDDING_OPTIONS": {"input_dim": 12175, "output_dim": 64, "input_length": 22}, "TYPE": "LSTM_DROPOUT", "config": {"name": "sequential", "layers": [{"class_name": "Embedding", "config": {"name": "embedding", "trainable": true, "batch_input_shape": [null, 22], "dtype": "float32", "input_dim": 12175, "output_dim": 64, "embeddings_initializer": {"class_name": "RandomUniform", "config": {"minval": -0.05, "maxval": 0.05, "seed": null}}, "embeddings_regularizer": null, "activity_regularizer": null, "embeddings_constraint": null, "mask_zero": false, "input_length": 22}}, {"class_name": "SpatialDropout1D", "config": {"name": "spatial_dropout1d", "trainable": true, "dtype": "float32", "rate": 0.2, "noise_shape": null, "seed": null}}, {"class_name": "LSTM", "config": {"name": "lstm_1", "trainable": true, "dtype": "float32", "return_sequences": false, "return_state": false, "go_backwards": false, "stateful": false, "unroll": false, "time_major": false, "units": 32, "activation": "tanh", "recurrent_activation": "sigmoid", "use_bias": true, "kernel_initializer": {"class_name": "GlorotUniform", "config": {"seed": null}}, "recurrent_initializer": {"class_name": "Orthogonal", "config": {"gain": 1.0, "seed": null}}, "bias_initializer": {"class_name": "Zeros", "config": {}}, "unit_forget_bias": true, "kernel_regularizer": null, "recurrent_regularizer": null, "bias_regularizer": null, "activity_regularizer": null, "kernel_constraint": null, "recurrent_constraint": null, "bias_constraint": null, "dropout": 0.2, "recurrent_dropout": 0.2, "implementation": 1}}, {"class_name": "Dense", "config": {"name": "dense_4", "trainable": true, "dtype": "float32", "units": 1, "activation": "sigmoid", "use_bias": true, "kernel_initializer": {"class_name": "GlorotUniform", "config": {"seed": null}}, "bias_initializer": {"class_name": "Zeros", "config": {}}, "kernel_regularizer": null, "bias_regularizer": null, "activity_regularizer": null, "kernel_constraint": null, "bias_constraint": null}}]}, "history": {"loss": [… "accuracy": [… "val_loss": [… "val_accuracy": [… "test_loss": [… "test_accuracy": [… "2020-05-01 20:42:53.701611": {"target": "keras", "data": {"PREPROCESS_OPTRIONS": {"add_link_flag": true, "add_user_flag": true, "add_hash_flag": true, "add_number_flag": true, "add_keyword_flag": false, "add_location_flag": false, "remove_links": true, "remove_users": true, "remove_hash": true, "unslang": true, "split_words": true, "stem": false, "remove_punctuations": true, "remove_numbers": true, "to_lower_case": true, "remove_stop_words": true, "remove_not_alpha": true, "join": false}}, "model": {"BATCH_SIZE": 64, "EPOCHS": 25, "VERBOSE": 1, "OPTIMIZER": "rmsprop", "LEARNING_RATE": 0.0001, "SHUFFLE": true, "EMBEDDING_OPTIONS": {"input_dim": 12175, "output_dim": 256, "input_length": 22}, "TYPE": "LSTM_DROPOUT", "config": {"name": "sequential", "layers": [{"class_name": "Embedding", "config": {"name": "embedding", "trainable": true, "batch_input_shape": [null, 22], "dtype": "float32", "input_dim": 12175, "output_dim": 256, "embeddings_initializer": {"class_name": "RandomUniform", "config": {"minval": -0.05, "maxval": 0.05, "seed": null}}, "embeddings_regularizer": null, "activity_regularizer": null, "embeddings_constraint": null, "mask_zero": false, "input_length": 22}}, {"class_name": "SpatialDropout1D", "config": {"name": "spatial_dropout1d", "trainable": true, "dtype": "float32", "rate": 0.2, "noise_shape": null, "seed": null}}, {"class_name": "LSTM", "config": {"name": "lstm_1", "trainable": true, "dtype": "float32", "return_sequences": false, "return_state": false, "go_backwards": false, "stateful": false, "unroll": false, "time_major": false, "units": 32, "activation": "tanh", "recurrent_activation": "sigmoid", "use_bias": true, "kernel_initializer": {"class_name": "GlorotUniform", "config": {"seed": null}}, "recurrent_initializer": {"class_name": "Orthogonal", "config": {"gain": 1.0, "seed": null}}, "bias_initializer": {"class_name": "Zeros", "config": {}}, "unit_forget_bias": true, "kernel_regularizer": null, "recurrent_regularizer": null, "bias_regularizer": null, "activity_regularizer": null, "kernel_constraint": null, "recurrent_constraint": null, "bias_constraint": null, "dropout": 0.2, "recurrent_dropout": 0.2, "implementation": 1}}, {"class_name": "Dense", "config": {"name": "dense_4", "trainable": true, "dtype": "float32", "units": 1, "activation": "sigmoid", "use_bias": true, "kernel_initializer": {"class_name": "GlorotUniform", "config": {"seed": null}}, "bias_initializer": {"class_name": "Zeros", "config": {}}, "kernel_regularizer": null, "bias_regularizer": null, "activity_regularizer": null, "kernel_constraint": null, "bias_constraint": null}}]}, "history": {"loss": [… "accuracy": [… "val_loss": [… "val_accuracy": [… "test_loss": [… "test_accuracy": [… "2020-05-01 20:48:31.483490": {"target": "keras", "data": {"PREPROCESS_OPTRIONS": {"add_link_flag": true, "add_user_flag": true, "add_hash_flag": true, "add_number_flag": true, "add_keyword_flag": false, "add_location_flag": false, "remove_links": true, "remove_users": true, "remove_hash": true, "unslang": true, "split_words": true, "stem": false, "remove_punctuations": true, "remove_numbers": true, "to_lower_case": true, "remove_stop_words": true, "remove_not_alpha": true, "join": false}}, "model": {"BATCH_SIZE": 64, "EPOCHS": 20, "VERBOSE": 1, "OPTIMIZER": "rmsprop", "LEARNING_RATE": 0.0001, "SHUFFLE": true, "EMBEDDING_OPTIONS": {"input_dim": 12175, "output_dim": 256, "input_length": 22}, "TYPE": "LSTM_DROPOUT", "config": {"name": "sequential", "layers": [{"class_name": "Embedding", "config": {"name": "embedding", "trainable": true, "batch_input_shape": [null, 22], "dtype": "float32", "input_dim": 12175, "output_dim": 256, "embeddings_initializer": {"class_name": "RandomUniform", "config": {"minval": -0.05, "maxval": 0.05, "seed": null}}, "embeddings_regularizer": null, "activity_regularizer": null, "embeddings_constraint": null, "mask_zero": false, "input_length": 22}}, {"class_name": "SpatialDropout1D", "config": {"name": "spatial_dropout1d", "trainable": true, "dtype": "float32", "rate": 0.2, "noise_shape": null, "seed": null}}, {"class_name": "LSTM", "config": {"name": "lstm_1", "trainable": true, "dtype": "float32", "return_sequences": false, "return_state": false, "go_backwards": false, "stateful": false, "unroll": false, "time_major": false, "units": 64, "activation": "tanh", "recurrent_activation": "sigmoid", "use_bias": true, "kernel_initializer": {"class_name": "GlorotUniform", "config": {"seed": null}}, "recurrent_initializer": {"class_name": "Orthogonal", "config": {"gain": 1.0, "seed": null}}, "bias_initializer": {"class_name": "Zeros", "config": {}}, "unit_forget_bias": true, "kernel_regularizer": null, "recurrent_regularizer": null, "bias_regularizer": null, "activity_regularizer": null, "kernel_constraint": null, "recurrent_constraint": null, "bias_constraint": null, "dropout": 0.2, "recurrent_dropout": 0.2, "implementation": 1}}, {"class_name": "Dense", "config": {"name": "dense_4", "trainable": true, "dtype": "float32", "units": 1, "activation": "sigmoid", "use_bias": true, "kernel_initializer": {"class_name": "GlorotUniform", "config": {"seed": null}}, "bias_initializer": {"class_name": "Zeros", "config": {}}, "kernel_regularizer": null, "bias_regularizer": null, "activity_regularizer": null, "kernel_constraint": null, "bias_constraint": null}}]}, "history": {"loss": [… "accuracy": [… "val_loss": [… "val_accuracy": [… "test_loss": [… "test_accuracy": [… "2020-05-01 20:51:25.743623": {"target": "keras", "data": {"PREPROCESS_OPTRIONS": {"add_link_flag": true, "add_user_flag": true, "add_hash_flag": true, "add_number_flag": true, "add_keyword_flag": false, "add_location_flag": false, "remove_links": true, "remove_users": true, "remove_hash": true, "unslang": true, "split_words": true, "stem": false, "remove_punctuations": true, "remove_numbers": true, "to_lower_case": true, "remove_stop_words": true, "remove_not_alpha": true, "join": false}}, "model": {"BATCH_SIZE": 64, "EPOCHS": 20, "VERBOSE": 1, "OPTIMIZER": "rmsprop", "LEARNING_RATE": 0.0001, "SHUFFLE": true, "EMBEDDING_OPTIONS": {"input_dim": 12175, "output_dim": 256, "input_length": 22}, "TYPE": "LSTM_DROPOUT", "config": {"name": "sequential", "layers": [{"class_name": "Embedding", "config": {"name": "embedding", "trainable": true, "batch_input_shape": [null, 22], "dtype": "float32", "input_dim": 12175, "output_dim": 256, "embeddings_initializer": {"class_name": "RandomUniform", "config": {"minval": -0.05, "maxval": 0.05, "seed": null}}, "embeddings_regularizer": null, "activity_regularizer": null, "embeddings_constraint": null, "mask_zero": false, "input_length": 22}}, {"class_name": "SpatialDropout1D", "config": {"name": "spatial_dropout1d", "trainable": true, "dtype": "float32", "rate": 0.2, "noise_shape": null, "seed": null}}, {"class_name": "LSTM", "config": {"name": "lstm_1", "trainable": true, "dtype": "float32", "return_sequences": false, "return_state": false, "go_backwards": false, "stateful": false, "unroll": false, "time_major": false, "units": 64, "activation": "tanh", "recurrent_activation": "sigmoid", "use_bias": true, "kernel_initializer": {"class_name": "GlorotUniform", "config": {"seed": null}}, "recurrent_initializer": {"class_name": "Orthogonal", "config": {"gain": 1.0, "seed": null}}, "bias_initializer": {"class_name": "Zeros", "config": {}}, "unit_forget_bias": true, "kernel_regularizer": null, "recurrent_regularizer": null, "bias_regularizer": null, "activity_regularizer": null, "kernel_constraint": null, "recurrent_constraint": null, "bias_constraint": null, "dropout": 0.2, "recurrent_dropout": 0.2, "implementation": 1}}, {"class_name": "Dense", "config": {"name": "dense_4", "trainable": true, "dtype": "float32", "units": 1, "activation": "sigmoid", "use_bias": true, "kernel_initializer": {"class_name": "GlorotUniform", "config": {"seed": null}}, "bias_initializer": {"class_name": "Zeros", "config": {}}, "kernel_regularizer": null, "bias_regularizer": null, "activity_regularizer": null, "kernel_constraint": null, "bias_constraint": null}}]}, "history": {"loss": [… "accuracy": [… "val_loss": [… "val_accuracy": [… "test_loss": [… "test_accuracy": [… "2020-05-01 20:53:14.151787": {"target": "keras", "data": {"PREPROCESS_OPTRIONS": {"add_link_flag": true, "add_user_flag": true, "add_hash_flag": true, "add_number_flag": true, "add_keyword_flag": false, "add_location_flag": false, "remove_links": true, "remove_users": true, "remove_hash": true, "unslang": true, "split_words": true, "stem": false, "remove_punctuations": true, "remove_numbers": true, "to_lower_case": true, "remove_stop_words": true, "remove_not_alpha": true, "join": false}}, "model": {"BATCH_SIZE": 64, "EPOCHS": 20, "VERBOSE": 1, "OPTIMIZER": "adam", "LEARNING_RATE": 0.0001, "SHUFFLE": true, "EMBEDDING_OPTIONS": {"input_dim": 12175, "output_dim": 256, "input_length": 22}, "TYPE": "LSTM_DROPOUT", "config": {"name": "sequential", "layers": [{"class_name": "Embedding", "config": {"name": "embedding", "trainable": true, "batch_input_shape": [null, 22], "dtype": "float32", "input_dim": 12175, "output_dim": 256, "embeddings_initializer": {"class_name": "RandomUniform", "config": {"minval": -0.05, "maxval": 0.05, "seed": null}}, "embeddings_regularizer": null, "activity_regularizer": null, "embeddings_constraint": null, "mask_zero": false, "input_length": 22}}, {"class_name": "SpatialDropout1D", "config": {"name": "spatial_dropout1d", "trainable": true, "dtype": "float32", "rate": 0.2, "noise_shape": null, "seed": null}}, {"class_name": "LSTM", "config": {"name": "lstm_1", "trainable": true, "dtype": "float32", "return_sequences": false, "return_state": false, "go_backwards": false, "stateful": false, "unroll": false, "time_major": false, "units": 64, "activation": "tanh", "recurrent_activation": "sigmoid", "use_bias": true, "kernel_initializer": {"class_name": "GlorotUniform", "config": {"seed": null}}, "recurrent_initializer": {"class_name": "Orthogonal", "config": {"gain": 1.0, "seed": null}}, "bias_initializer": {"class_name": "Zeros", "config": {}}, "unit_forget_bias": true, "kernel_regularizer": null, "recurrent_regularizer": null, "bias_regularizer": null, "activity_regularizer": null, "kernel_constraint": null, "recurrent_constraint": null, "bias_constraint": null, "dropout": 0.2, "recurrent_dropout": 0.2, "implementation": 1}}, {"class_name": "Dense", "config": {"name": "dense_4", "trainable": true, "dtype": "float32", "units": 1, "activation": "sigmoid", "use_bias": true, "kernel_initializer": {"class_name": "GlorotUniform", "config": {"seed": null}}, "bias_initializer": {"class_name": "Zeros", "config": {}}, "kernel_regularizer": null, "bias_regularizer": null, "activity_regularizer": null, "kernel_constraint": null, "bias_constraint": null}}]}, "history": {"loss": [… "accuracy": [… "val_loss": [… "val_accuracy": [… "test_loss": [… "test_accuracy": [… "2020-05-01 20:54:28.002001": {"target": "keras", "data": {"PREPROCESS_OPTRIONS": {"add_link_flag": true, "add_user_flag": true, "add_hash_flag": true, "add_number_flag": true, "add_keyword_flag": false, "add_location_flag": false, "remove_links": true, "remove_users": true, "remove_hash": true, "unslang": true, "split_words": true, "stem": false, "remove_punctuations": true, "remove_numbers": true, "to_lower_case": true, "remove_stop_words": true, "remove_not_alpha": true, "join": false}}, "model": {"BATCH_SIZE": 64, "EPOCHS": 20, "VERBOSE": 1, "OPTIMIZER": "adam", "LEARNING_RATE": 0.0001, "SHUFFLE": true, "EMBEDDING_OPTIONS": {"input_dim": 12175, "output_dim": 128, "input_length": 22}, "TYPE": "LSTM_DROPOUT", "config": {"name": "sequential", "layers": [{"class_name": "Embedding", "config": {"name": "embedding", "trainable": true, "batch_input_shape": [null, 22], "dtype": "float32", "input_dim": 12175, "output_dim": 128, "embeddings_initializer": {"class_name": "RandomUniform", "config": {"minval": -0.05, "maxval": 0.05, "seed": null}}, "embeddings_regularizer": null, "activity_regularizer": null, "embeddings_constraint": null, "mask_zero": false, "input_length": 22}}, {"class_name": "SpatialDropout1D", "config": {"name": "spatial_dropout1d", "trainable": true, "dtype": "float32", "rate": 0.2, "noise_shape": null, "seed": null}}, {"class_name": "LSTM", "config": {"name": "lstm_1", "trainable": true, "dtype": "float32", "return_sequences": false, "return_state": false, "go_backwards": false, "stateful": false, "unroll": false, "time_major": false, "units": 64, "activation": "tanh", "recurrent_activation": "sigmoid", "use_bias": true, "kernel_initializer": {"class_name": "GlorotUniform", "config": {"seed": null}}, "recurrent_initializer": {"class_name": "Orthogonal", "config": {"gain": 1.0, "seed": null}}, "bias_initializer": {"class_name": "Zeros", "config": {}}, "unit_forget_bias": true, "kernel_regularizer": null, "recurrent_regularizer": null, "bias_regularizer": null, "activity_regularizer": null, "kernel_constraint": null, "recurrent_constraint": null, "bias_constraint": null, "dropout": 0.2, "recurrent_dropout": 0.2, "implementation": 1}}, {"class_name": "Dense", "config": {"name": "dense_4", "trainable": true, "dtype": "float32", "units": 1, "activation": "sigmoid", "use_bias": true, "kernel_initializer": {"class_name": "GlorotUniform", "config": {"seed": null}}, "bias_initializer": {"class_name": "Zeros", "config": {}}, "kernel_regularizer": null, "bias_regularizer": null, "activity_regularizer": null, "kernel_constraint": null, "bias_constraint": null}}]}, "history": {"loss": [… "accuracy": [… "val_loss": [… "val_accuracy": [… "test_loss": [… "test_accuracy": [… "2020-05-01 20:56:33.780240": {"target": "keras", "data": {"PREPROCESS_OPTRIONS": {"add_link_flag": true, "add_user_flag": true, "add_hash_flag": true, "add_number_flag": true, "add_keyword_flag": false, "add_location_flag": false, "remove_links": true, "remove_users": true, "remove_hash": true, "unslang": true, "split_words": true, "stem": false, "remove_punctuations": true, "remove_numbers": true, "to_lower_case": true, "remove_stop_words": true, "remove_not_alpha": true, "join": false}}, "model": {"BATCH_SIZE": 64, "EPOCHS": 20, "VERBOSE": 1, "OPTIMIZER": "rmsprop", "LEARNING_RATE": 0.0001, "SHUFFLE": true, "EMBEDDING_OPTIONS": {"input_dim": 12175, "output_dim": 128, "input_length": 22}, "TYPE": "LSTM", "config": {"name": "sequential", "layers": [{"class_name": "Embedding", "config": {"name": "embedding", "trainable": true, "batch_input_shape": [null, 22], "dtype": "float32", "input_dim": 12175, "output_dim": 128, "embeddings_initializer": {"class_name": "RandomUniform", "config": {"minval": -0.05, "maxval": 0.05, "seed": null}}, "embeddings_regularizer": null, "activity_regularizer": null, "embeddings_constraint": null, "mask_zero": false, "input_length": 22}}, {"class_name": "LSTM", "config": {"name": "lstm", "trainable": true, "dtype": "float32", "return_sequences": false, "return_state": false, "go_backwards": false, "stateful": false, "unroll": false, "time_major": false, "units": 64, "activation": "tanh", "recurrent_activation": "sigmoid", "use_bias": true, "kernel_initializer": {"class_name": "GlorotUniform", "config": {"seed": null}}, "recurrent_initializer": {"class_name": "Orthogonal", "config": {"gain": 1.0, "seed": null}}, "bias_initializer": {"class_name": "Zeros", "config": {}}, "unit_forget_bias": true, "kernel_regularizer": null, "recurrent_regularizer": null, "bias_regularizer": null, "activity_regularizer": null, "kernel_constraint": null, "recurrent_constraint": null, "bias_constraint": null, "dropout": 0.0, "recurrent_dropout": 0.0, "implementation": 2}}, {"class_name": "Dense", "config": {"name": "dense_4", "trainable": true, "dtype": "float32", "units": 1, "activation": "sigmoid", "use_bias": true, "kernel_initializer": {"class_name": "GlorotUniform", "config": {"seed": null}}, "bias_initializer": {"class_name": "Zeros", "config": {}}, "kernel_regularizer": null, "bias_regularizer": null, "activity_regularizer": null, "kernel_constraint": null, "bias_constraint": null}}]}, "history": {"loss": [… "accuracy": [… "val_loss": [… "val_accuracy": [… "test_loss": [… "test_accuracy": [… 